// -----// IR Dump Before Inliner (inline) ('builtin.module' operation) //----- //
#loc = loc("/home/meiziyuan/triton/test_tiny_gemm.py":17:0)
#loc22 = loc("a_ptr"(#loc))
#loc23 = loc("b_ptr"(#loc))
#loc24 = loc("c_ptr"(#loc))
module attributes {triton.shared_layout = "vector:1->(0,1);bank:1->(1,0),2->(2,0),4->(0,2),8->(0,4),16->(0,8);segment:1->(8,0),2->(4,8);outdims:dim0->16,dim1->16;reps:0"} {
  tt.func public @tiny_matmul_kernel(%a_ptr: !tt.ptr<f16> {tt.divisibility = 16 : i32} loc("a_ptr"(#loc)), %b_ptr: !tt.ptr<f16> {tt.divisibility = 16 : i32} loc("b_ptr"(#loc)), %c_ptr: !tt.ptr<f16> {tt.divisibility = 16 : i32} loc("c_ptr"(#loc))) attributes {noinline = false} {
    %offs = tt.make_range {end = 16 : i32, start = 0 : i32} : tensor<16xi32> loc(#loc25)
    %a = tt.expand_dims %offs {axis = 1 : i32} : tensor<16xi32> -> tensor<16x1xi32> loc(#loc26)
    %a_0 = arith.constant 16 : i32 loc(#loc27)
    %a_1 = arith.constant 16 : i32 loc(#loc27)
    %a_2 = arith.constant dense<16> : tensor<16x1xi32> loc(#loc27)
    %a_3 = arith.extsi %a : tensor<16x1xi32> to tensor<16x1xi64> loc(#loc27)
    %a_4 = arith.extsi %a_2 : tensor<16x1xi32> to tensor<16x1xi64> loc(#loc27)
    %a_5 = arith.muli %a_3, %a_4 : tensor<16x1xi64> loc(#loc27)
    %a_6 = arith.constant 2147483647 : i64 loc(#loc27)
    %a_7 = arith.constant -2147483648 : i64 loc(#loc27)
    %a_8 = arith.constant dense<2147483647> : tensor<16x1xi64> loc(#loc27)
    %a_9 = arith.cmpi sle, %a_5, %a_8 : tensor<16x1xi64> loc(#loc27)
    %a_10 = arith.constant dense<-2147483648> : tensor<16x1xi64> loc(#loc27)
    %a_11 = arith.cmpi sge, %a_5, %a_10 : tensor<16x1xi64> loc(#loc27)
    %a_12 = arith.andi %a_9, %a_11 : tensor<16x1xi1> loc(#loc27)
    %a_13 = arith.muli %a, %a_2 : tensor<16x1xi32> loc(#loc27)
    %a_14 = tt.splat %a_ptr : !tt.ptr<f16> -> tensor<16x1x!tt.ptr<f16>> loc(#loc28)
    %a_15 = tt.addptr %a_14, %a_13 : tensor<16x1x!tt.ptr<f16>>, tensor<16x1xi32> loc(#loc28)
    %a_16 = tt.expand_dims %offs {axis = 0 : i32} : tensor<16xi32> -> tensor<1x16xi32> loc(#loc29)
    %a_17 = tt.broadcast %a_15 : tensor<16x1x!tt.ptr<f16>> -> tensor<16x16x!tt.ptr<f16>> loc(#loc30)
    %a_18 = tt.broadcast %a_16 : tensor<1x16xi32> -> tensor<16x16xi32> loc(#loc30)
    %a_19 = tt.addptr %a_17, %a_18 : tensor<16x16x!tt.ptr<f16>>, tensor<16x16xi32> loc(#loc30)
    %a_20 = tt.load %a_19 : tensor<16x16x!tt.ptr<f16>> loc(#loc31)
    %b = tt.expand_dims %offs {axis = 1 : i32} : tensor<16xi32> -> tensor<16x1xi32> loc(#loc32)
    %b_21 = arith.constant 16 : i32 loc(#loc33)
    %b_22 = arith.constant 16 : i32 loc(#loc33)
    %b_23 = arith.constant dense<16> : tensor<16x1xi32> loc(#loc33)
    %b_24 = arith.extsi %b : tensor<16x1xi32> to tensor<16x1xi64> loc(#loc33)
    %b_25 = arith.extsi %b_23 : tensor<16x1xi32> to tensor<16x1xi64> loc(#loc33)
    %b_26 = arith.muli %b_24, %b_25 : tensor<16x1xi64> loc(#loc33)
    %b_27 = arith.constant 2147483647 : i64 loc(#loc33)
    %b_28 = arith.constant -2147483648 : i64 loc(#loc33)
    %b_29 = arith.constant dense<2147483647> : tensor<16x1xi64> loc(#loc33)
    %b_30 = arith.cmpi sle, %b_26, %b_29 : tensor<16x1xi64> loc(#loc33)
    %b_31 = arith.constant dense<-2147483648> : tensor<16x1xi64> loc(#loc33)
    %b_32 = arith.cmpi sge, %b_26, %b_31 : tensor<16x1xi64> loc(#loc33)
    %b_33 = arith.andi %b_30, %b_32 : tensor<16x1xi1> loc(#loc33)
    %b_34 = arith.muli %b, %b_23 : tensor<16x1xi32> loc(#loc33)
    %b_35 = tt.splat %b_ptr : !tt.ptr<f16> -> tensor<16x1x!tt.ptr<f16>> loc(#loc34)
    %b_36 = tt.addptr %b_35, %b_34 : tensor<16x1x!tt.ptr<f16>>, tensor<16x1xi32> loc(#loc34)
    %b_37 = tt.expand_dims %offs {axis = 0 : i32} : tensor<16xi32> -> tensor<1x16xi32> loc(#loc35)
    %b_38 = tt.broadcast %b_36 : tensor<16x1x!tt.ptr<f16>> -> tensor<16x16x!tt.ptr<f16>> loc(#loc36)
    %b_39 = tt.broadcast %b_37 : tensor<1x16xi32> -> tensor<16x16xi32> loc(#loc36)
    %b_40 = tt.addptr %b_38, %b_39 : tensor<16x16x!tt.ptr<f16>>, tensor<16x16xi32> loc(#loc36)
    %b_41 = tt.load %b_40 : tensor<16x16x!tt.ptr<f16>> loc(#loc37)
    %c = arith.constant 0.000000e+00 : f32 loc(#loc38)
    %c_42 = arith.constant dense<0.000000e+00> : tensor<16x16xf32> loc(#loc38)
    %c_43 = tt.dot %a_20, %b_41, %c_42, inputPrecision = tf32 : tensor<16x16xf16> * tensor<16x16xf16> -> tensor<16x16xf32> loc(#loc38)
    %0 = tt.expand_dims %offs {axis = 1 : i32} : tensor<16xi32> -> tensor<16x1xi32> loc(#loc15)
    %c16_i32 = arith.constant 16 : i32 loc(#loc16)
    %c16_i32_44 = arith.constant 16 : i32 loc(#loc16)
    %cst = arith.constant dense<16> : tensor<16x1xi32> loc(#loc16)
    %1 = arith.extsi %0 : tensor<16x1xi32> to tensor<16x1xi64> loc(#loc16)
    %2 = arith.extsi %cst : tensor<16x1xi32> to tensor<16x1xi64> loc(#loc16)
    %3 = arith.muli %1, %2 : tensor<16x1xi64> loc(#loc16)
    %c2147483647_i64 = arith.constant 2147483647 : i64 loc(#loc16)
    %c-2147483648_i64 = arith.constant -2147483648 : i64 loc(#loc16)
    %cst_45 = arith.constant dense<2147483647> : tensor<16x1xi64> loc(#loc16)
    %4 = arith.cmpi sle, %3, %cst_45 : tensor<16x1xi64> loc(#loc16)
    %cst_46 = arith.constant dense<-2147483648> : tensor<16x1xi64> loc(#loc16)
    %5 = arith.cmpi sge, %3, %cst_46 : tensor<16x1xi64> loc(#loc16)
    %6 = arith.andi %4, %5 : tensor<16x1xi1> loc(#loc16)
    %7 = arith.muli %0, %cst : tensor<16x1xi32> loc(#loc16)
    %8 = tt.splat %c_ptr : !tt.ptr<f16> -> tensor<16x1x!tt.ptr<f16>> loc(#loc17)
    %9 = tt.addptr %8, %7 : tensor<16x1x!tt.ptr<f16>>, tensor<16x1xi32> loc(#loc17)
    %10 = tt.expand_dims %offs {axis = 0 : i32} : tensor<16xi32> -> tensor<1x16xi32> loc(#loc18)
    %11 = tt.broadcast %9 : tensor<16x1x!tt.ptr<f16>> -> tensor<16x16x!tt.ptr<f16>> loc(#loc19)
    %12 = tt.broadcast %10 : tensor<1x16xi32> -> tensor<16x16xi32> loc(#loc19)
    %13 = tt.addptr %11, %12 : tensor<16x16x!tt.ptr<f16>>, tensor<16x16xi32> loc(#loc19)
    %14 = arith.truncf %c_43 : tensor<16x16xf32> to tensor<16x16xf16> loc(#loc20)
    tt.store %13, %14 : tensor<16x16x!tt.ptr<f16>> loc(#loc20)
    tt.return loc(#loc21)
  } loc(#loc)
} loc(#loc)
#loc1 = loc("/home/meiziyuan/triton/test_tiny_gemm.py":18:24)
#loc2 = loc("/home/meiziyuan/triton/test_tiny_gemm.py":19:29)
#loc3 = loc("/home/meiziyuan/triton/test_tiny_gemm.py":19:40)
#loc4 = loc("/home/meiziyuan/triton/test_tiny_gemm.py":19:24)
#loc5 = loc("/home/meiziyuan/triton/test_tiny_gemm.py":19:50)
#loc6 = loc("/home/meiziyuan/triton/test_tiny_gemm.py":19:45)
#loc7 = loc("/home/meiziyuan/triton/test_tiny_gemm.py":19:16)
#loc8 = loc("/home/meiziyuan/triton/test_tiny_gemm.py":20:29)
#loc9 = loc("/home/meiziyuan/triton/test_tiny_gemm.py":20:40)
#loc10 = loc("/home/meiziyuan/triton/test_tiny_gemm.py":20:24)
#loc11 = loc("/home/meiziyuan/triton/test_tiny_gemm.py":20:50)
#loc12 = loc("/home/meiziyuan/triton/test_tiny_gemm.py":20:45)
#loc13 = loc("/home/meiziyuan/triton/test_tiny_gemm.py":20:16)
#loc14 = loc("/home/meiziyuan/triton/test_tiny_gemm.py":21:18)
#loc15 = loc("/home/meiziyuan/triton/test_tiny_gemm.py":22:26)
#loc16 = loc("/home/meiziyuan/triton/test_tiny_gemm.py":22:37)
#loc17 = loc("/home/meiziyuan/triton/test_tiny_gemm.py":22:21)
#loc18 = loc("/home/meiziyuan/triton/test_tiny_gemm.py":22:47)
#loc19 = loc("/home/meiziyuan/triton/test_tiny_gemm.py":22:42)
#loc20 = loc("/home/meiziyuan/triton/test_tiny_gemm.py":22:57)
#loc21 = loc("/home/meiziyuan/triton/test_tiny_gemm.py":22:4)
#loc25 = loc("offs"(#loc1))
#loc26 = loc("a"(#loc2))
#loc27 = loc("a"(#loc3))
#loc28 = loc("a"(#loc4))
#loc29 = loc("a"(#loc5))
#loc30 = loc("a"(#loc6))
#loc31 = loc("a"(#loc7))
#loc32 = loc("b"(#loc8))
#loc33 = loc("b"(#loc9))
#loc34 = loc("b"(#loc10))
#loc35 = loc("b"(#loc11))
#loc36 = loc("b"(#loc12))
#loc37 = loc("b"(#loc13))
#loc38 = loc("c"(#loc14))


// -----// IR Dump Before Canonicalizer (canonicalize) ('tt.func' operation: @tiny_matmul_kernel) //----- //
#loc = loc("/home/meiziyuan/triton/test_tiny_gemm.py":17:0)
#loc22 = loc("a_ptr"(#loc))
#loc23 = loc("b_ptr"(#loc))
#loc24 = loc("c_ptr"(#loc))
module attributes {triton.shared_layout = "vector:1->(0,1);bank:1->(1,0),2->(2,0),4->(0,2),8->(0,4),16->(0,8);segment:1->(8,0),2->(4,8);outdims:dim0->16,dim1->16;reps:0"} {
  tt.func public @tiny_matmul_kernel(%a_ptr: !tt.ptr<f16> {tt.divisibility = 16 : i32} loc("a_ptr"(#loc)), %b_ptr: !tt.ptr<f16> {tt.divisibility = 16 : i32} loc("b_ptr"(#loc)), %c_ptr: !tt.ptr<f16> {tt.divisibility = 16 : i32} loc("c_ptr"(#loc))) attributes {noinline = false} {
    %offs = tt.make_range {end = 16 : i32, start = 0 : i32} : tensor<16xi32> loc(#loc25)
    %a = tt.expand_dims %offs {axis = 1 : i32} : tensor<16xi32> -> tensor<16x1xi32> loc(#loc26)
    %a_0 = arith.constant 16 : i32 loc(#loc27)
    %a_1 = arith.constant 16 : i32 loc(#loc27)
    %a_2 = arith.constant dense<16> : tensor<16x1xi32> loc(#loc27)
    %a_3 = arith.extsi %a : tensor<16x1xi32> to tensor<16x1xi64> loc(#loc27)
    %a_4 = arith.extsi %a_2 : tensor<16x1xi32> to tensor<16x1xi64> loc(#loc27)
    %a_5 = arith.muli %a_3, %a_4 : tensor<16x1xi64> loc(#loc27)
    %a_6 = arith.constant 2147483647 : i64 loc(#loc27)
    %a_7 = arith.constant -2147483648 : i64 loc(#loc27)
    %a_8 = arith.constant dense<2147483647> : tensor<16x1xi64> loc(#loc27)
    %a_9 = arith.cmpi sle, %a_5, %a_8 : tensor<16x1xi64> loc(#loc27)
    %a_10 = arith.constant dense<-2147483648> : tensor<16x1xi64> loc(#loc27)
    %a_11 = arith.cmpi sge, %a_5, %a_10 : tensor<16x1xi64> loc(#loc27)
    %a_12 = arith.andi %a_9, %a_11 : tensor<16x1xi1> loc(#loc27)
    %a_13 = arith.muli %a, %a_2 : tensor<16x1xi32> loc(#loc27)
    %a_14 = tt.splat %a_ptr : !tt.ptr<f16> -> tensor<16x1x!tt.ptr<f16>> loc(#loc28)
    %a_15 = tt.addptr %a_14, %a_13 : tensor<16x1x!tt.ptr<f16>>, tensor<16x1xi32> loc(#loc28)
    %a_16 = tt.expand_dims %offs {axis = 0 : i32} : tensor<16xi32> -> tensor<1x16xi32> loc(#loc29)
    %a_17 = tt.broadcast %a_15 : tensor<16x1x!tt.ptr<f16>> -> tensor<16x16x!tt.ptr<f16>> loc(#loc30)
    %a_18 = tt.broadcast %a_16 : tensor<1x16xi32> -> tensor<16x16xi32> loc(#loc30)
    %a_19 = tt.addptr %a_17, %a_18 : tensor<16x16x!tt.ptr<f16>>, tensor<16x16xi32> loc(#loc30)
    %a_20 = tt.load %a_19 : tensor<16x16x!tt.ptr<f16>> loc(#loc31)
    %b = tt.expand_dims %offs {axis = 1 : i32} : tensor<16xi32> -> tensor<16x1xi32> loc(#loc32)
    %b_21 = arith.constant 16 : i32 loc(#loc33)
    %b_22 = arith.constant 16 : i32 loc(#loc33)
    %b_23 = arith.constant dense<16> : tensor<16x1xi32> loc(#loc33)
    %b_24 = arith.extsi %b : tensor<16x1xi32> to tensor<16x1xi64> loc(#loc33)
    %b_25 = arith.extsi %b_23 : tensor<16x1xi32> to tensor<16x1xi64> loc(#loc33)
    %b_26 = arith.muli %b_24, %b_25 : tensor<16x1xi64> loc(#loc33)
    %b_27 = arith.constant 2147483647 : i64 loc(#loc33)
    %b_28 = arith.constant -2147483648 : i64 loc(#loc33)
    %b_29 = arith.constant dense<2147483647> : tensor<16x1xi64> loc(#loc33)
    %b_30 = arith.cmpi sle, %b_26, %b_29 : tensor<16x1xi64> loc(#loc33)
    %b_31 = arith.constant dense<-2147483648> : tensor<16x1xi64> loc(#loc33)
    %b_32 = arith.cmpi sge, %b_26, %b_31 : tensor<16x1xi64> loc(#loc33)
    %b_33 = arith.andi %b_30, %b_32 : tensor<16x1xi1> loc(#loc33)
    %b_34 = arith.muli %b, %b_23 : tensor<16x1xi32> loc(#loc33)
    %b_35 = tt.splat %b_ptr : !tt.ptr<f16> -> tensor<16x1x!tt.ptr<f16>> loc(#loc34)
    %b_36 = tt.addptr %b_35, %b_34 : tensor<16x1x!tt.ptr<f16>>, tensor<16x1xi32> loc(#loc34)
    %b_37 = tt.expand_dims %offs {axis = 0 : i32} : tensor<16xi32> -> tensor<1x16xi32> loc(#loc35)
    %b_38 = tt.broadcast %b_36 : tensor<16x1x!tt.ptr<f16>> -> tensor<16x16x!tt.ptr<f16>> loc(#loc36)
    %b_39 = tt.broadcast %b_37 : tensor<1x16xi32> -> tensor<16x16xi32> loc(#loc36)
    %b_40 = tt.addptr %b_38, %b_39 : tensor<16x16x!tt.ptr<f16>>, tensor<16x16xi32> loc(#loc36)
    %b_41 = tt.load %b_40 : tensor<16x16x!tt.ptr<f16>> loc(#loc37)
    %c = arith.constant 0.000000e+00 : f32 loc(#loc38)
    %c_42 = arith.constant dense<0.000000e+00> : tensor<16x16xf32> loc(#loc38)
    %c_43 = tt.dot %a_20, %b_41, %c_42, inputPrecision = tf32 : tensor<16x16xf16> * tensor<16x16xf16> -> tensor<16x16xf32> loc(#loc38)
    %0 = tt.expand_dims %offs {axis = 1 : i32} : tensor<16xi32> -> tensor<16x1xi32> loc(#loc15)
    %c16_i32 = arith.constant 16 : i32 loc(#loc16)
    %c16_i32_44 = arith.constant 16 : i32 loc(#loc16)
    %cst = arith.constant dense<16> : tensor<16x1xi32> loc(#loc16)
    %1 = arith.extsi %0 : tensor<16x1xi32> to tensor<16x1xi64> loc(#loc16)
    %2 = arith.extsi %cst : tensor<16x1xi32> to tensor<16x1xi64> loc(#loc16)
    %3 = arith.muli %1, %2 : tensor<16x1xi64> loc(#loc16)
    %c2147483647_i64 = arith.constant 2147483647 : i64 loc(#loc16)
    %c-2147483648_i64 = arith.constant -2147483648 : i64 loc(#loc16)
    %cst_45 = arith.constant dense<2147483647> : tensor<16x1xi64> loc(#loc16)
    %4 = arith.cmpi sle, %3, %cst_45 : tensor<16x1xi64> loc(#loc16)
    %cst_46 = arith.constant dense<-2147483648> : tensor<16x1xi64> loc(#loc16)
    %5 = arith.cmpi sge, %3, %cst_46 : tensor<16x1xi64> loc(#loc16)
    %6 = arith.andi %4, %5 : tensor<16x1xi1> loc(#loc16)
    %7 = arith.muli %0, %cst : tensor<16x1xi32> loc(#loc16)
    %8 = tt.splat %c_ptr : !tt.ptr<f16> -> tensor<16x1x!tt.ptr<f16>> loc(#loc17)
    %9 = tt.addptr %8, %7 : tensor<16x1x!tt.ptr<f16>>, tensor<16x1xi32> loc(#loc17)
    %10 = tt.expand_dims %offs {axis = 0 : i32} : tensor<16xi32> -> tensor<1x16xi32> loc(#loc18)
    %11 = tt.broadcast %9 : tensor<16x1x!tt.ptr<f16>> -> tensor<16x16x!tt.ptr<f16>> loc(#loc19)
    %12 = tt.broadcast %10 : tensor<1x16xi32> -> tensor<16x16xi32> loc(#loc19)
    %13 = tt.addptr %11, %12 : tensor<16x16x!tt.ptr<f16>>, tensor<16x16xi32> loc(#loc19)
    %14 = arith.truncf %c_43 : tensor<16x16xf32> to tensor<16x16xf16> loc(#loc20)
    tt.store %13, %14 : tensor<16x16x!tt.ptr<f16>> loc(#loc20)
    tt.return loc(#loc21)
  } loc(#loc)
} loc(#loc)
#loc1 = loc("/home/meiziyuan/triton/test_tiny_gemm.py":18:24)
#loc2 = loc("/home/meiziyuan/triton/test_tiny_gemm.py":19:29)
#loc3 = loc("/home/meiziyuan/triton/test_tiny_gemm.py":19:40)
#loc4 = loc("/home/meiziyuan/triton/test_tiny_gemm.py":19:24)
#loc5 = loc("/home/meiziyuan/triton/test_tiny_gemm.py":19:50)
#loc6 = loc("/home/meiziyuan/triton/test_tiny_gemm.py":19:45)
#loc7 = loc("/home/meiziyuan/triton/test_tiny_gemm.py":19:16)
#loc8 = loc("/home/meiziyuan/triton/test_tiny_gemm.py":20:29)
#loc9 = loc("/home/meiziyuan/triton/test_tiny_gemm.py":20:40)
#loc10 = loc("/home/meiziyuan/triton/test_tiny_gemm.py":20:24)
#loc11 = loc("/home/meiziyuan/triton/test_tiny_gemm.py":20:50)
#loc12 = loc("/home/meiziyuan/triton/test_tiny_gemm.py":20:45)
#loc13 = loc("/home/meiziyuan/triton/test_tiny_gemm.py":20:16)
#loc14 = loc("/home/meiziyuan/triton/test_tiny_gemm.py":21:18)
#loc15 = loc("/home/meiziyuan/triton/test_tiny_gemm.py":22:26)
#loc16 = loc("/home/meiziyuan/triton/test_tiny_gemm.py":22:37)
#loc17 = loc("/home/meiziyuan/triton/test_tiny_gemm.py":22:21)
#loc18 = loc("/home/meiziyuan/triton/test_tiny_gemm.py":22:47)
#loc19 = loc("/home/meiziyuan/triton/test_tiny_gemm.py":22:42)
#loc20 = loc("/home/meiziyuan/triton/test_tiny_gemm.py":22:57)
#loc21 = loc("/home/meiziyuan/triton/test_tiny_gemm.py":22:4)
#loc25 = loc("offs"(#loc1))
#loc26 = loc("a"(#loc2))
#loc27 = loc("a"(#loc3))
#loc28 = loc("a"(#loc4))
#loc29 = loc("a"(#loc5))
#loc30 = loc("a"(#loc6))
#loc31 = loc("a"(#loc7))
#loc32 = loc("b"(#loc8))
#loc33 = loc("b"(#loc9))
#loc34 = loc("b"(#loc10))
#loc35 = loc("b"(#loc11))
#loc36 = loc("b"(#loc12))
#loc37 = loc("b"(#loc13))
#loc38 = loc("c"(#loc14))


// -----// IR Dump Before TritonRewriteTensorPointer (triton-rewrite-tensor-pointer) ('builtin.module' operation) //----- //
#loc = loc("/home/meiziyuan/triton/test_tiny_gemm.py":17:0)
#loc23 = loc("a_ptr"(#loc))
#loc24 = loc("b_ptr"(#loc))
#loc25 = loc("c_ptr"(#loc))
module attributes {triton.shared_layout = "vector:1->(0,1);bank:1->(1,0),2->(2,0),4->(0,2),8->(0,4),16->(0,8);segment:1->(8,0),2->(4,8);outdims:dim0->16,dim1->16;reps:0"} {
  tt.func public @tiny_matmul_kernel(%a_ptr: !tt.ptr<f16> {tt.divisibility = 16 : i32} loc("a_ptr"(#loc)), %b_ptr: !tt.ptr<f16> {tt.divisibility = 16 : i32} loc("b_ptr"(#loc)), %c_ptr: !tt.ptr<f16> {tt.divisibility = 16 : i32} loc("c_ptr"(#loc))) attributes {noinline = false} {
    %cst = arith.constant dense<0.000000e+00> : tensor<16x16xf32> loc(#loc1)
    %cst_0 = arith.constant dense<16> : tensor<16x1xi32> loc(#loc1)
    %offs = tt.make_range {end = 16 : i32, start = 0 : i32} : tensor<16xi32> loc(#loc26)
    %a = tt.expand_dims %offs {axis = 1 : i32} : tensor<16xi32> -> tensor<16x1xi32> loc(#loc27)
    %a_1 = arith.muli %a, %cst_0 : tensor<16x1xi32> loc(#loc28)
    %a_2 = tt.splat %a_ptr : !tt.ptr<f16> -> tensor<16x1x!tt.ptr<f16>> loc(#loc29)
    %a_3 = tt.addptr %a_2, %a_1 : tensor<16x1x!tt.ptr<f16>>, tensor<16x1xi32> loc(#loc29)
    %a_4 = tt.expand_dims %offs {axis = 0 : i32} : tensor<16xi32> -> tensor<1x16xi32> loc(#loc30)
    %a_5 = tt.broadcast %a_3 : tensor<16x1x!tt.ptr<f16>> -> tensor<16x16x!tt.ptr<f16>> loc(#loc31)
    %a_6 = tt.broadcast %a_4 : tensor<1x16xi32> -> tensor<16x16xi32> loc(#loc31)
    %a_7 = tt.addptr %a_5, %a_6 : tensor<16x16x!tt.ptr<f16>>, tensor<16x16xi32> loc(#loc31)
    %a_8 = tt.load %a_7 : tensor<16x16x!tt.ptr<f16>> loc(#loc32)
    %b = tt.expand_dims %offs {axis = 1 : i32} : tensor<16xi32> -> tensor<16x1xi32> loc(#loc33)
    %b_9 = arith.muli %b, %cst_0 : tensor<16x1xi32> loc(#loc34)
    %b_10 = tt.splat %b_ptr : !tt.ptr<f16> -> tensor<16x1x!tt.ptr<f16>> loc(#loc35)
    %b_11 = tt.addptr %b_10, %b_9 : tensor<16x1x!tt.ptr<f16>>, tensor<16x1xi32> loc(#loc35)
    %b_12 = tt.expand_dims %offs {axis = 0 : i32} : tensor<16xi32> -> tensor<1x16xi32> loc(#loc36)
    %b_13 = tt.broadcast %b_11 : tensor<16x1x!tt.ptr<f16>> -> tensor<16x16x!tt.ptr<f16>> loc(#loc37)
    %b_14 = tt.broadcast %b_12 : tensor<1x16xi32> -> tensor<16x16xi32> loc(#loc37)
    %b_15 = tt.addptr %b_13, %b_14 : tensor<16x16x!tt.ptr<f16>>, tensor<16x16xi32> loc(#loc37)
    %b_16 = tt.load %b_15 : tensor<16x16x!tt.ptr<f16>> loc(#loc38)
    %c = tt.dot %a_8, %b_16, %cst, inputPrecision = tf32 : tensor<16x16xf16> * tensor<16x16xf16> -> tensor<16x16xf32> loc(#loc39)
    %0 = tt.expand_dims %offs {axis = 1 : i32} : tensor<16xi32> -> tensor<16x1xi32> loc(#loc16)
    %1 = arith.muli %0, %cst_0 : tensor<16x1xi32> loc(#loc17)
    %2 = tt.splat %c_ptr : !tt.ptr<f16> -> tensor<16x1x!tt.ptr<f16>> loc(#loc18)
    %3 = tt.addptr %2, %1 : tensor<16x1x!tt.ptr<f16>>, tensor<16x1xi32> loc(#loc18)
    %4 = tt.expand_dims %offs {axis = 0 : i32} : tensor<16xi32> -> tensor<1x16xi32> loc(#loc19)
    %5 = tt.broadcast %3 : tensor<16x1x!tt.ptr<f16>> -> tensor<16x16x!tt.ptr<f16>> loc(#loc20)
    %6 = tt.broadcast %4 : tensor<1x16xi32> -> tensor<16x16xi32> loc(#loc20)
    %7 = tt.addptr %5, %6 : tensor<16x16x!tt.ptr<f16>>, tensor<16x16xi32> loc(#loc20)
    %8 = arith.truncf %c : tensor<16x16xf32> to tensor<16x16xf16> loc(#loc21)
    tt.store %7, %8 : tensor<16x16x!tt.ptr<f16>> loc(#loc21)
    tt.return loc(#loc22)
  } loc(#loc)
} loc(#loc)
#loc1 = loc(unknown)
#loc2 = loc("/home/meiziyuan/triton/test_tiny_gemm.py":18:24)
#loc3 = loc("/home/meiziyuan/triton/test_tiny_gemm.py":19:29)
#loc4 = loc("/home/meiziyuan/triton/test_tiny_gemm.py":19:40)
#loc5 = loc("/home/meiziyuan/triton/test_tiny_gemm.py":19:24)
#loc6 = loc("/home/meiziyuan/triton/test_tiny_gemm.py":19:50)
#loc7 = loc("/home/meiziyuan/triton/test_tiny_gemm.py":19:45)
#loc8 = loc("/home/meiziyuan/triton/test_tiny_gemm.py":19:16)
#loc9 = loc("/home/meiziyuan/triton/test_tiny_gemm.py":20:29)
#loc10 = loc("/home/meiziyuan/triton/test_tiny_gemm.py":20:40)
#loc11 = loc("/home/meiziyuan/triton/test_tiny_gemm.py":20:24)
#loc12 = loc("/home/meiziyuan/triton/test_tiny_gemm.py":20:50)
#loc13 = loc("/home/meiziyuan/triton/test_tiny_gemm.py":20:45)
#loc14 = loc("/home/meiziyuan/triton/test_tiny_gemm.py":20:16)
#loc15 = loc("/home/meiziyuan/triton/test_tiny_gemm.py":21:18)
#loc16 = loc("/home/meiziyuan/triton/test_tiny_gemm.py":22:26)
#loc17 = loc("/home/meiziyuan/triton/test_tiny_gemm.py":22:37)
#loc18 = loc("/home/meiziyuan/triton/test_tiny_gemm.py":22:21)
#loc19 = loc("/home/meiziyuan/triton/test_tiny_gemm.py":22:47)
#loc20 = loc("/home/meiziyuan/triton/test_tiny_gemm.py":22:42)
#loc21 = loc("/home/meiziyuan/triton/test_tiny_gemm.py":22:57)
#loc22 = loc("/home/meiziyuan/triton/test_tiny_gemm.py":22:4)
#loc26 = loc("offs"(#loc2))
#loc27 = loc("a"(#loc3))
#loc28 = loc("a"(#loc4))
#loc29 = loc("a"(#loc5))
#loc30 = loc("a"(#loc6))
#loc31 = loc("a"(#loc7))
#loc32 = loc("a"(#loc8))
#loc33 = loc("b"(#loc9))
#loc34 = loc("b"(#loc10))
#loc35 = loc("b"(#loc11))
#loc36 = loc("b"(#loc12))
#loc37 = loc("b"(#loc13))
#loc38 = loc("b"(#loc14))
#loc39 = loc("c"(#loc15))


// -----// IR Dump Before Canonicalizer (canonicalize) ('builtin.module' operation) //----- //
#loc = loc("/home/meiziyuan/triton/test_tiny_gemm.py":17:0)
#loc23 = loc("a_ptr"(#loc))
#loc24 = loc("b_ptr"(#loc))
#loc25 = loc("c_ptr"(#loc))
module attributes {triton.shared_layout = "vector:1->(0,1);bank:1->(1,0),2->(2,0),4->(0,2),8->(0,4),16->(0,8);segment:1->(8,0),2->(4,8);outdims:dim0->16,dim1->16;reps:0"} {
  tt.func public @tiny_matmul_kernel(%a_ptr: !tt.ptr<f16> {tt.divisibility = 16 : i32} loc("a_ptr"(#loc)), %b_ptr: !tt.ptr<f16> {tt.divisibility = 16 : i32} loc("b_ptr"(#loc)), %c_ptr: !tt.ptr<f16> {tt.divisibility = 16 : i32} loc("c_ptr"(#loc))) attributes {noinline = false} {
    %cst = arith.constant dense<0.000000e+00> : tensor<16x16xf32> loc(#loc1)
    %cst_0 = arith.constant dense<16> : tensor<16x1xi32> loc(#loc1)
    %offs = tt.make_range {end = 16 : i32, start = 0 : i32} : tensor<16xi32> loc(#loc26)
    %a = tt.expand_dims %offs {axis = 1 : i32} : tensor<16xi32> -> tensor<16x1xi32> loc(#loc27)
    %a_1 = arith.muli %a, %cst_0 : tensor<16x1xi32> loc(#loc28)
    %a_2 = tt.splat %a_ptr : !tt.ptr<f16> -> tensor<16x1x!tt.ptr<f16>> loc(#loc29)
    %a_3 = tt.addptr %a_2, %a_1 : tensor<16x1x!tt.ptr<f16>>, tensor<16x1xi32> loc(#loc29)
    %a_4 = tt.expand_dims %offs {axis = 0 : i32} : tensor<16xi32> -> tensor<1x16xi32> loc(#loc30)
    %a_5 = tt.broadcast %a_3 : tensor<16x1x!tt.ptr<f16>> -> tensor<16x16x!tt.ptr<f16>> loc(#loc31)
    %a_6 = tt.broadcast %a_4 : tensor<1x16xi32> -> tensor<16x16xi32> loc(#loc31)
    %a_7 = tt.addptr %a_5, %a_6 : tensor<16x16x!tt.ptr<f16>>, tensor<16x16xi32> loc(#loc31)
    %a_8 = tt.load %a_7 : tensor<16x16x!tt.ptr<f16>> loc(#loc32)
    %b = tt.expand_dims %offs {axis = 1 : i32} : tensor<16xi32> -> tensor<16x1xi32> loc(#loc33)
    %b_9 = arith.muli %b, %cst_0 : tensor<16x1xi32> loc(#loc34)
    %b_10 = tt.splat %b_ptr : !tt.ptr<f16> -> tensor<16x1x!tt.ptr<f16>> loc(#loc35)
    %b_11 = tt.addptr %b_10, %b_9 : tensor<16x1x!tt.ptr<f16>>, tensor<16x1xi32> loc(#loc35)
    %b_12 = tt.expand_dims %offs {axis = 0 : i32} : tensor<16xi32> -> tensor<1x16xi32> loc(#loc36)
    %b_13 = tt.broadcast %b_11 : tensor<16x1x!tt.ptr<f16>> -> tensor<16x16x!tt.ptr<f16>> loc(#loc37)
    %b_14 = tt.broadcast %b_12 : tensor<1x16xi32> -> tensor<16x16xi32> loc(#loc37)
    %b_15 = tt.addptr %b_13, %b_14 : tensor<16x16x!tt.ptr<f16>>, tensor<16x16xi32> loc(#loc37)
    %b_16 = tt.load %b_15 : tensor<16x16x!tt.ptr<f16>> loc(#loc38)
    %c = tt.dot %a_8, %b_16, %cst, inputPrecision = tf32 : tensor<16x16xf16> * tensor<16x16xf16> -> tensor<16x16xf32> loc(#loc39)
    %0 = tt.expand_dims %offs {axis = 1 : i32} : tensor<16xi32> -> tensor<16x1xi32> loc(#loc16)
    %1 = arith.muli %0, %cst_0 : tensor<16x1xi32> loc(#loc17)
    %2 = tt.splat %c_ptr : !tt.ptr<f16> -> tensor<16x1x!tt.ptr<f16>> loc(#loc18)
    %3 = tt.addptr %2, %1 : tensor<16x1x!tt.ptr<f16>>, tensor<16x1xi32> loc(#loc18)
    %4 = tt.expand_dims %offs {axis = 0 : i32} : tensor<16xi32> -> tensor<1x16xi32> loc(#loc19)
    %5 = tt.broadcast %3 : tensor<16x1x!tt.ptr<f16>> -> tensor<16x16x!tt.ptr<f16>> loc(#loc20)
    %6 = tt.broadcast %4 : tensor<1x16xi32> -> tensor<16x16xi32> loc(#loc20)
    %7 = tt.addptr %5, %6 : tensor<16x16x!tt.ptr<f16>>, tensor<16x16xi32> loc(#loc20)
    %8 = arith.truncf %c : tensor<16x16xf32> to tensor<16x16xf16> loc(#loc21)
    tt.store %7, %8 : tensor<16x16x!tt.ptr<f16>> loc(#loc21)
    tt.return loc(#loc22)
  } loc(#loc)
} loc(#loc)
#loc1 = loc(unknown)
#loc2 = loc("/home/meiziyuan/triton/test_tiny_gemm.py":18:24)
#loc3 = loc("/home/meiziyuan/triton/test_tiny_gemm.py":19:29)
#loc4 = loc("/home/meiziyuan/triton/test_tiny_gemm.py":19:40)
#loc5 = loc("/home/meiziyuan/triton/test_tiny_gemm.py":19:24)
#loc6 = loc("/home/meiziyuan/triton/test_tiny_gemm.py":19:50)
#loc7 = loc("/home/meiziyuan/triton/test_tiny_gemm.py":19:45)
#loc8 = loc("/home/meiziyuan/triton/test_tiny_gemm.py":19:16)
#loc9 = loc("/home/meiziyuan/triton/test_tiny_gemm.py":20:29)
#loc10 = loc("/home/meiziyuan/triton/test_tiny_gemm.py":20:40)
#loc11 = loc("/home/meiziyuan/triton/test_tiny_gemm.py":20:24)
#loc12 = loc("/home/meiziyuan/triton/test_tiny_gemm.py":20:50)
#loc13 = loc("/home/meiziyuan/triton/test_tiny_gemm.py":20:45)
#loc14 = loc("/home/meiziyuan/triton/test_tiny_gemm.py":20:16)
#loc15 = loc("/home/meiziyuan/triton/test_tiny_gemm.py":21:18)
#loc16 = loc("/home/meiziyuan/triton/test_tiny_gemm.py":22:26)
#loc17 = loc("/home/meiziyuan/triton/test_tiny_gemm.py":22:37)
#loc18 = loc("/home/meiziyuan/triton/test_tiny_gemm.py":22:21)
#loc19 = loc("/home/meiziyuan/triton/test_tiny_gemm.py":22:47)
#loc20 = loc("/home/meiziyuan/triton/test_tiny_gemm.py":22:42)
#loc21 = loc("/home/meiziyuan/triton/test_tiny_gemm.py":22:57)
#loc22 = loc("/home/meiziyuan/triton/test_tiny_gemm.py":22:4)
#loc26 = loc("offs"(#loc2))
#loc27 = loc("a"(#loc3))
#loc28 = loc("a"(#loc4))
#loc29 = loc("a"(#loc5))
#loc30 = loc("a"(#loc6))
#loc31 = loc("a"(#loc7))
#loc32 = loc("a"(#loc8))
#loc33 = loc("b"(#loc9))
#loc34 = loc("b"(#loc10))
#loc35 = loc("b"(#loc11))
#loc36 = loc("b"(#loc12))
#loc37 = loc("b"(#loc13))
#loc38 = loc("b"(#loc14))
#loc39 = loc("c"(#loc15))


// -----// IR Dump Before TritonCombineOps (triton-combine) ('builtin.module' operation) //----- //
#loc = loc("/home/meiziyuan/triton/test_tiny_gemm.py":17:0)
#loc23 = loc("a_ptr"(#loc))
#loc24 = loc("b_ptr"(#loc))
#loc25 = loc("c_ptr"(#loc))
module attributes {triton.shared_layout = "vector:1->(0,1);bank:1->(1,0),2->(2,0),4->(0,2),8->(0,4),16->(0,8);segment:1->(8,0),2->(4,8);outdims:dim0->16,dim1->16;reps:0"} {
  tt.func public @tiny_matmul_kernel(%a_ptr: !tt.ptr<f16> {tt.divisibility = 16 : i32} loc("a_ptr"(#loc)), %b_ptr: !tt.ptr<f16> {tt.divisibility = 16 : i32} loc("b_ptr"(#loc)), %c_ptr: !tt.ptr<f16> {tt.divisibility = 16 : i32} loc("c_ptr"(#loc))) attributes {noinline = false} {
    %cst = arith.constant dense<0.000000e+00> : tensor<16x16xf32> loc(#loc1)
    %cst_0 = arith.constant dense<16> : tensor<16x1xi32> loc(#loc1)
    %offs = tt.make_range {end = 16 : i32, start = 0 : i32} : tensor<16xi32> loc(#loc26)
    %a = tt.expand_dims %offs {axis = 1 : i32} : tensor<16xi32> -> tensor<16x1xi32> loc(#loc27)
    %a_1 = arith.muli %a, %cst_0 : tensor<16x1xi32> loc(#loc28)
    %a_2 = tt.splat %a_ptr : !tt.ptr<f16> -> tensor<16x1x!tt.ptr<f16>> loc(#loc29)
    %a_3 = tt.addptr %a_2, %a_1 : tensor<16x1x!tt.ptr<f16>>, tensor<16x1xi32> loc(#loc29)
    %a_4 = tt.expand_dims %offs {axis = 0 : i32} : tensor<16xi32> -> tensor<1x16xi32> loc(#loc30)
    %a_5 = tt.broadcast %a_3 : tensor<16x1x!tt.ptr<f16>> -> tensor<16x16x!tt.ptr<f16>> loc(#loc31)
    %a_6 = tt.broadcast %a_4 : tensor<1x16xi32> -> tensor<16x16xi32> loc(#loc31)
    %a_7 = tt.addptr %a_5, %a_6 : tensor<16x16x!tt.ptr<f16>>, tensor<16x16xi32> loc(#loc31)
    %a_8 = tt.load %a_7 : tensor<16x16x!tt.ptr<f16>> loc(#loc32)
    %b = tt.expand_dims %offs {axis = 1 : i32} : tensor<16xi32> -> tensor<16x1xi32> loc(#loc33)
    %b_9 = arith.muli %b, %cst_0 : tensor<16x1xi32> loc(#loc34)
    %b_10 = tt.splat %b_ptr : !tt.ptr<f16> -> tensor<16x1x!tt.ptr<f16>> loc(#loc35)
    %b_11 = tt.addptr %b_10, %b_9 : tensor<16x1x!tt.ptr<f16>>, tensor<16x1xi32> loc(#loc35)
    %b_12 = tt.expand_dims %offs {axis = 0 : i32} : tensor<16xi32> -> tensor<1x16xi32> loc(#loc36)
    %b_13 = tt.broadcast %b_11 : tensor<16x1x!tt.ptr<f16>> -> tensor<16x16x!tt.ptr<f16>> loc(#loc37)
    %b_14 = tt.broadcast %b_12 : tensor<1x16xi32> -> tensor<16x16xi32> loc(#loc37)
    %b_15 = tt.addptr %b_13, %b_14 : tensor<16x16x!tt.ptr<f16>>, tensor<16x16xi32> loc(#loc37)
    %b_16 = tt.load %b_15 : tensor<16x16x!tt.ptr<f16>> loc(#loc38)
    %c = tt.dot %a_8, %b_16, %cst, inputPrecision = tf32 : tensor<16x16xf16> * tensor<16x16xf16> -> tensor<16x16xf32> loc(#loc39)
    %0 = tt.expand_dims %offs {axis = 1 : i32} : tensor<16xi32> -> tensor<16x1xi32> loc(#loc16)
    %1 = arith.muli %0, %cst_0 : tensor<16x1xi32> loc(#loc17)
    %2 = tt.splat %c_ptr : !tt.ptr<f16> -> tensor<16x1x!tt.ptr<f16>> loc(#loc18)
    %3 = tt.addptr %2, %1 : tensor<16x1x!tt.ptr<f16>>, tensor<16x1xi32> loc(#loc18)
    %4 = tt.expand_dims %offs {axis = 0 : i32} : tensor<16xi32> -> tensor<1x16xi32> loc(#loc19)
    %5 = tt.broadcast %3 : tensor<16x1x!tt.ptr<f16>> -> tensor<16x16x!tt.ptr<f16>> loc(#loc20)
    %6 = tt.broadcast %4 : tensor<1x16xi32> -> tensor<16x16xi32> loc(#loc20)
    %7 = tt.addptr %5, %6 : tensor<16x16x!tt.ptr<f16>>, tensor<16x16xi32> loc(#loc20)
    %8 = arith.truncf %c : tensor<16x16xf32> to tensor<16x16xf16> loc(#loc21)
    tt.store %7, %8 : tensor<16x16x!tt.ptr<f16>> loc(#loc21)
    tt.return loc(#loc22)
  } loc(#loc)
} loc(#loc)
#loc1 = loc(unknown)
#loc2 = loc("/home/meiziyuan/triton/test_tiny_gemm.py":18:24)
#loc3 = loc("/home/meiziyuan/triton/test_tiny_gemm.py":19:29)
#loc4 = loc("/home/meiziyuan/triton/test_tiny_gemm.py":19:40)
#loc5 = loc("/home/meiziyuan/triton/test_tiny_gemm.py":19:24)
#loc6 = loc("/home/meiziyuan/triton/test_tiny_gemm.py":19:50)
#loc7 = loc("/home/meiziyuan/triton/test_tiny_gemm.py":19:45)
#loc8 = loc("/home/meiziyuan/triton/test_tiny_gemm.py":19:16)
#loc9 = loc("/home/meiziyuan/triton/test_tiny_gemm.py":20:29)
#loc10 = loc("/home/meiziyuan/triton/test_tiny_gemm.py":20:40)
#loc11 = loc("/home/meiziyuan/triton/test_tiny_gemm.py":20:24)
#loc12 = loc("/home/meiziyuan/triton/test_tiny_gemm.py":20:50)
#loc13 = loc("/home/meiziyuan/triton/test_tiny_gemm.py":20:45)
#loc14 = loc("/home/meiziyuan/triton/test_tiny_gemm.py":20:16)
#loc15 = loc("/home/meiziyuan/triton/test_tiny_gemm.py":21:18)
#loc16 = loc("/home/meiziyuan/triton/test_tiny_gemm.py":22:26)
#loc17 = loc("/home/meiziyuan/triton/test_tiny_gemm.py":22:37)
#loc18 = loc("/home/meiziyuan/triton/test_tiny_gemm.py":22:21)
#loc19 = loc("/home/meiziyuan/triton/test_tiny_gemm.py":22:47)
#loc20 = loc("/home/meiziyuan/triton/test_tiny_gemm.py":22:42)
#loc21 = loc("/home/meiziyuan/triton/test_tiny_gemm.py":22:57)
#loc22 = loc("/home/meiziyuan/triton/test_tiny_gemm.py":22:4)
#loc26 = loc("offs"(#loc2))
#loc27 = loc("a"(#loc3))
#loc28 = loc("a"(#loc4))
#loc29 = loc("a"(#loc5))
#loc30 = loc("a"(#loc6))
#loc31 = loc("a"(#loc7))
#loc32 = loc("a"(#loc8))
#loc33 = loc("b"(#loc9))
#loc34 = loc("b"(#loc10))
#loc35 = loc("b"(#loc11))
#loc36 = loc("b"(#loc12))
#loc37 = loc("b"(#loc13))
#loc38 = loc("b"(#loc14))
#loc39 = loc("c"(#loc15))


// -----// IR Dump Before TritonReorderBroadcast (triton-reorder-broadcast) ('builtin.module' operation) //----- //
#loc = loc("/home/meiziyuan/triton/test_tiny_gemm.py":17:0)
#loc23 = loc("a_ptr"(#loc))
#loc24 = loc("b_ptr"(#loc))
#loc25 = loc("c_ptr"(#loc))
module attributes {triton.shared_layout = "vector:1->(0,1);bank:1->(1,0),2->(2,0),4->(0,2),8->(0,4),16->(0,8);segment:1->(8,0),2->(4,8);outdims:dim0->16,dim1->16;reps:0"} {
  tt.func public @tiny_matmul_kernel(%a_ptr: !tt.ptr<f16> {tt.divisibility = 16 : i32} loc("a_ptr"(#loc)), %b_ptr: !tt.ptr<f16> {tt.divisibility = 16 : i32} loc("b_ptr"(#loc)), %c_ptr: !tt.ptr<f16> {tt.divisibility = 16 : i32} loc("c_ptr"(#loc))) attributes {noinline = false} {
    %cst = arith.constant dense<0.000000e+00> : tensor<16x16xf32> loc(#loc1)
    %cst_0 = arith.constant dense<16> : tensor<16x1xi32> loc(#loc1)
    %offs = tt.make_range {end = 16 : i32, start = 0 : i32} : tensor<16xi32> loc(#loc26)
    %a = tt.expand_dims %offs {axis = 1 : i32} : tensor<16xi32> -> tensor<16x1xi32> loc(#loc27)
    %a_1 = arith.muli %a, %cst_0 : tensor<16x1xi32> loc(#loc28)
    %a_2 = tt.splat %a_ptr : !tt.ptr<f16> -> tensor<16x1x!tt.ptr<f16>> loc(#loc29)
    %a_3 = tt.addptr %a_2, %a_1 : tensor<16x1x!tt.ptr<f16>>, tensor<16x1xi32> loc(#loc29)
    %a_4 = tt.expand_dims %offs {axis = 0 : i32} : tensor<16xi32> -> tensor<1x16xi32> loc(#loc30)
    %a_5 = tt.broadcast %a_3 : tensor<16x1x!tt.ptr<f16>> -> tensor<16x16x!tt.ptr<f16>> loc(#loc31)
    %a_6 = tt.broadcast %a_4 : tensor<1x16xi32> -> tensor<16x16xi32> loc(#loc31)
    %a_7 = tt.addptr %a_5, %a_6 : tensor<16x16x!tt.ptr<f16>>, tensor<16x16xi32> loc(#loc31)
    %a_8 = tt.load %a_7 : tensor<16x16x!tt.ptr<f16>> loc(#loc32)
    %b = tt.expand_dims %offs {axis = 1 : i32} : tensor<16xi32> -> tensor<16x1xi32> loc(#loc33)
    %b_9 = arith.muli %b, %cst_0 : tensor<16x1xi32> loc(#loc34)
    %b_10 = tt.splat %b_ptr : !tt.ptr<f16> -> tensor<16x1x!tt.ptr<f16>> loc(#loc35)
    %b_11 = tt.addptr %b_10, %b_9 : tensor<16x1x!tt.ptr<f16>>, tensor<16x1xi32> loc(#loc35)
    %b_12 = tt.expand_dims %offs {axis = 0 : i32} : tensor<16xi32> -> tensor<1x16xi32> loc(#loc36)
    %b_13 = tt.broadcast %b_11 : tensor<16x1x!tt.ptr<f16>> -> tensor<16x16x!tt.ptr<f16>> loc(#loc37)
    %b_14 = tt.broadcast %b_12 : tensor<1x16xi32> -> tensor<16x16xi32> loc(#loc37)
    %b_15 = tt.addptr %b_13, %b_14 : tensor<16x16x!tt.ptr<f16>>, tensor<16x16xi32> loc(#loc37)
    %b_16 = tt.load %b_15 : tensor<16x16x!tt.ptr<f16>> loc(#loc38)
    %c = tt.dot %a_8, %b_16, %cst, inputPrecision = tf32 : tensor<16x16xf16> * tensor<16x16xf16> -> tensor<16x16xf32> loc(#loc39)
    %0 = tt.expand_dims %offs {axis = 1 : i32} : tensor<16xi32> -> tensor<16x1xi32> loc(#loc16)
    %1 = arith.muli %0, %cst_0 : tensor<16x1xi32> loc(#loc17)
    %2 = tt.splat %c_ptr : !tt.ptr<f16> -> tensor<16x1x!tt.ptr<f16>> loc(#loc18)
    %3 = tt.addptr %2, %1 : tensor<16x1x!tt.ptr<f16>>, tensor<16x1xi32> loc(#loc18)
    %4 = tt.expand_dims %offs {axis = 0 : i32} : tensor<16xi32> -> tensor<1x16xi32> loc(#loc19)
    %5 = tt.broadcast %3 : tensor<16x1x!tt.ptr<f16>> -> tensor<16x16x!tt.ptr<f16>> loc(#loc20)
    %6 = tt.broadcast %4 : tensor<1x16xi32> -> tensor<16x16xi32> loc(#loc20)
    %7 = tt.addptr %5, %6 : tensor<16x16x!tt.ptr<f16>>, tensor<16x16xi32> loc(#loc20)
    %8 = arith.truncf %c : tensor<16x16xf32> to tensor<16x16xf16> loc(#loc21)
    tt.store %7, %8 : tensor<16x16x!tt.ptr<f16>> loc(#loc21)
    tt.return loc(#loc22)
  } loc(#loc)
} loc(#loc)
#loc1 = loc(unknown)
#loc2 = loc("/home/meiziyuan/triton/test_tiny_gemm.py":18:24)
#loc3 = loc("/home/meiziyuan/triton/test_tiny_gemm.py":19:29)
#loc4 = loc("/home/meiziyuan/triton/test_tiny_gemm.py":19:40)
#loc5 = loc("/home/meiziyuan/triton/test_tiny_gemm.py":19:24)
#loc6 = loc("/home/meiziyuan/triton/test_tiny_gemm.py":19:50)
#loc7 = loc("/home/meiziyuan/triton/test_tiny_gemm.py":19:45)
#loc8 = loc("/home/meiziyuan/triton/test_tiny_gemm.py":19:16)
#loc9 = loc("/home/meiziyuan/triton/test_tiny_gemm.py":20:29)
#loc10 = loc("/home/meiziyuan/triton/test_tiny_gemm.py":20:40)
#loc11 = loc("/home/meiziyuan/triton/test_tiny_gemm.py":20:24)
#loc12 = loc("/home/meiziyuan/triton/test_tiny_gemm.py":20:50)
#loc13 = loc("/home/meiziyuan/triton/test_tiny_gemm.py":20:45)
#loc14 = loc("/home/meiziyuan/triton/test_tiny_gemm.py":20:16)
#loc15 = loc("/home/meiziyuan/triton/test_tiny_gemm.py":21:18)
#loc16 = loc("/home/meiziyuan/triton/test_tiny_gemm.py":22:26)
#loc17 = loc("/home/meiziyuan/triton/test_tiny_gemm.py":22:37)
#loc18 = loc("/home/meiziyuan/triton/test_tiny_gemm.py":22:21)
#loc19 = loc("/home/meiziyuan/triton/test_tiny_gemm.py":22:47)
#loc20 = loc("/home/meiziyuan/triton/test_tiny_gemm.py":22:42)
#loc21 = loc("/home/meiziyuan/triton/test_tiny_gemm.py":22:57)
#loc22 = loc("/home/meiziyuan/triton/test_tiny_gemm.py":22:4)
#loc26 = loc("offs"(#loc2))
#loc27 = loc("a"(#loc3))
#loc28 = loc("a"(#loc4))
#loc29 = loc("a"(#loc5))
#loc30 = loc("a"(#loc6))
#loc31 = loc("a"(#loc7))
#loc32 = loc("a"(#loc8))
#loc33 = loc("b"(#loc9))
#loc34 = loc("b"(#loc10))
#loc35 = loc("b"(#loc11))
#loc36 = loc("b"(#loc12))
#loc37 = loc("b"(#loc13))
#loc38 = loc("b"(#loc14))
#loc39 = loc("c"(#loc15))


// -----// IR Dump Before CSE (cse) ('builtin.module' operation) //----- //
#loc = loc("/home/meiziyuan/triton/test_tiny_gemm.py":17:0)
#loc23 = loc("a_ptr"(#loc))
#loc24 = loc("b_ptr"(#loc))
#loc25 = loc("c_ptr"(#loc))
module attributes {triton.shared_layout = "vector:1->(0,1);bank:1->(1,0),2->(2,0),4->(0,2),8->(0,4),16->(0,8);segment:1->(8,0),2->(4,8);outdims:dim0->16,dim1->16;reps:0"} {
  tt.func public @tiny_matmul_kernel(%a_ptr: !tt.ptr<f16> {tt.divisibility = 16 : i32} loc("a_ptr"(#loc)), %b_ptr: !tt.ptr<f16> {tt.divisibility = 16 : i32} loc("b_ptr"(#loc)), %c_ptr: !tt.ptr<f16> {tt.divisibility = 16 : i32} loc("c_ptr"(#loc))) attributes {noinline = false} {
    %cst = arith.constant dense<0.000000e+00> : tensor<16x16xf32> loc(#loc1)
    %cst_0 = arith.constant dense<16> : tensor<16x1xi32> loc(#loc1)
    %offs = tt.make_range {end = 16 : i32, start = 0 : i32} : tensor<16xi32> loc(#loc26)
    %a = tt.expand_dims %offs {axis = 1 : i32} : tensor<16xi32> -> tensor<16x1xi32> loc(#loc27)
    %a_1 = arith.muli %a, %cst_0 : tensor<16x1xi32> loc(#loc28)
    %a_2 = tt.splat %a_ptr : !tt.ptr<f16> -> tensor<16x1x!tt.ptr<f16>> loc(#loc29)
    %a_3 = tt.addptr %a_2, %a_1 : tensor<16x1x!tt.ptr<f16>>, tensor<16x1xi32> loc(#loc29)
    %a_4 = tt.expand_dims %offs {axis = 0 : i32} : tensor<16xi32> -> tensor<1x16xi32> loc(#loc30)
    %a_5 = tt.broadcast %a_3 : tensor<16x1x!tt.ptr<f16>> -> tensor<16x16x!tt.ptr<f16>> loc(#loc31)
    %a_6 = tt.broadcast %a_4 : tensor<1x16xi32> -> tensor<16x16xi32> loc(#loc31)
    %a_7 = tt.addptr %a_5, %a_6 : tensor<16x16x!tt.ptr<f16>>, tensor<16x16xi32> loc(#loc31)
    %a_8 = tt.load %a_7 : tensor<16x16x!tt.ptr<f16>> loc(#loc32)
    %b = tt.expand_dims %offs {axis = 1 : i32} : tensor<16xi32> -> tensor<16x1xi32> loc(#loc33)
    %b_9 = arith.muli %b, %cst_0 : tensor<16x1xi32> loc(#loc34)
    %b_10 = tt.splat %b_ptr : !tt.ptr<f16> -> tensor<16x1x!tt.ptr<f16>> loc(#loc35)
    %b_11 = tt.addptr %b_10, %b_9 : tensor<16x1x!tt.ptr<f16>>, tensor<16x1xi32> loc(#loc35)
    %b_12 = tt.expand_dims %offs {axis = 0 : i32} : tensor<16xi32> -> tensor<1x16xi32> loc(#loc36)
    %b_13 = tt.broadcast %b_11 : tensor<16x1x!tt.ptr<f16>> -> tensor<16x16x!tt.ptr<f16>> loc(#loc37)
    %b_14 = tt.broadcast %b_12 : tensor<1x16xi32> -> tensor<16x16xi32> loc(#loc37)
    %b_15 = tt.addptr %b_13, %b_14 : tensor<16x16x!tt.ptr<f16>>, tensor<16x16xi32> loc(#loc37)
    %b_16 = tt.load %b_15 : tensor<16x16x!tt.ptr<f16>> loc(#loc38)
    %c = tt.dot %a_8, %b_16, %cst, inputPrecision = tf32 : tensor<16x16xf16> * tensor<16x16xf16> -> tensor<16x16xf32> loc(#loc39)
    %0 = tt.expand_dims %offs {axis = 1 : i32} : tensor<16xi32> -> tensor<16x1xi32> loc(#loc16)
    %1 = arith.muli %0, %cst_0 : tensor<16x1xi32> loc(#loc17)
    %2 = tt.splat %c_ptr : !tt.ptr<f16> -> tensor<16x1x!tt.ptr<f16>> loc(#loc18)
    %3 = tt.addptr %2, %1 : tensor<16x1x!tt.ptr<f16>>, tensor<16x1xi32> loc(#loc18)
    %4 = tt.expand_dims %offs {axis = 0 : i32} : tensor<16xi32> -> tensor<1x16xi32> loc(#loc19)
    %5 = tt.broadcast %3 : tensor<16x1x!tt.ptr<f16>> -> tensor<16x16x!tt.ptr<f16>> loc(#loc20)
    %6 = tt.broadcast %4 : tensor<1x16xi32> -> tensor<16x16xi32> loc(#loc20)
    %7 = tt.addptr %5, %6 : tensor<16x16x!tt.ptr<f16>>, tensor<16x16xi32> loc(#loc20)
    %8 = arith.truncf %c : tensor<16x16xf32> to tensor<16x16xf16> loc(#loc21)
    tt.store %7, %8 : tensor<16x16x!tt.ptr<f16>> loc(#loc21)
    tt.return loc(#loc22)
  } loc(#loc)
} loc(#loc)
#loc1 = loc(unknown)
#loc2 = loc("/home/meiziyuan/triton/test_tiny_gemm.py":18:24)
#loc3 = loc("/home/meiziyuan/triton/test_tiny_gemm.py":19:29)
#loc4 = loc("/home/meiziyuan/triton/test_tiny_gemm.py":19:40)
#loc5 = loc("/home/meiziyuan/triton/test_tiny_gemm.py":19:24)
#loc6 = loc("/home/meiziyuan/triton/test_tiny_gemm.py":19:50)
#loc7 = loc("/home/meiziyuan/triton/test_tiny_gemm.py":19:45)
#loc8 = loc("/home/meiziyuan/triton/test_tiny_gemm.py":19:16)
#loc9 = loc("/home/meiziyuan/triton/test_tiny_gemm.py":20:29)
#loc10 = loc("/home/meiziyuan/triton/test_tiny_gemm.py":20:40)
#loc11 = loc("/home/meiziyuan/triton/test_tiny_gemm.py":20:24)
#loc12 = loc("/home/meiziyuan/triton/test_tiny_gemm.py":20:50)
#loc13 = loc("/home/meiziyuan/triton/test_tiny_gemm.py":20:45)
#loc14 = loc("/home/meiziyuan/triton/test_tiny_gemm.py":20:16)
#loc15 = loc("/home/meiziyuan/triton/test_tiny_gemm.py":21:18)
#loc16 = loc("/home/meiziyuan/triton/test_tiny_gemm.py":22:26)
#loc17 = loc("/home/meiziyuan/triton/test_tiny_gemm.py":22:37)
#loc18 = loc("/home/meiziyuan/triton/test_tiny_gemm.py":22:21)
#loc19 = loc("/home/meiziyuan/triton/test_tiny_gemm.py":22:47)
#loc20 = loc("/home/meiziyuan/triton/test_tiny_gemm.py":22:42)
#loc21 = loc("/home/meiziyuan/triton/test_tiny_gemm.py":22:57)
#loc22 = loc("/home/meiziyuan/triton/test_tiny_gemm.py":22:4)
#loc26 = loc("offs"(#loc2))
#loc27 = loc("a"(#loc3))
#loc28 = loc("a"(#loc4))
#loc29 = loc("a"(#loc5))
#loc30 = loc("a"(#loc6))
#loc31 = loc("a"(#loc7))
#loc32 = loc("a"(#loc8))
#loc33 = loc("b"(#loc9))
#loc34 = loc("b"(#loc10))
#loc35 = loc("b"(#loc11))
#loc36 = loc("b"(#loc12))
#loc37 = loc("b"(#loc13))
#loc38 = loc("b"(#loc14))
#loc39 = loc("c"(#loc15))


// -----// IR Dump Before SymbolDCE (symbol-dce) ('builtin.module' operation) //----- //
#loc = loc("/home/meiziyuan/triton/test_tiny_gemm.py":17:0)
#loc17 = loc("a_ptr"(#loc))
#loc18 = loc("b_ptr"(#loc))
#loc19 = loc("c_ptr"(#loc))
module attributes {triton.shared_layout = "vector:1->(0,1);bank:1->(1,0),2->(2,0),4->(0,2),8->(0,4),16->(0,8);segment:1->(8,0),2->(4,8);outdims:dim0->16,dim1->16;reps:0"} {
  tt.func public @tiny_matmul_kernel(%a_ptr: !tt.ptr<f16> {tt.divisibility = 16 : i32} loc("a_ptr"(#loc)), %b_ptr: !tt.ptr<f16> {tt.divisibility = 16 : i32} loc("b_ptr"(#loc)), %c_ptr: !tt.ptr<f16> {tt.divisibility = 16 : i32} loc("c_ptr"(#loc))) attributes {noinline = false} {
    %cst = arith.constant dense<0.000000e+00> : tensor<16x16xf32> loc(#loc1)
    %cst_0 = arith.constant dense<16> : tensor<16x1xi32> loc(#loc1)
    %offs = tt.make_range {end = 16 : i32, start = 0 : i32} : tensor<16xi32> loc(#loc20)
    %a = tt.expand_dims %offs {axis = 1 : i32} : tensor<16xi32> -> tensor<16x1xi32> loc(#loc21)
    %a_1 = arith.muli %a, %cst_0 : tensor<16x1xi32> loc(#loc22)
    %a_2 = tt.splat %a_ptr : !tt.ptr<f16> -> tensor<16x1x!tt.ptr<f16>> loc(#loc23)
    %a_3 = tt.addptr %a_2, %a_1 : tensor<16x1x!tt.ptr<f16>>, tensor<16x1xi32> loc(#loc23)
    %a_4 = tt.expand_dims %offs {axis = 0 : i32} : tensor<16xi32> -> tensor<1x16xi32> loc(#loc24)
    %a_5 = tt.broadcast %a_3 : tensor<16x1x!tt.ptr<f16>> -> tensor<16x16x!tt.ptr<f16>> loc(#loc25)
    %a_6 = tt.broadcast %a_4 : tensor<1x16xi32> -> tensor<16x16xi32> loc(#loc25)
    %a_7 = tt.addptr %a_5, %a_6 : tensor<16x16x!tt.ptr<f16>>, tensor<16x16xi32> loc(#loc25)
    %a_8 = tt.load %a_7 : tensor<16x16x!tt.ptr<f16>> loc(#loc26)
    %b = tt.splat %b_ptr : !tt.ptr<f16> -> tensor<16x1x!tt.ptr<f16>> loc(#loc27)
    %b_9 = tt.addptr %b, %a_1 : tensor<16x1x!tt.ptr<f16>>, tensor<16x1xi32> loc(#loc27)
    %b_10 = tt.broadcast %b_9 : tensor<16x1x!tt.ptr<f16>> -> tensor<16x16x!tt.ptr<f16>> loc(#loc28)
    %b_11 = tt.addptr %b_10, %a_6 : tensor<16x16x!tt.ptr<f16>>, tensor<16x16xi32> loc(#loc28)
    %b_12 = tt.load %b_11 : tensor<16x16x!tt.ptr<f16>> loc(#loc29)
    %c = tt.dot %a_8, %b_12, %cst, inputPrecision = tf32 : tensor<16x16xf16> * tensor<16x16xf16> -> tensor<16x16xf32> loc(#loc30)
    %0 = tt.splat %c_ptr : !tt.ptr<f16> -> tensor<16x1x!tt.ptr<f16>> loc(#loc13)
    %1 = tt.addptr %0, %a_1 : tensor<16x1x!tt.ptr<f16>>, tensor<16x1xi32> loc(#loc13)
    %2 = tt.broadcast %1 : tensor<16x1x!tt.ptr<f16>> -> tensor<16x16x!tt.ptr<f16>> loc(#loc14)
    %3 = tt.addptr %2, %a_6 : tensor<16x16x!tt.ptr<f16>>, tensor<16x16xi32> loc(#loc14)
    %4 = arith.truncf %c : tensor<16x16xf32> to tensor<16x16xf16> loc(#loc15)
    tt.store %3, %4 : tensor<16x16x!tt.ptr<f16>> loc(#loc15)
    tt.return loc(#loc16)
  } loc(#loc)
} loc(#loc)
#loc1 = loc(unknown)
#loc2 = loc("/home/meiziyuan/triton/test_tiny_gemm.py":18:24)
#loc3 = loc("/home/meiziyuan/triton/test_tiny_gemm.py":19:29)
#loc4 = loc("/home/meiziyuan/triton/test_tiny_gemm.py":19:40)
#loc5 = loc("/home/meiziyuan/triton/test_tiny_gemm.py":19:24)
#loc6 = loc("/home/meiziyuan/triton/test_tiny_gemm.py":19:50)
#loc7 = loc("/home/meiziyuan/triton/test_tiny_gemm.py":19:45)
#loc8 = loc("/home/meiziyuan/triton/test_tiny_gemm.py":19:16)
#loc9 = loc("/home/meiziyuan/triton/test_tiny_gemm.py":20:24)
#loc10 = loc("/home/meiziyuan/triton/test_tiny_gemm.py":20:45)
#loc11 = loc("/home/meiziyuan/triton/test_tiny_gemm.py":20:16)
#loc12 = loc("/home/meiziyuan/triton/test_tiny_gemm.py":21:18)
#loc13 = loc("/home/meiziyuan/triton/test_tiny_gemm.py":22:21)
#loc14 = loc("/home/meiziyuan/triton/test_tiny_gemm.py":22:42)
#loc15 = loc("/home/meiziyuan/triton/test_tiny_gemm.py":22:57)
#loc16 = loc("/home/meiziyuan/triton/test_tiny_gemm.py":22:4)
#loc20 = loc("offs"(#loc2))
#loc21 = loc("a"(#loc3))
#loc22 = loc("a"(#loc4))
#loc23 = loc("a"(#loc5))
#loc24 = loc("a"(#loc6))
#loc25 = loc("a"(#loc7))
#loc26 = loc("a"(#loc8))
#loc27 = loc("b"(#loc9))
#loc28 = loc("b"(#loc10))
#loc29 = loc("b"(#loc11))
#loc30 = loc("c"(#loc12))


// -----// IR Dump Before TritonLoopUnroll (triton-loop-unroll) ('builtin.module' operation) //----- //
#loc = loc("/home/meiziyuan/triton/test_tiny_gemm.py":17:0)
#loc17 = loc("a_ptr"(#loc))
#loc18 = loc("b_ptr"(#loc))
#loc19 = loc("c_ptr"(#loc))
module attributes {triton.shared_layout = "vector:1->(0,1);bank:1->(1,0),2->(2,0),4->(0,2),8->(0,4),16->(0,8);segment:1->(8,0),2->(4,8);outdims:dim0->16,dim1->16;reps:0"} {
  tt.func public @tiny_matmul_kernel(%a_ptr: !tt.ptr<f16> {tt.divisibility = 16 : i32} loc("a_ptr"(#loc)), %b_ptr: !tt.ptr<f16> {tt.divisibility = 16 : i32} loc("b_ptr"(#loc)), %c_ptr: !tt.ptr<f16> {tt.divisibility = 16 : i32} loc("c_ptr"(#loc))) attributes {noinline = false} {
    %cst = arith.constant dense<0.000000e+00> : tensor<16x16xf32> loc(#loc1)
    %cst_0 = arith.constant dense<16> : tensor<16x1xi32> loc(#loc1)
    %offs = tt.make_range {end = 16 : i32, start = 0 : i32} : tensor<16xi32> loc(#loc20)
    %a = tt.expand_dims %offs {axis = 1 : i32} : tensor<16xi32> -> tensor<16x1xi32> loc(#loc21)
    %a_1 = arith.muli %a, %cst_0 : tensor<16x1xi32> loc(#loc22)
    %a_2 = tt.splat %a_ptr : !tt.ptr<f16> -> tensor<16x1x!tt.ptr<f16>> loc(#loc23)
    %a_3 = tt.addptr %a_2, %a_1 : tensor<16x1x!tt.ptr<f16>>, tensor<16x1xi32> loc(#loc23)
    %a_4 = tt.expand_dims %offs {axis = 0 : i32} : tensor<16xi32> -> tensor<1x16xi32> loc(#loc24)
    %a_5 = tt.broadcast %a_3 : tensor<16x1x!tt.ptr<f16>> -> tensor<16x16x!tt.ptr<f16>> loc(#loc25)
    %a_6 = tt.broadcast %a_4 : tensor<1x16xi32> -> tensor<16x16xi32> loc(#loc25)
    %a_7 = tt.addptr %a_5, %a_6 : tensor<16x16x!tt.ptr<f16>>, tensor<16x16xi32> loc(#loc25)
    %a_8 = tt.load %a_7 : tensor<16x16x!tt.ptr<f16>> loc(#loc26)
    %b = tt.splat %b_ptr : !tt.ptr<f16> -> tensor<16x1x!tt.ptr<f16>> loc(#loc27)
    %b_9 = tt.addptr %b, %a_1 : tensor<16x1x!tt.ptr<f16>>, tensor<16x1xi32> loc(#loc27)
    %b_10 = tt.broadcast %b_9 : tensor<16x1x!tt.ptr<f16>> -> tensor<16x16x!tt.ptr<f16>> loc(#loc28)
    %b_11 = tt.addptr %b_10, %a_6 : tensor<16x16x!tt.ptr<f16>>, tensor<16x16xi32> loc(#loc28)
    %b_12 = tt.load %b_11 : tensor<16x16x!tt.ptr<f16>> loc(#loc29)
    %c = tt.dot %a_8, %b_12, %cst, inputPrecision = tf32 : tensor<16x16xf16> * tensor<16x16xf16> -> tensor<16x16xf32> loc(#loc30)
    %0 = tt.splat %c_ptr : !tt.ptr<f16> -> tensor<16x1x!tt.ptr<f16>> loc(#loc13)
    %1 = tt.addptr %0, %a_1 : tensor<16x1x!tt.ptr<f16>>, tensor<16x1xi32> loc(#loc13)
    %2 = tt.broadcast %1 : tensor<16x1x!tt.ptr<f16>> -> tensor<16x16x!tt.ptr<f16>> loc(#loc14)
    %3 = tt.addptr %2, %a_6 : tensor<16x16x!tt.ptr<f16>>, tensor<16x16xi32> loc(#loc14)
    %4 = arith.truncf %c : tensor<16x16xf32> to tensor<16x16xf16> loc(#loc15)
    tt.store %3, %4 : tensor<16x16x!tt.ptr<f16>> loc(#loc15)
    tt.return loc(#loc16)
  } loc(#loc)
} loc(#loc)
#loc1 = loc(unknown)
#loc2 = loc("/home/meiziyuan/triton/test_tiny_gemm.py":18:24)
#loc3 = loc("/home/meiziyuan/triton/test_tiny_gemm.py":19:29)
#loc4 = loc("/home/meiziyuan/triton/test_tiny_gemm.py":19:40)
#loc5 = loc("/home/meiziyuan/triton/test_tiny_gemm.py":19:24)
#loc6 = loc("/home/meiziyuan/triton/test_tiny_gemm.py":19:50)
#loc7 = loc("/home/meiziyuan/triton/test_tiny_gemm.py":19:45)
#loc8 = loc("/home/meiziyuan/triton/test_tiny_gemm.py":19:16)
#loc9 = loc("/home/meiziyuan/triton/test_tiny_gemm.py":20:24)
#loc10 = loc("/home/meiziyuan/triton/test_tiny_gemm.py":20:45)
#loc11 = loc("/home/meiziyuan/triton/test_tiny_gemm.py":20:16)
#loc12 = loc("/home/meiziyuan/triton/test_tiny_gemm.py":21:18)
#loc13 = loc("/home/meiziyuan/triton/test_tiny_gemm.py":22:21)
#loc14 = loc("/home/meiziyuan/triton/test_tiny_gemm.py":22:42)
#loc15 = loc("/home/meiziyuan/triton/test_tiny_gemm.py":22:57)
#loc16 = loc("/home/meiziyuan/triton/test_tiny_gemm.py":22:4)
#loc20 = loc("offs"(#loc2))
#loc21 = loc("a"(#loc3))
#loc22 = loc("a"(#loc4))
#loc23 = loc("a"(#loc5))
#loc24 = loc("a"(#loc6))
#loc25 = loc("a"(#loc7))
#loc26 = loc("a"(#loc8))
#loc27 = loc("b"(#loc9))
#loc28 = loc("b"(#loc10))
#loc29 = loc("b"(#loc11))
#loc30 = loc("c"(#loc12))


// -----// IR Dump Before ConvertTritonToTritonGPU (convert-triton-to-tritongpu) ('builtin.module' operation) //----- //
#loc = loc("/home/meiziyuan/triton/test_tiny_gemm.py":17:0)
#loc17 = loc("a_ptr"(#loc))
#loc18 = loc("b_ptr"(#loc))
#loc19 = loc("c_ptr"(#loc))
module attributes {triton.shared_layout = "vector:1->(0,1);bank:1->(1,0),2->(2,0),4->(0,2),8->(0,4),16->(0,8);segment:1->(8,0),2->(4,8);outdims:dim0->16,dim1->16;reps:0"} {
  tt.func public @tiny_matmul_kernel(%a_ptr: !tt.ptr<f16> {tt.divisibility = 16 : i32} loc("a_ptr"(#loc)), %b_ptr: !tt.ptr<f16> {tt.divisibility = 16 : i32} loc("b_ptr"(#loc)), %c_ptr: !tt.ptr<f16> {tt.divisibility = 16 : i32} loc("c_ptr"(#loc))) attributes {noinline = false} {
    %cst = arith.constant dense<0.000000e+00> : tensor<16x16xf32> loc(#loc1)
    %cst_0 = arith.constant dense<16> : tensor<16x1xi32> loc(#loc1)
    %offs = tt.make_range {end = 16 : i32, start = 0 : i32} : tensor<16xi32> loc(#loc20)
    %a = tt.expand_dims %offs {axis = 1 : i32} : tensor<16xi32> -> tensor<16x1xi32> loc(#loc21)
    %a_1 = arith.muli %a, %cst_0 : tensor<16x1xi32> loc(#loc22)
    %a_2 = tt.splat %a_ptr : !tt.ptr<f16> -> tensor<16x1x!tt.ptr<f16>> loc(#loc23)
    %a_3 = tt.addptr %a_2, %a_1 : tensor<16x1x!tt.ptr<f16>>, tensor<16x1xi32> loc(#loc23)
    %a_4 = tt.expand_dims %offs {axis = 0 : i32} : tensor<16xi32> -> tensor<1x16xi32> loc(#loc24)
    %a_5 = tt.broadcast %a_3 : tensor<16x1x!tt.ptr<f16>> -> tensor<16x16x!tt.ptr<f16>> loc(#loc25)
    %a_6 = tt.broadcast %a_4 : tensor<1x16xi32> -> tensor<16x16xi32> loc(#loc25)
    %a_7 = tt.addptr %a_5, %a_6 : tensor<16x16x!tt.ptr<f16>>, tensor<16x16xi32> loc(#loc25)
    %a_8 = tt.load %a_7 : tensor<16x16x!tt.ptr<f16>> loc(#loc26)
    %b = tt.splat %b_ptr : !tt.ptr<f16> -> tensor<16x1x!tt.ptr<f16>> loc(#loc27)
    %b_9 = tt.addptr %b, %a_1 : tensor<16x1x!tt.ptr<f16>>, tensor<16x1xi32> loc(#loc27)
    %b_10 = tt.broadcast %b_9 : tensor<16x1x!tt.ptr<f16>> -> tensor<16x16x!tt.ptr<f16>> loc(#loc28)
    %b_11 = tt.addptr %b_10, %a_6 : tensor<16x16x!tt.ptr<f16>>, tensor<16x16xi32> loc(#loc28)
    %b_12 = tt.load %b_11 : tensor<16x16x!tt.ptr<f16>> loc(#loc29)
    %c = tt.dot %a_8, %b_12, %cst, inputPrecision = tf32 : tensor<16x16xf16> * tensor<16x16xf16> -> tensor<16x16xf32> loc(#loc30)
    %0 = tt.splat %c_ptr : !tt.ptr<f16> -> tensor<16x1x!tt.ptr<f16>> loc(#loc13)
    %1 = tt.addptr %0, %a_1 : tensor<16x1x!tt.ptr<f16>>, tensor<16x1xi32> loc(#loc13)
    %2 = tt.broadcast %1 : tensor<16x1x!tt.ptr<f16>> -> tensor<16x16x!tt.ptr<f16>> loc(#loc14)
    %3 = tt.addptr %2, %a_6 : tensor<16x16x!tt.ptr<f16>>, tensor<16x16xi32> loc(#loc14)
    %4 = arith.truncf %c : tensor<16x16xf32> to tensor<16x16xf16> loc(#loc15)
    tt.store %3, %4 : tensor<16x16x!tt.ptr<f16>> loc(#loc15)
    tt.return loc(#loc16)
  } loc(#loc)
} loc(#loc)
#loc1 = loc(unknown)
#loc2 = loc("/home/meiziyuan/triton/test_tiny_gemm.py":18:24)
#loc3 = loc("/home/meiziyuan/triton/test_tiny_gemm.py":19:29)
#loc4 = loc("/home/meiziyuan/triton/test_tiny_gemm.py":19:40)
#loc5 = loc("/home/meiziyuan/triton/test_tiny_gemm.py":19:24)
#loc6 = loc("/home/meiziyuan/triton/test_tiny_gemm.py":19:50)
#loc7 = loc("/home/meiziyuan/triton/test_tiny_gemm.py":19:45)
#loc8 = loc("/home/meiziyuan/triton/test_tiny_gemm.py":19:16)
#loc9 = loc("/home/meiziyuan/triton/test_tiny_gemm.py":20:24)
#loc10 = loc("/home/meiziyuan/triton/test_tiny_gemm.py":20:45)
#loc11 = loc("/home/meiziyuan/triton/test_tiny_gemm.py":20:16)
#loc12 = loc("/home/meiziyuan/triton/test_tiny_gemm.py":21:18)
#loc13 = loc("/home/meiziyuan/triton/test_tiny_gemm.py":22:21)
#loc14 = loc("/home/meiziyuan/triton/test_tiny_gemm.py":22:42)
#loc15 = loc("/home/meiziyuan/triton/test_tiny_gemm.py":22:57)
#loc16 = loc("/home/meiziyuan/triton/test_tiny_gemm.py":22:4)
#loc20 = loc("offs"(#loc2))
#loc21 = loc("a"(#loc3))
#loc22 = loc("a"(#loc4))
#loc23 = loc("a"(#loc5))
#loc24 = loc("a"(#loc6))
#loc25 = loc("a"(#loc7))
#loc26 = loc("a"(#loc8))
#loc27 = loc("b"(#loc9))
#loc28 = loc("b"(#loc10))
#loc29 = loc("b"(#loc11))
#loc30 = loc("c"(#loc12))


// -----// IR Dump Before TritonGPUCoalesce (tritongpu-coalesce) ('builtin.module' operation) //----- //
#blocked = #ttg.blocked<{sizePerThread = [1, 1], threadsPerWarp = [2, 16], warpsPerCTA = [4, 1], order = [1, 0]}>
#blocked1 = #ttg.blocked<{sizePerThread = [1, 1], threadsPerWarp = [32, 1], warpsPerCTA = [4, 1], order = [1, 0]}>
#blocked2 = #ttg.blocked<{sizePerThread = [1], threadsPerWarp = [32], warpsPerCTA = [4], order = [0]}>
#blocked3 = #ttg.blocked<{sizePerThread = [1, 1], threadsPerWarp = [32, 1], warpsPerCTA = [4, 1], order = [0, 1]}>
#blocked4 = #ttg.blocked<{sizePerThread = [1, 1], threadsPerWarp = [1, 32], warpsPerCTA = [1, 4], order = [0, 1]}>
#loc = loc("/home/meiziyuan/triton/test_tiny_gemm.py":17:0)
#loc17 = loc("a_ptr"(#loc))
#loc18 = loc("b_ptr"(#loc))
#loc19 = loc("c_ptr"(#loc))
module attributes {triton.shared_layout = "vector:1->(0,1);bank:1->(1,0),2->(2,0),4->(0,2),8->(0,4),16->(0,8);segment:1->(8,0),2->(4,8);outdims:dim0->16,dim1->16;reps:0", "ttg.num-ctas" = 1 : i32, "ttg.num-warps" = 4 : i32, ttg.target = "cuda:90", "ttg.threads-per-warp" = 32 : i32} {
  tt.func public @tiny_matmul_kernel(%a_ptr: !tt.ptr<f16> {tt.divisibility = 16 : i32} loc("a_ptr"(#loc)), %b_ptr: !tt.ptr<f16> {tt.divisibility = 16 : i32} loc("b_ptr"(#loc)), %c_ptr: !tt.ptr<f16> {tt.divisibility = 16 : i32} loc("c_ptr"(#loc))) attributes {noinline = false} {
    %cst = arith.constant dense<0.000000e+00> : tensor<16x16xf32, #blocked> loc(#loc1)
    %cst_0 = arith.constant dense<16> : tensor<16x1xi32, #blocked1> loc(#loc1)
    %offs = tt.make_range {end = 16 : i32, start = 0 : i32} : tensor<16xi32, #blocked2> loc(#loc20)
    %a = ttg.convert_layout %offs : tensor<16xi32, #blocked2> -> tensor<16xi32, #ttg.slice<{dim = 1, parent = #blocked3}>> loc(#loc21)
    %a_1 = tt.expand_dims %a {axis = 1 : i32} : tensor<16xi32, #ttg.slice<{dim = 1, parent = #blocked3}>> -> tensor<16x1xi32, #blocked3> loc(#loc21)
    %a_2 = ttg.convert_layout %a_1 : tensor<16x1xi32, #blocked3> -> tensor<16x1xi32, #blocked1> loc(#loc22)
    %a_3 = arith.muli %a_2, %cst_0 : tensor<16x1xi32, #blocked1> loc(#loc22)
    %a_4 = tt.splat %a_ptr : !tt.ptr<f16> -> tensor<16x1x!tt.ptr<f16>, #blocked1> loc(#loc23)
    %a_5 = tt.addptr %a_4, %a_3 : tensor<16x1x!tt.ptr<f16>, #blocked1>, tensor<16x1xi32, #blocked1> loc(#loc23)
    %a_6 = ttg.convert_layout %offs : tensor<16xi32, #blocked2> -> tensor<16xi32, #ttg.slice<{dim = 0, parent = #blocked4}>> loc(#loc24)
    %a_7 = tt.expand_dims %a_6 {axis = 0 : i32} : tensor<16xi32, #ttg.slice<{dim = 0, parent = #blocked4}>> -> tensor<1x16xi32, #blocked4> loc(#loc24)
    %a_8 = ttg.convert_layout %a_7 : tensor<1x16xi32, #blocked4> -> tensor<1x16xi32, #blocked> loc(#loc25)
    %a_9 = tt.broadcast %a_5 : tensor<16x1x!tt.ptr<f16>, #blocked1> -> tensor<16x16x!tt.ptr<f16>, #blocked1> loc(#loc25)
    %a_10 = ttg.convert_layout %a_9 : tensor<16x16x!tt.ptr<f16>, #blocked1> -> tensor<16x16x!tt.ptr<f16>, #blocked> loc(#loc25)
    %a_11 = tt.broadcast %a_8 : tensor<1x16xi32, #blocked> -> tensor<16x16xi32, #blocked> loc(#loc25)
    %a_12 = tt.addptr %a_10, %a_11 : tensor<16x16x!tt.ptr<f16>, #blocked>, tensor<16x16xi32, #blocked> loc(#loc25)
    %a_13 = tt.load %a_12 : tensor<16x16x!tt.ptr<f16>, #blocked> loc(#loc26)
    %b = tt.splat %b_ptr : !tt.ptr<f16> -> tensor<16x1x!tt.ptr<f16>, #blocked1> loc(#loc27)
    %b_14 = tt.addptr %b, %a_3 : tensor<16x1x!tt.ptr<f16>, #blocked1>, tensor<16x1xi32, #blocked1> loc(#loc27)
    %b_15 = tt.broadcast %b_14 : tensor<16x1x!tt.ptr<f16>, #blocked1> -> tensor<16x16x!tt.ptr<f16>, #blocked1> loc(#loc28)
    %b_16 = ttg.convert_layout %b_15 : tensor<16x16x!tt.ptr<f16>, #blocked1> -> tensor<16x16x!tt.ptr<f16>, #blocked> loc(#loc28)
    %b_17 = tt.addptr %b_16, %a_11 : tensor<16x16x!tt.ptr<f16>, #blocked>, tensor<16x16xi32, #blocked> loc(#loc28)
    %b_18 = tt.load %b_17 : tensor<16x16x!tt.ptr<f16>, #blocked> loc(#loc29)
    %a_19 = ttg.convert_layout %a_13 : tensor<16x16xf16, #blocked> -> tensor<16x16xf16, #ttg.dot_op<{opIdx = 0, parent = #blocked}>> loc(#loc26)
    %b_20 = ttg.convert_layout %b_18 : tensor<16x16xf16, #blocked> -> tensor<16x16xf16, #ttg.dot_op<{opIdx = 1, parent = #blocked}>> loc(#loc29)
    %0 = ttg.convert_layout %cst : tensor<16x16xf32, #blocked> -> tensor<16x16xf32, #blocked> loc(#loc1)
    %c = tt.dot %a_19, %b_20, %0, inputPrecision = tf32 : tensor<16x16xf16, #ttg.dot_op<{opIdx = 0, parent = #blocked}>> * tensor<16x16xf16, #ttg.dot_op<{opIdx = 1, parent = #blocked}>> -> tensor<16x16xf32, #blocked> loc(#loc30)
    %1 = tt.splat %c_ptr : !tt.ptr<f16> -> tensor<16x1x!tt.ptr<f16>, #blocked1> loc(#loc13)
    %2 = tt.addptr %1, %a_3 : tensor<16x1x!tt.ptr<f16>, #blocked1>, tensor<16x1xi32, #blocked1> loc(#loc13)
    %3 = tt.broadcast %2 : tensor<16x1x!tt.ptr<f16>, #blocked1> -> tensor<16x16x!tt.ptr<f16>, #blocked1> loc(#loc14)
    %4 = ttg.convert_layout %3 : tensor<16x16x!tt.ptr<f16>, #blocked1> -> tensor<16x16x!tt.ptr<f16>, #blocked> loc(#loc14)
    %5 = tt.addptr %4, %a_11 : tensor<16x16x!tt.ptr<f16>, #blocked>, tensor<16x16xi32, #blocked> loc(#loc14)
    %6 = arith.truncf %c : tensor<16x16xf32, #blocked> to tensor<16x16xf16, #blocked> loc(#loc15)
    tt.store %5, %6 : tensor<16x16x!tt.ptr<f16>, #blocked> loc(#loc15)
    tt.return loc(#loc16)
  } loc(#loc)
} loc(#loc)
#loc1 = loc(unknown)
#loc2 = loc("/home/meiziyuan/triton/test_tiny_gemm.py":18:24)
#loc3 = loc("/home/meiziyuan/triton/test_tiny_gemm.py":19:29)
#loc4 = loc("/home/meiziyuan/triton/test_tiny_gemm.py":19:40)
#loc5 = loc("/home/meiziyuan/triton/test_tiny_gemm.py":19:24)
#loc6 = loc("/home/meiziyuan/triton/test_tiny_gemm.py":19:50)
#loc7 = loc("/home/meiziyuan/triton/test_tiny_gemm.py":19:45)
#loc8 = loc("/home/meiziyuan/triton/test_tiny_gemm.py":19:16)
#loc9 = loc("/home/meiziyuan/triton/test_tiny_gemm.py":20:24)
#loc10 = loc("/home/meiziyuan/triton/test_tiny_gemm.py":20:45)
#loc11 = loc("/home/meiziyuan/triton/test_tiny_gemm.py":20:16)
#loc12 = loc("/home/meiziyuan/triton/test_tiny_gemm.py":21:18)
#loc13 = loc("/home/meiziyuan/triton/test_tiny_gemm.py":22:21)
#loc14 = loc("/home/meiziyuan/triton/test_tiny_gemm.py":22:42)
#loc15 = loc("/home/meiziyuan/triton/test_tiny_gemm.py":22:57)
#loc16 = loc("/home/meiziyuan/triton/test_tiny_gemm.py":22:4)
#loc20 = loc("offs"(#loc2))
#loc21 = loc("a"(#loc3))
#loc22 = loc("a"(#loc4))
#loc23 = loc("a"(#loc5))
#loc24 = loc("a"(#loc6))
#loc25 = loc("a"(#loc7))
#loc26 = loc("a"(#loc8))
#loc27 = loc("b"(#loc9))
#loc28 = loc("b"(#loc10))
#loc29 = loc("b"(#loc11))
#loc30 = loc("c"(#loc12))


// -----// IR Dump Before TritonGPUF32DotTC (tritongpu-F32DotTC) ('builtin.module' operation) //----- //
#blocked = #ttg.blocked<{sizePerThread = [1, 1], threadsPerWarp = [2, 16], warpsPerCTA = [4, 1], order = [1, 0]}>
#blocked1 = #ttg.blocked<{sizePerThread = [1, 1], threadsPerWarp = [32, 1], warpsPerCTA = [4, 1], order = [1, 0]}>
#blocked2 = #ttg.blocked<{sizePerThread = [1], threadsPerWarp = [32], warpsPerCTA = [4], order = [0]}>
#blocked3 = #ttg.blocked<{sizePerThread = [1, 1], threadsPerWarp = [32, 1], warpsPerCTA = [4, 1], order = [0, 1]}>
#blocked4 = #ttg.blocked<{sizePerThread = [1, 1], threadsPerWarp = [1, 32], warpsPerCTA = [1, 4], order = [0, 1]}>
#blocked5 = #ttg.blocked<{sizePerThread = [1, 2], threadsPerWarp = [4, 8], warpsPerCTA = [4, 1], order = [1, 0]}>
#loc = loc("/home/meiziyuan/triton/test_tiny_gemm.py":17:0)
#loc17 = loc("a_ptr"(#loc))
#loc18 = loc("b_ptr"(#loc))
#loc19 = loc("c_ptr"(#loc))
module attributes {triton.shared_layout = "vector:1->(0,1);bank:1->(1,0),2->(2,0),4->(0,2),8->(0,4),16->(0,8);segment:1->(8,0),2->(4,8);outdims:dim0->16,dim1->16;reps:0", "ttg.num-ctas" = 1 : i32, "ttg.num-warps" = 4 : i32, ttg.target = "cuda:90", "ttg.threads-per-warp" = 32 : i32} {
  tt.func public @tiny_matmul_kernel(%a_ptr: !tt.ptr<f16> {tt.divisibility = 16 : i32} loc("a_ptr"(#loc)), %b_ptr: !tt.ptr<f16> {tt.divisibility = 16 : i32} loc("b_ptr"(#loc)), %c_ptr: !tt.ptr<f16> {tt.divisibility = 16 : i32} loc("c_ptr"(#loc))) attributes {noinline = false} {
    %cst = arith.constant dense<0.000000e+00> : tensor<16x16xf32, #blocked> loc(#loc1)
    %cst_0 = arith.constant dense<16> : tensor<16x1xi32, #blocked1> loc(#loc1)
    %offs = tt.make_range {end = 16 : i32, start = 0 : i32} : tensor<16xi32, #blocked2> loc(#loc20)
    %a = ttg.convert_layout %offs : tensor<16xi32, #blocked2> -> tensor<16xi32, #ttg.slice<{dim = 1, parent = #blocked3}>> loc(#loc21)
    %a_1 = tt.expand_dims %a {axis = 1 : i32} : tensor<16xi32, #ttg.slice<{dim = 1, parent = #blocked3}>> -> tensor<16x1xi32, #blocked3> loc(#loc21)
    %a_2 = ttg.convert_layout %a_1 : tensor<16x1xi32, #blocked3> -> tensor<16x1xi32, #blocked1> loc(#loc22)
    %a_3 = arith.muli %a_2, %cst_0 : tensor<16x1xi32, #blocked1> loc(#loc22)
    %a_4 = tt.splat %a_ptr : !tt.ptr<f16> -> tensor<16x1x!tt.ptr<f16>, #blocked1> loc(#loc23)
    %a_5 = tt.addptr %a_4, %a_3 : tensor<16x1x!tt.ptr<f16>, #blocked1>, tensor<16x1xi32, #blocked1> loc(#loc23)
    %a_6 = ttg.convert_layout %offs : tensor<16xi32, #blocked2> -> tensor<16xi32, #ttg.slice<{dim = 0, parent = #blocked4}>> loc(#loc24)
    %a_7 = tt.expand_dims %a_6 {axis = 0 : i32} : tensor<16xi32, #ttg.slice<{dim = 0, parent = #blocked4}>> -> tensor<1x16xi32, #blocked4> loc(#loc24)
    %a_8 = ttg.convert_layout %a_7 : tensor<1x16xi32, #blocked4> -> tensor<1x16xi32, #blocked> loc(#loc25)
    %a_9 = tt.broadcast %a_5 : tensor<16x1x!tt.ptr<f16>, #blocked1> -> tensor<16x16x!tt.ptr<f16>, #blocked1> loc(#loc25)
    %a_10 = ttg.convert_layout %a_9 : tensor<16x16x!tt.ptr<f16>, #blocked1> -> tensor<16x16x!tt.ptr<f16>, #blocked> loc(#loc25)
    %a_11 = tt.broadcast %a_8 : tensor<1x16xi32, #blocked> -> tensor<16x16xi32, #blocked> loc(#loc25)
    %a_12 = tt.addptr %a_10, %a_11 : tensor<16x16x!tt.ptr<f16>, #blocked>, tensor<16x16xi32, #blocked> loc(#loc25)
    %a_13 = ttg.convert_layout %a_12 : tensor<16x16x!tt.ptr<f16>, #blocked> -> tensor<16x16x!tt.ptr<f16>, #blocked5> loc(#loc26)
    %a_14 = tt.load %a_13 : tensor<16x16x!tt.ptr<f16>, #blocked5> loc(#loc26)
    %a_15 = ttg.convert_layout %a_14 : tensor<16x16xf16, #blocked5> -> tensor<16x16xf16, #blocked> loc(#loc26)
    %b = tt.splat %b_ptr : !tt.ptr<f16> -> tensor<16x1x!tt.ptr<f16>, #blocked1> loc(#loc27)
    %b_16 = tt.addptr %b, %a_3 : tensor<16x1x!tt.ptr<f16>, #blocked1>, tensor<16x1xi32, #blocked1> loc(#loc27)
    %b_17 = tt.broadcast %b_16 : tensor<16x1x!tt.ptr<f16>, #blocked1> -> tensor<16x16x!tt.ptr<f16>, #blocked1> loc(#loc28)
    %b_18 = ttg.convert_layout %b_17 : tensor<16x16x!tt.ptr<f16>, #blocked1> -> tensor<16x16x!tt.ptr<f16>, #blocked> loc(#loc28)
    %b_19 = tt.addptr %b_18, %a_11 : tensor<16x16x!tt.ptr<f16>, #blocked>, tensor<16x16xi32, #blocked> loc(#loc28)
    %b_20 = ttg.convert_layout %b_19 : tensor<16x16x!tt.ptr<f16>, #blocked> -> tensor<16x16x!tt.ptr<f16>, #blocked5> loc(#loc29)
    %b_21 = tt.load %b_20 : tensor<16x16x!tt.ptr<f16>, #blocked5> loc(#loc29)
    %b_22 = ttg.convert_layout %b_21 : tensor<16x16xf16, #blocked5> -> tensor<16x16xf16, #blocked> loc(#loc29)
    %a_23 = ttg.convert_layout %a_15 : tensor<16x16xf16, #blocked> -> tensor<16x16xf16, #ttg.dot_op<{opIdx = 0, parent = #blocked}>> loc(#loc26)
    %b_24 = ttg.convert_layout %b_22 : tensor<16x16xf16, #blocked> -> tensor<16x16xf16, #ttg.dot_op<{opIdx = 1, parent = #blocked}>> loc(#loc29)
    %0 = ttg.convert_layout %cst : tensor<16x16xf32, #blocked> -> tensor<16x16xf32, #blocked> loc(#loc1)
    %c = tt.dot %a_23, %b_24, %0, inputPrecision = tf32 : tensor<16x16xf16, #ttg.dot_op<{opIdx = 0, parent = #blocked}>> * tensor<16x16xf16, #ttg.dot_op<{opIdx = 1, parent = #blocked}>> -> tensor<16x16xf32, #blocked> loc(#loc30)
    %1 = tt.splat %c_ptr : !tt.ptr<f16> -> tensor<16x1x!tt.ptr<f16>, #blocked1> loc(#loc13)
    %2 = tt.addptr %1, %a_3 : tensor<16x1x!tt.ptr<f16>, #blocked1>, tensor<16x1xi32, #blocked1> loc(#loc13)
    %3 = tt.broadcast %2 : tensor<16x1x!tt.ptr<f16>, #blocked1> -> tensor<16x16x!tt.ptr<f16>, #blocked1> loc(#loc14)
    %4 = ttg.convert_layout %3 : tensor<16x16x!tt.ptr<f16>, #blocked1> -> tensor<16x16x!tt.ptr<f16>, #blocked> loc(#loc14)
    %5 = tt.addptr %4, %a_11 : tensor<16x16x!tt.ptr<f16>, #blocked>, tensor<16x16xi32, #blocked> loc(#loc14)
    %6 = arith.truncf %c : tensor<16x16xf32, #blocked> to tensor<16x16xf16, #blocked> loc(#loc15)
    %7 = ttg.convert_layout %5 : tensor<16x16x!tt.ptr<f16>, #blocked> -> tensor<16x16x!tt.ptr<f16>, #blocked5> loc(#loc15)
    %8 = ttg.convert_layout %6 : tensor<16x16xf16, #blocked> -> tensor<16x16xf16, #blocked5> loc(#loc15)
    tt.store %7, %8 : tensor<16x16x!tt.ptr<f16>, #blocked5> loc(#loc15)
    tt.return loc(#loc16)
  } loc(#loc)
} loc(#loc)
#loc1 = loc(unknown)
#loc2 = loc("/home/meiziyuan/triton/test_tiny_gemm.py":18:24)
#loc3 = loc("/home/meiziyuan/triton/test_tiny_gemm.py":19:29)
#loc4 = loc("/home/meiziyuan/triton/test_tiny_gemm.py":19:40)
#loc5 = loc("/home/meiziyuan/triton/test_tiny_gemm.py":19:24)
#loc6 = loc("/home/meiziyuan/triton/test_tiny_gemm.py":19:50)
#loc7 = loc("/home/meiziyuan/triton/test_tiny_gemm.py":19:45)
#loc8 = loc("/home/meiziyuan/triton/test_tiny_gemm.py":19:16)
#loc9 = loc("/home/meiziyuan/triton/test_tiny_gemm.py":20:24)
#loc10 = loc("/home/meiziyuan/triton/test_tiny_gemm.py":20:45)
#loc11 = loc("/home/meiziyuan/triton/test_tiny_gemm.py":20:16)
#loc12 = loc("/home/meiziyuan/triton/test_tiny_gemm.py":21:18)
#loc13 = loc("/home/meiziyuan/triton/test_tiny_gemm.py":22:21)
#loc14 = loc("/home/meiziyuan/triton/test_tiny_gemm.py":22:42)
#loc15 = loc("/home/meiziyuan/triton/test_tiny_gemm.py":22:57)
#loc16 = loc("/home/meiziyuan/triton/test_tiny_gemm.py":22:4)
#loc20 = loc("offs"(#loc2))
#loc21 = loc("a"(#loc3))
#loc22 = loc("a"(#loc4))
#loc23 = loc("a"(#loc5))
#loc24 = loc("a"(#loc6))
#loc25 = loc("a"(#loc7))
#loc26 = loc("a"(#loc8))
#loc27 = loc("b"(#loc9))
#loc28 = loc("b"(#loc10))
#loc29 = loc("b"(#loc11))
#loc30 = loc("c"(#loc12))


// -----// IR Dump Before TritonGPUPlanCTAPass (triton-nvidia-gpu-plan-cta) ('builtin.module' operation) //----- //
#blocked = #ttg.blocked<{sizePerThread = [1, 1], threadsPerWarp = [2, 16], warpsPerCTA = [4, 1], order = [1, 0]}>
#blocked1 = #ttg.blocked<{sizePerThread = [1, 1], threadsPerWarp = [32, 1], warpsPerCTA = [4, 1], order = [1, 0]}>
#blocked2 = #ttg.blocked<{sizePerThread = [1], threadsPerWarp = [32], warpsPerCTA = [4], order = [0]}>
#blocked3 = #ttg.blocked<{sizePerThread = [1, 1], threadsPerWarp = [32, 1], warpsPerCTA = [4, 1], order = [0, 1]}>
#blocked4 = #ttg.blocked<{sizePerThread = [1, 1], threadsPerWarp = [1, 32], warpsPerCTA = [1, 4], order = [0, 1]}>
#blocked5 = #ttg.blocked<{sizePerThread = [1, 2], threadsPerWarp = [4, 8], warpsPerCTA = [4, 1], order = [1, 0]}>
#loc = loc("/home/meiziyuan/triton/test_tiny_gemm.py":17:0)
#loc17 = loc("a_ptr"(#loc))
#loc18 = loc("b_ptr"(#loc))
#loc19 = loc("c_ptr"(#loc))
module attributes {triton.shared_layout = "vector:1->(0,1);bank:1->(1,0),2->(2,0),4->(0,2),8->(0,4),16->(0,8);segment:1->(8,0),2->(4,8);outdims:dim0->16,dim1->16;reps:0", "ttg.num-ctas" = 1 : i32, "ttg.num-warps" = 4 : i32, ttg.target = "cuda:90", "ttg.threads-per-warp" = 32 : i32} {
  tt.func public @tiny_matmul_kernel(%a_ptr: !tt.ptr<f16> {tt.divisibility = 16 : i32} loc("a_ptr"(#loc)), %b_ptr: !tt.ptr<f16> {tt.divisibility = 16 : i32} loc("b_ptr"(#loc)), %c_ptr: !tt.ptr<f16> {tt.divisibility = 16 : i32} loc("c_ptr"(#loc))) attributes {noinline = false} {
    %cst = arith.constant dense<0.000000e+00> : tensor<16x16xf32, #blocked> loc(#loc1)
    %cst_0 = arith.constant dense<16> : tensor<16x1xi32, #blocked1> loc(#loc1)
    %offs = tt.make_range {end = 16 : i32, start = 0 : i32} : tensor<16xi32, #blocked2> loc(#loc20)
    %a = ttg.convert_layout %offs : tensor<16xi32, #blocked2> -> tensor<16xi32, #ttg.slice<{dim = 1, parent = #blocked3}>> loc(#loc21)
    %a_1 = tt.expand_dims %a {axis = 1 : i32} : tensor<16xi32, #ttg.slice<{dim = 1, parent = #blocked3}>> -> tensor<16x1xi32, #blocked3> loc(#loc21)
    %a_2 = ttg.convert_layout %a_1 : tensor<16x1xi32, #blocked3> -> tensor<16x1xi32, #blocked1> loc(#loc22)
    %a_3 = arith.muli %a_2, %cst_0 : tensor<16x1xi32, #blocked1> loc(#loc22)
    %a_4 = tt.splat %a_ptr : !tt.ptr<f16> -> tensor<16x1x!tt.ptr<f16>, #blocked1> loc(#loc23)
    %a_5 = tt.addptr %a_4, %a_3 : tensor<16x1x!tt.ptr<f16>, #blocked1>, tensor<16x1xi32, #blocked1> loc(#loc23)
    %a_6 = ttg.convert_layout %offs : tensor<16xi32, #blocked2> -> tensor<16xi32, #ttg.slice<{dim = 0, parent = #blocked4}>> loc(#loc24)
    %a_7 = tt.expand_dims %a_6 {axis = 0 : i32} : tensor<16xi32, #ttg.slice<{dim = 0, parent = #blocked4}>> -> tensor<1x16xi32, #blocked4> loc(#loc24)
    %a_8 = ttg.convert_layout %a_7 : tensor<1x16xi32, #blocked4> -> tensor<1x16xi32, #blocked> loc(#loc25)
    %a_9 = tt.broadcast %a_5 : tensor<16x1x!tt.ptr<f16>, #blocked1> -> tensor<16x16x!tt.ptr<f16>, #blocked1> loc(#loc25)
    %a_10 = ttg.convert_layout %a_9 : tensor<16x16x!tt.ptr<f16>, #blocked1> -> tensor<16x16x!tt.ptr<f16>, #blocked> loc(#loc25)
    %a_11 = tt.broadcast %a_8 : tensor<1x16xi32, #blocked> -> tensor<16x16xi32, #blocked> loc(#loc25)
    %a_12 = tt.addptr %a_10, %a_11 : tensor<16x16x!tt.ptr<f16>, #blocked>, tensor<16x16xi32, #blocked> loc(#loc25)
    %a_13 = ttg.convert_layout %a_12 : tensor<16x16x!tt.ptr<f16>, #blocked> -> tensor<16x16x!tt.ptr<f16>, #blocked5> loc(#loc26)
    %a_14 = tt.load %a_13 : tensor<16x16x!tt.ptr<f16>, #blocked5> loc(#loc26)
    %a_15 = ttg.convert_layout %a_14 : tensor<16x16xf16, #blocked5> -> tensor<16x16xf16, #blocked> loc(#loc26)
    %b = tt.splat %b_ptr : !tt.ptr<f16> -> tensor<16x1x!tt.ptr<f16>, #blocked1> loc(#loc27)
    %b_16 = tt.addptr %b, %a_3 : tensor<16x1x!tt.ptr<f16>, #blocked1>, tensor<16x1xi32, #blocked1> loc(#loc27)
    %b_17 = tt.broadcast %b_16 : tensor<16x1x!tt.ptr<f16>, #blocked1> -> tensor<16x16x!tt.ptr<f16>, #blocked1> loc(#loc28)
    %b_18 = ttg.convert_layout %b_17 : tensor<16x16x!tt.ptr<f16>, #blocked1> -> tensor<16x16x!tt.ptr<f16>, #blocked> loc(#loc28)
    %b_19 = tt.addptr %b_18, %a_11 : tensor<16x16x!tt.ptr<f16>, #blocked>, tensor<16x16xi32, #blocked> loc(#loc28)
    %b_20 = ttg.convert_layout %b_19 : tensor<16x16x!tt.ptr<f16>, #blocked> -> tensor<16x16x!tt.ptr<f16>, #blocked5> loc(#loc29)
    %b_21 = tt.load %b_20 : tensor<16x16x!tt.ptr<f16>, #blocked5> loc(#loc29)
    %b_22 = ttg.convert_layout %b_21 : tensor<16x16xf16, #blocked5> -> tensor<16x16xf16, #blocked> loc(#loc29)
    %a_23 = ttg.convert_layout %a_15 : tensor<16x16xf16, #blocked> -> tensor<16x16xf16, #ttg.dot_op<{opIdx = 0, parent = #blocked}>> loc(#loc26)
    %b_24 = ttg.convert_layout %b_22 : tensor<16x16xf16, #blocked> -> tensor<16x16xf16, #ttg.dot_op<{opIdx = 1, parent = #blocked}>> loc(#loc29)
    %0 = ttg.convert_layout %cst : tensor<16x16xf32, #blocked> -> tensor<16x16xf32, #blocked> loc(#loc1)
    %c = tt.dot %a_23, %b_24, %0, inputPrecision = tf32 : tensor<16x16xf16, #ttg.dot_op<{opIdx = 0, parent = #blocked}>> * tensor<16x16xf16, #ttg.dot_op<{opIdx = 1, parent = #blocked}>> -> tensor<16x16xf32, #blocked> loc(#loc30)
    %1 = tt.splat %c_ptr : !tt.ptr<f16> -> tensor<16x1x!tt.ptr<f16>, #blocked1> loc(#loc13)
    %2 = tt.addptr %1, %a_3 : tensor<16x1x!tt.ptr<f16>, #blocked1>, tensor<16x1xi32, #blocked1> loc(#loc13)
    %3 = tt.broadcast %2 : tensor<16x1x!tt.ptr<f16>, #blocked1> -> tensor<16x16x!tt.ptr<f16>, #blocked1> loc(#loc14)
    %4 = ttg.convert_layout %3 : tensor<16x16x!tt.ptr<f16>, #blocked1> -> tensor<16x16x!tt.ptr<f16>, #blocked> loc(#loc14)
    %5 = tt.addptr %4, %a_11 : tensor<16x16x!tt.ptr<f16>, #blocked>, tensor<16x16xi32, #blocked> loc(#loc14)
    %6 = arith.truncf %c : tensor<16x16xf32, #blocked> to tensor<16x16xf16, #blocked> loc(#loc15)
    %7 = ttg.convert_layout %5 : tensor<16x16x!tt.ptr<f16>, #blocked> -> tensor<16x16x!tt.ptr<f16>, #blocked5> loc(#loc15)
    %8 = ttg.convert_layout %6 : tensor<16x16xf16, #blocked> -> tensor<16x16xf16, #blocked5> loc(#loc15)
    tt.store %7, %8 : tensor<16x16x!tt.ptr<f16>, #blocked5> loc(#loc15)
    tt.return loc(#loc16)
  } loc(#loc)
} loc(#loc)
#loc1 = loc(unknown)
#loc2 = loc("/home/meiziyuan/triton/test_tiny_gemm.py":18:24)
#loc3 = loc("/home/meiziyuan/triton/test_tiny_gemm.py":19:29)
#loc4 = loc("/home/meiziyuan/triton/test_tiny_gemm.py":19:40)
#loc5 = loc("/home/meiziyuan/triton/test_tiny_gemm.py":19:24)
#loc6 = loc("/home/meiziyuan/triton/test_tiny_gemm.py":19:50)
#loc7 = loc("/home/meiziyuan/triton/test_tiny_gemm.py":19:45)
#loc8 = loc("/home/meiziyuan/triton/test_tiny_gemm.py":19:16)
#loc9 = loc("/home/meiziyuan/triton/test_tiny_gemm.py":20:24)
#loc10 = loc("/home/meiziyuan/triton/test_tiny_gemm.py":20:45)
#loc11 = loc("/home/meiziyuan/triton/test_tiny_gemm.py":20:16)
#loc12 = loc("/home/meiziyuan/triton/test_tiny_gemm.py":21:18)
#loc13 = loc("/home/meiziyuan/triton/test_tiny_gemm.py":22:21)
#loc14 = loc("/home/meiziyuan/triton/test_tiny_gemm.py":22:42)
#loc15 = loc("/home/meiziyuan/triton/test_tiny_gemm.py":22:57)
#loc16 = loc("/home/meiziyuan/triton/test_tiny_gemm.py":22:4)
#loc20 = loc("offs"(#loc2))
#loc21 = loc("a"(#loc3))
#loc22 = loc("a"(#loc4))
#loc23 = loc("a"(#loc5))
#loc24 = loc("a"(#loc6))
#loc25 = loc("a"(#loc7))
#loc26 = loc("a"(#loc8))
#loc27 = loc("b"(#loc9))
#loc28 = loc("b"(#loc10))
#loc29 = loc("b"(#loc11))
#loc30 = loc("c"(#loc12))


// -----// IR Dump Before TritonGPURemoveLayoutConversions (tritongpu-remove-layout-conversions) ('builtin.module' operation) //----- //
#blocked = #ttg.blocked<{sizePerThread = [1, 1], threadsPerWarp = [2, 16], warpsPerCTA = [4, 1], order = [1, 0]}>
#blocked1 = #ttg.blocked<{sizePerThread = [1, 1], threadsPerWarp = [32, 1], warpsPerCTA = [4, 1], order = [1, 0]}>
#blocked2 = #ttg.blocked<{sizePerThread = [1], threadsPerWarp = [32], warpsPerCTA = [4], order = [0]}>
#blocked3 = #ttg.blocked<{sizePerThread = [1, 1], threadsPerWarp = [32, 1], warpsPerCTA = [4, 1], order = [0, 1]}>
#blocked4 = #ttg.blocked<{sizePerThread = [1, 1], threadsPerWarp = [1, 32], warpsPerCTA = [1, 4], order = [0, 1]}>
#blocked5 = #ttg.blocked<{sizePerThread = [1, 2], threadsPerWarp = [4, 8], warpsPerCTA = [4, 1], order = [1, 0]}>
#loc = loc("/home/meiziyuan/triton/test_tiny_gemm.py":17:0)
#loc17 = loc("a_ptr"(#loc))
#loc18 = loc("b_ptr"(#loc))
#loc19 = loc("c_ptr"(#loc))
module attributes {triton.shared_layout = "vector:1->(0,1);bank:1->(1,0),2->(2,0),4->(0,2),8->(0,4),16->(0,8);segment:1->(8,0),2->(4,8);outdims:dim0->16,dim1->16;reps:0", "ttg.num-ctas" = 1 : i32, "ttg.num-warps" = 4 : i32, ttg.target = "cuda:90", "ttg.threads-per-warp" = 32 : i32} {
  tt.func public @tiny_matmul_kernel(%a_ptr: !tt.ptr<f16> {tt.divisibility = 16 : i32} loc("a_ptr"(#loc)), %b_ptr: !tt.ptr<f16> {tt.divisibility = 16 : i32} loc("b_ptr"(#loc)), %c_ptr: !tt.ptr<f16> {tt.divisibility = 16 : i32} loc("c_ptr"(#loc))) attributes {noinline = false} {
    %cst = arith.constant dense<0.000000e+00> : tensor<16x16xf32, #blocked> loc(#loc1)
    %cst_0 = arith.constant dense<16> : tensor<16x1xi32, #blocked1> loc(#loc1)
    %offs = tt.make_range {end = 16 : i32, start = 0 : i32} : tensor<16xi32, #blocked2> loc(#loc20)
    %a = ttg.convert_layout %offs : tensor<16xi32, #blocked2> -> tensor<16xi32, #ttg.slice<{dim = 1, parent = #blocked3}>> loc(#loc21)
    %a_1 = tt.expand_dims %a {axis = 1 : i32} : tensor<16xi32, #ttg.slice<{dim = 1, parent = #blocked3}>> -> tensor<16x1xi32, #blocked3> loc(#loc21)
    %a_2 = ttg.convert_layout %a_1 : tensor<16x1xi32, #blocked3> -> tensor<16x1xi32, #blocked1> loc(#loc22)
    %a_3 = arith.muli %a_2, %cst_0 : tensor<16x1xi32, #blocked1> loc(#loc22)
    %a_4 = tt.splat %a_ptr : !tt.ptr<f16> -> tensor<16x1x!tt.ptr<f16>, #blocked1> loc(#loc23)
    %a_5 = tt.addptr %a_4, %a_3 : tensor<16x1x!tt.ptr<f16>, #blocked1>, tensor<16x1xi32, #blocked1> loc(#loc23)
    %a_6 = ttg.convert_layout %offs : tensor<16xi32, #blocked2> -> tensor<16xi32, #ttg.slice<{dim = 0, parent = #blocked4}>> loc(#loc24)
    %a_7 = tt.expand_dims %a_6 {axis = 0 : i32} : tensor<16xi32, #ttg.slice<{dim = 0, parent = #blocked4}>> -> tensor<1x16xi32, #blocked4> loc(#loc24)
    %a_8 = ttg.convert_layout %a_7 : tensor<1x16xi32, #blocked4> -> tensor<1x16xi32, #blocked> loc(#loc25)
    %a_9 = tt.broadcast %a_5 : tensor<16x1x!tt.ptr<f16>, #blocked1> -> tensor<16x16x!tt.ptr<f16>, #blocked1> loc(#loc25)
    %a_10 = ttg.convert_layout %a_9 : tensor<16x16x!tt.ptr<f16>, #blocked1> -> tensor<16x16x!tt.ptr<f16>, #blocked> loc(#loc25)
    %a_11 = tt.broadcast %a_8 : tensor<1x16xi32, #blocked> -> tensor<16x16xi32, #blocked> loc(#loc25)
    %a_12 = tt.addptr %a_10, %a_11 : tensor<16x16x!tt.ptr<f16>, #blocked>, tensor<16x16xi32, #blocked> loc(#loc25)
    %a_13 = ttg.convert_layout %a_12 : tensor<16x16x!tt.ptr<f16>, #blocked> -> tensor<16x16x!tt.ptr<f16>, #blocked5> loc(#loc26)
    %a_14 = tt.load %a_13 : tensor<16x16x!tt.ptr<f16>, #blocked5> loc(#loc26)
    %a_15 = ttg.convert_layout %a_14 : tensor<16x16xf16, #blocked5> -> tensor<16x16xf16, #blocked> loc(#loc26)
    %b = tt.splat %b_ptr : !tt.ptr<f16> -> tensor<16x1x!tt.ptr<f16>, #blocked1> loc(#loc27)
    %b_16 = tt.addptr %b, %a_3 : tensor<16x1x!tt.ptr<f16>, #blocked1>, tensor<16x1xi32, #blocked1> loc(#loc27)
    %b_17 = tt.broadcast %b_16 : tensor<16x1x!tt.ptr<f16>, #blocked1> -> tensor<16x16x!tt.ptr<f16>, #blocked1> loc(#loc28)
    %b_18 = ttg.convert_layout %b_17 : tensor<16x16x!tt.ptr<f16>, #blocked1> -> tensor<16x16x!tt.ptr<f16>, #blocked> loc(#loc28)
    %b_19 = tt.addptr %b_18, %a_11 : tensor<16x16x!tt.ptr<f16>, #blocked>, tensor<16x16xi32, #blocked> loc(#loc28)
    %b_20 = ttg.convert_layout %b_19 : tensor<16x16x!tt.ptr<f16>, #blocked> -> tensor<16x16x!tt.ptr<f16>, #blocked5> loc(#loc29)
    %b_21 = tt.load %b_20 : tensor<16x16x!tt.ptr<f16>, #blocked5> loc(#loc29)
    %b_22 = ttg.convert_layout %b_21 : tensor<16x16xf16, #blocked5> -> tensor<16x16xf16, #blocked> loc(#loc29)
    %a_23 = ttg.convert_layout %a_15 : tensor<16x16xf16, #blocked> -> tensor<16x16xf16, #ttg.dot_op<{opIdx = 0, parent = #blocked}>> loc(#loc26)
    %b_24 = ttg.convert_layout %b_22 : tensor<16x16xf16, #blocked> -> tensor<16x16xf16, #ttg.dot_op<{opIdx = 1, parent = #blocked}>> loc(#loc29)
    %0 = ttg.convert_layout %cst : tensor<16x16xf32, #blocked> -> tensor<16x16xf32, #blocked> loc(#loc1)
    %c = tt.dot %a_23, %b_24, %0, inputPrecision = tf32 : tensor<16x16xf16, #ttg.dot_op<{opIdx = 0, parent = #blocked}>> * tensor<16x16xf16, #ttg.dot_op<{opIdx = 1, parent = #blocked}>> -> tensor<16x16xf32, #blocked> loc(#loc30)
    %1 = tt.splat %c_ptr : !tt.ptr<f16> -> tensor<16x1x!tt.ptr<f16>, #blocked1> loc(#loc13)
    %2 = tt.addptr %1, %a_3 : tensor<16x1x!tt.ptr<f16>, #blocked1>, tensor<16x1xi32, #blocked1> loc(#loc13)
    %3 = tt.broadcast %2 : tensor<16x1x!tt.ptr<f16>, #blocked1> -> tensor<16x16x!tt.ptr<f16>, #blocked1> loc(#loc14)
    %4 = ttg.convert_layout %3 : tensor<16x16x!tt.ptr<f16>, #blocked1> -> tensor<16x16x!tt.ptr<f16>, #blocked> loc(#loc14)
    %5 = tt.addptr %4, %a_11 : tensor<16x16x!tt.ptr<f16>, #blocked>, tensor<16x16xi32, #blocked> loc(#loc14)
    %6 = arith.truncf %c : tensor<16x16xf32, #blocked> to tensor<16x16xf16, #blocked> loc(#loc15)
    %7 = ttg.convert_layout %5 : tensor<16x16x!tt.ptr<f16>, #blocked> -> tensor<16x16x!tt.ptr<f16>, #blocked5> loc(#loc15)
    %8 = ttg.convert_layout %6 : tensor<16x16xf16, #blocked> -> tensor<16x16xf16, #blocked5> loc(#loc15)
    tt.store %7, %8 : tensor<16x16x!tt.ptr<f16>, #blocked5> loc(#loc15)
    tt.return loc(#loc16)
  } loc(#loc)
} loc(#loc)
#loc1 = loc(unknown)
#loc2 = loc("/home/meiziyuan/triton/test_tiny_gemm.py":18:24)
#loc3 = loc("/home/meiziyuan/triton/test_tiny_gemm.py":19:29)
#loc4 = loc("/home/meiziyuan/triton/test_tiny_gemm.py":19:40)
#loc5 = loc("/home/meiziyuan/triton/test_tiny_gemm.py":19:24)
#loc6 = loc("/home/meiziyuan/triton/test_tiny_gemm.py":19:50)
#loc7 = loc("/home/meiziyuan/triton/test_tiny_gemm.py":19:45)
#loc8 = loc("/home/meiziyuan/triton/test_tiny_gemm.py":19:16)
#loc9 = loc("/home/meiziyuan/triton/test_tiny_gemm.py":20:24)
#loc10 = loc("/home/meiziyuan/triton/test_tiny_gemm.py":20:45)
#loc11 = loc("/home/meiziyuan/triton/test_tiny_gemm.py":20:16)
#loc12 = loc("/home/meiziyuan/triton/test_tiny_gemm.py":21:18)
#loc13 = loc("/home/meiziyuan/triton/test_tiny_gemm.py":22:21)
#loc14 = loc("/home/meiziyuan/triton/test_tiny_gemm.py":22:42)
#loc15 = loc("/home/meiziyuan/triton/test_tiny_gemm.py":22:57)
#loc16 = loc("/home/meiziyuan/triton/test_tiny_gemm.py":22:4)
#loc20 = loc("offs"(#loc2))
#loc21 = loc("a"(#loc3))
#loc22 = loc("a"(#loc4))
#loc23 = loc("a"(#loc5))
#loc24 = loc("a"(#loc6))
#loc25 = loc("a"(#loc7))
#loc26 = loc("a"(#loc8))
#loc27 = loc("b"(#loc9))
#loc28 = loc("b"(#loc10))
#loc29 = loc("b"(#loc11))
#loc30 = loc("c"(#loc12))


// -----// IR Dump Before TritonGPUOptimizeThreadLocality (tritongpu-optimize-thread-locality) ('builtin.module' operation) //----- //
#blocked = #ttg.blocked<{sizePerThread = [1, 1], threadsPerWarp = [2, 16], warpsPerCTA = [4, 1], order = [1, 0]}>
#blocked1 = #ttg.blocked<{sizePerThread = [1, 2], threadsPerWarp = [4, 8], warpsPerCTA = [4, 1], order = [1, 0]}>
#loc = loc("/home/meiziyuan/triton/test_tiny_gemm.py":17:0)
#loc16 = loc("a_ptr"(#loc))
#loc17 = loc("b_ptr"(#loc))
#loc18 = loc("c_ptr"(#loc))
module attributes {triton.shared_layout = "vector:1->(0,1);bank:1->(1,0),2->(2,0),4->(0,2),8->(0,4),16->(0,8);segment:1->(8,0),2->(4,8);outdims:dim0->16,dim1->16;reps:0", "ttg.num-ctas" = 1 : i32, "ttg.num-warps" = 4 : i32, ttg.target = "cuda:90", "ttg.threads-per-warp" = 32 : i32} {
  tt.func public @tiny_matmul_kernel(%a_ptr: !tt.ptr<f16> {tt.divisibility = 16 : i32} loc("a_ptr"(#loc)), %b_ptr: !tt.ptr<f16> {tt.divisibility = 16 : i32} loc("b_ptr"(#loc)), %c_ptr: !tt.ptr<f16> {tt.divisibility = 16 : i32} loc("c_ptr"(#loc))) attributes {noinline = false} {
    %cst = arith.constant dense<0.000000e+00> : tensor<16x16xf32, #blocked> loc(#loc1)
    %cst_0 = arith.constant dense<16> : tensor<16x1xi32, #blocked1> loc(#loc1)
    %a = tt.make_range {end = 16 : i32, start = 0 : i32} : tensor<16xi32, #ttg.slice<{dim = 1, parent = #blocked1}>> loc(#loc19)
    %a_1 = tt.expand_dims %a {axis = 1 : i32} : tensor<16xi32, #ttg.slice<{dim = 1, parent = #blocked1}>> -> tensor<16x1xi32, #blocked1> loc(#loc19)
    %a_2 = arith.muli %a_1, %cst_0 : tensor<16x1xi32, #blocked1> loc(#loc20)
    %a_3 = tt.splat %a_ptr : !tt.ptr<f16> -> tensor<16x1x!tt.ptr<f16>, #blocked1> loc(#loc21)
    %a_4 = tt.addptr %a_3, %a_2 : tensor<16x1x!tt.ptr<f16>, #blocked1>, tensor<16x1xi32, #blocked1> loc(#loc21)
    %a_5 = tt.make_range {end = 16 : i32, start = 0 : i32} : tensor<16xi32, #ttg.slice<{dim = 0, parent = #blocked1}>> loc(#loc22)
    %a_6 = tt.expand_dims %a_5 {axis = 0 : i32} : tensor<16xi32, #ttg.slice<{dim = 0, parent = #blocked1}>> -> tensor<1x16xi32, #blocked1> loc(#loc22)
    %a_7 = tt.broadcast %a_4 : tensor<16x1x!tt.ptr<f16>, #blocked1> -> tensor<16x16x!tt.ptr<f16>, #blocked1> loc(#loc23)
    %a_8 = tt.broadcast %a_6 : tensor<1x16xi32, #blocked1> -> tensor<16x16xi32, #blocked1> loc(#loc23)
    %a_9 = tt.addptr %a_7, %a_8 : tensor<16x16x!tt.ptr<f16>, #blocked1>, tensor<16x16xi32, #blocked1> loc(#loc23)
    %a_10 = tt.load %a_9 : tensor<16x16x!tt.ptr<f16>, #blocked1> loc(#loc24)
    %b = tt.splat %b_ptr : !tt.ptr<f16> -> tensor<16x1x!tt.ptr<f16>, #blocked1> loc(#loc25)
    %b_11 = tt.addptr %b, %a_2 : tensor<16x1x!tt.ptr<f16>, #blocked1>, tensor<16x1xi32, #blocked1> loc(#loc25)
    %b_12 = tt.broadcast %b_11 : tensor<16x1x!tt.ptr<f16>, #blocked1> -> tensor<16x16x!tt.ptr<f16>, #blocked1> loc(#loc26)
    %b_13 = tt.addptr %b_12, %a_8 : tensor<16x16x!tt.ptr<f16>, #blocked1>, tensor<16x16xi32, #blocked1> loc(#loc26)
    %b_14 = tt.load %b_13 : tensor<16x16x!tt.ptr<f16>, #blocked1> loc(#loc27)
    %a_15 = ttg.convert_layout %a_10 : tensor<16x16xf16, #blocked1> -> tensor<16x16xf16, #ttg.dot_op<{opIdx = 0, parent = #blocked}>> loc(#loc24)
    %b_16 = ttg.convert_layout %b_14 : tensor<16x16xf16, #blocked1> -> tensor<16x16xf16, #ttg.dot_op<{opIdx = 1, parent = #blocked}>> loc(#loc27)
    %c = tt.dot %a_15, %b_16, %cst, inputPrecision = tf32 : tensor<16x16xf16, #ttg.dot_op<{opIdx = 0, parent = #blocked}>> * tensor<16x16xf16, #ttg.dot_op<{opIdx = 1, parent = #blocked}>> -> tensor<16x16xf32, #blocked> loc(#loc28)
    %0 = tt.splat %c_ptr : !tt.ptr<f16> -> tensor<16x1x!tt.ptr<f16>, #blocked1> loc(#loc12)
    %1 = tt.addptr %0, %a_2 : tensor<16x1x!tt.ptr<f16>, #blocked1>, tensor<16x1xi32, #blocked1> loc(#loc12)
    %2 = tt.broadcast %1 : tensor<16x1x!tt.ptr<f16>, #blocked1> -> tensor<16x16x!tt.ptr<f16>, #blocked1> loc(#loc13)
    %3 = tt.addptr %2, %a_8 : tensor<16x16x!tt.ptr<f16>, #blocked1>, tensor<16x16xi32, #blocked1> loc(#loc13)
    %4 = arith.truncf %c : tensor<16x16xf32, #blocked> to tensor<16x16xf16, #blocked> loc(#loc14)
    %5 = ttg.convert_layout %4 : tensor<16x16xf16, #blocked> -> tensor<16x16xf16, #blocked1> loc(#loc14)
    tt.store %3, %5 : tensor<16x16x!tt.ptr<f16>, #blocked1> loc(#loc14)
    tt.return loc(#loc15)
  } loc(#loc)
} loc(#loc)
#loc1 = loc(unknown)
#loc2 = loc("/home/meiziyuan/triton/test_tiny_gemm.py":19:29)
#loc3 = loc("/home/meiziyuan/triton/test_tiny_gemm.py":19:40)
#loc4 = loc("/home/meiziyuan/triton/test_tiny_gemm.py":19:24)
#loc5 = loc("/home/meiziyuan/triton/test_tiny_gemm.py":19:50)
#loc6 = loc("/home/meiziyuan/triton/test_tiny_gemm.py":19:45)
#loc7 = loc("/home/meiziyuan/triton/test_tiny_gemm.py":19:16)
#loc8 = loc("/home/meiziyuan/triton/test_tiny_gemm.py":20:24)
#loc9 = loc("/home/meiziyuan/triton/test_tiny_gemm.py":20:45)
#loc10 = loc("/home/meiziyuan/triton/test_tiny_gemm.py":20:16)
#loc11 = loc("/home/meiziyuan/triton/test_tiny_gemm.py":21:18)
#loc12 = loc("/home/meiziyuan/triton/test_tiny_gemm.py":22:21)
#loc13 = loc("/home/meiziyuan/triton/test_tiny_gemm.py":22:42)
#loc14 = loc("/home/meiziyuan/triton/test_tiny_gemm.py":22:57)
#loc15 = loc("/home/meiziyuan/triton/test_tiny_gemm.py":22:4)
#loc19 = loc("a"(#loc2))
#loc20 = loc("a"(#loc3))
#loc21 = loc("a"(#loc4))
#loc22 = loc("a"(#loc5))
#loc23 = loc("a"(#loc6))
#loc24 = loc("a"(#loc7))
#loc25 = loc("b"(#loc8))
#loc26 = loc("b"(#loc9))
#loc27 = loc("b"(#loc10))
#loc28 = loc("c"(#loc11))


// -----// IR Dump Before TritonGPUAccelerateMatmul (tritongpu-accelerate-matmul) ('builtin.module' operation) //----- //
#blocked = #ttg.blocked<{sizePerThread = [1, 1], threadsPerWarp = [2, 16], warpsPerCTA = [4, 1], order = [1, 0]}>
#blocked1 = #ttg.blocked<{sizePerThread = [1, 2], threadsPerWarp = [4, 8], warpsPerCTA = [4, 1], order = [1, 0]}>
#loc = loc("/home/meiziyuan/triton/test_tiny_gemm.py":17:0)
#loc16 = loc("a_ptr"(#loc))
#loc17 = loc("b_ptr"(#loc))
#loc18 = loc("c_ptr"(#loc))
module attributes {triton.shared_layout = "vector:1->(0,1);bank:1->(1,0),2->(2,0),4->(0,2),8->(0,4),16->(0,8);segment:1->(8,0),2->(4,8);outdims:dim0->16,dim1->16;reps:0", "ttg.num-ctas" = 1 : i32, "ttg.num-warps" = 4 : i32, ttg.target = "cuda:90", "ttg.threads-per-warp" = 32 : i32} {
  tt.func public @tiny_matmul_kernel(%a_ptr: !tt.ptr<f16> {tt.divisibility = 16 : i32} loc("a_ptr"(#loc)), %b_ptr: !tt.ptr<f16> {tt.divisibility = 16 : i32} loc("b_ptr"(#loc)), %c_ptr: !tt.ptr<f16> {tt.divisibility = 16 : i32} loc("c_ptr"(#loc))) attributes {noinline = false} {
    %cst = arith.constant dense<0.000000e+00> : tensor<16x16xf32, #blocked> loc(#loc1)
    %cst_0 = arith.constant dense<16> : tensor<16x1xi32, #blocked1> loc(#loc1)
    %a = tt.make_range {end = 16 : i32, start = 0 : i32} : tensor<16xi32, #ttg.slice<{dim = 1, parent = #blocked1}>> loc(#loc19)
    %a_1 = tt.expand_dims %a {axis = 1 : i32} : tensor<16xi32, #ttg.slice<{dim = 1, parent = #blocked1}>> -> tensor<16x1xi32, #blocked1> loc(#loc19)
    %a_2 = arith.muli %a_1, %cst_0 : tensor<16x1xi32, #blocked1> loc(#loc20)
    %a_3 = tt.splat %a_ptr : !tt.ptr<f16> -> tensor<16x1x!tt.ptr<f16>, #blocked1> loc(#loc21)
    %a_4 = tt.addptr %a_3, %a_2 : tensor<16x1x!tt.ptr<f16>, #blocked1>, tensor<16x1xi32, #blocked1> loc(#loc21)
    %a_5 = tt.make_range {end = 16 : i32, start = 0 : i32} : tensor<16xi32, #ttg.slice<{dim = 0, parent = #blocked1}>> loc(#loc22)
    %a_6 = tt.expand_dims %a_5 {axis = 0 : i32} : tensor<16xi32, #ttg.slice<{dim = 0, parent = #blocked1}>> -> tensor<1x16xi32, #blocked1> loc(#loc22)
    %a_7 = tt.broadcast %a_4 : tensor<16x1x!tt.ptr<f16>, #blocked1> -> tensor<16x16x!tt.ptr<f16>, #blocked1> loc(#loc23)
    %a_8 = tt.broadcast %a_6 : tensor<1x16xi32, #blocked1> -> tensor<16x16xi32, #blocked1> loc(#loc23)
    %a_9 = tt.addptr %a_7, %a_8 : tensor<16x16x!tt.ptr<f16>, #blocked1>, tensor<16x16xi32, #blocked1> loc(#loc23)
    %a_10 = tt.load %a_9 : tensor<16x16x!tt.ptr<f16>, #blocked1> loc(#loc24)
    %b = tt.splat %b_ptr : !tt.ptr<f16> -> tensor<16x1x!tt.ptr<f16>, #blocked1> loc(#loc25)
    %b_11 = tt.addptr %b, %a_2 : tensor<16x1x!tt.ptr<f16>, #blocked1>, tensor<16x1xi32, #blocked1> loc(#loc25)
    %b_12 = tt.broadcast %b_11 : tensor<16x1x!tt.ptr<f16>, #blocked1> -> tensor<16x16x!tt.ptr<f16>, #blocked1> loc(#loc26)
    %b_13 = tt.addptr %b_12, %a_8 : tensor<16x16x!tt.ptr<f16>, #blocked1>, tensor<16x16xi32, #blocked1> loc(#loc26)
    %b_14 = tt.load %b_13 : tensor<16x16x!tt.ptr<f16>, #blocked1> loc(#loc27)
    %a_15 = ttg.convert_layout %a_10 : tensor<16x16xf16, #blocked1> -> tensor<16x16xf16, #ttg.dot_op<{opIdx = 0, parent = #blocked}>> loc(#loc24)
    %b_16 = ttg.convert_layout %b_14 : tensor<16x16xf16, #blocked1> -> tensor<16x16xf16, #ttg.dot_op<{opIdx = 1, parent = #blocked}>> loc(#loc27)
    %c = tt.dot %a_15, %b_16, %cst, inputPrecision = tf32 : tensor<16x16xf16, #ttg.dot_op<{opIdx = 0, parent = #blocked}>> * tensor<16x16xf16, #ttg.dot_op<{opIdx = 1, parent = #blocked}>> -> tensor<16x16xf32, #blocked> loc(#loc28)
    %0 = tt.splat %c_ptr : !tt.ptr<f16> -> tensor<16x1x!tt.ptr<f16>, #blocked1> loc(#loc12)
    %1 = tt.addptr %0, %a_2 : tensor<16x1x!tt.ptr<f16>, #blocked1>, tensor<16x1xi32, #blocked1> loc(#loc12)
    %2 = tt.broadcast %1 : tensor<16x1x!tt.ptr<f16>, #blocked1> -> tensor<16x16x!tt.ptr<f16>, #blocked1> loc(#loc13)
    %3 = tt.addptr %2, %a_8 : tensor<16x16x!tt.ptr<f16>, #blocked1>, tensor<16x16xi32, #blocked1> loc(#loc13)
    %4 = arith.truncf %c : tensor<16x16xf32, #blocked> to tensor<16x16xf16, #blocked> loc(#loc14)
    %5 = ttg.convert_layout %4 : tensor<16x16xf16, #blocked> -> tensor<16x16xf16, #blocked1> loc(#loc14)
    tt.store %3, %5 : tensor<16x16x!tt.ptr<f16>, #blocked1> loc(#loc14)
    tt.return loc(#loc15)
  } loc(#loc)
} loc(#loc)
#loc1 = loc(unknown)
#loc2 = loc("/home/meiziyuan/triton/test_tiny_gemm.py":19:29)
#loc3 = loc("/home/meiziyuan/triton/test_tiny_gemm.py":19:40)
#loc4 = loc("/home/meiziyuan/triton/test_tiny_gemm.py":19:24)
#loc5 = loc("/home/meiziyuan/triton/test_tiny_gemm.py":19:50)
#loc6 = loc("/home/meiziyuan/triton/test_tiny_gemm.py":19:45)
#loc7 = loc("/home/meiziyuan/triton/test_tiny_gemm.py":19:16)
#loc8 = loc("/home/meiziyuan/triton/test_tiny_gemm.py":20:24)
#loc9 = loc("/home/meiziyuan/triton/test_tiny_gemm.py":20:45)
#loc10 = loc("/home/meiziyuan/triton/test_tiny_gemm.py":20:16)
#loc11 = loc("/home/meiziyuan/triton/test_tiny_gemm.py":21:18)
#loc12 = loc("/home/meiziyuan/triton/test_tiny_gemm.py":22:21)
#loc13 = loc("/home/meiziyuan/triton/test_tiny_gemm.py":22:42)
#loc14 = loc("/home/meiziyuan/triton/test_tiny_gemm.py":22:57)
#loc15 = loc("/home/meiziyuan/triton/test_tiny_gemm.py":22:4)
#loc19 = loc("a"(#loc2))
#loc20 = loc("a"(#loc3))
#loc21 = loc("a"(#loc4))
#loc22 = loc("a"(#loc5))
#loc23 = loc("a"(#loc6))
#loc24 = loc("a"(#loc7))
#loc25 = loc("b"(#loc8))
#loc26 = loc("b"(#loc9))
#loc27 = loc("b"(#loc10))
#loc28 = loc("c"(#loc11))


// -----// IR Dump Before TritonGPURemoveLayoutConversions (tritongpu-remove-layout-conversions) ('builtin.module' operation) //----- //
#blocked = #ttg.blocked<{sizePerThread = [1, 1], threadsPerWarp = [2, 16], warpsPerCTA = [4, 1], order = [1, 0]}>
#blocked1 = #ttg.blocked<{sizePerThread = [1, 2], threadsPerWarp = [4, 8], warpsPerCTA = [4, 1], order = [1, 0]}>
#loc = loc("/home/meiziyuan/triton/test_tiny_gemm.py":17:0)
#mma = #ttg.nvidia_mma<{versionMajor = 2, versionMinor = 0, warpsPerCTA = [2, 2], instrShape = [16, 8]}>
#loc16 = loc("a_ptr"(#loc))
#loc17 = loc("b_ptr"(#loc))
#loc18 = loc("c_ptr"(#loc))
module attributes {triton.shared_layout = "vector:1->(0,1);bank:1->(1,0),2->(2,0),4->(0,2),8->(0,4),16->(0,8);segment:1->(8,0),2->(4,8);outdims:dim0->16,dim1->16;reps:0", "ttg.num-ctas" = 1 : i32, "ttg.num-warps" = 4 : i32, ttg.target = "cuda:90", "ttg.threads-per-warp" = 32 : i32} {
  tt.func public @tiny_matmul_kernel(%a_ptr: !tt.ptr<f16> {tt.divisibility = 16 : i32} loc("a_ptr"(#loc)), %b_ptr: !tt.ptr<f16> {tt.divisibility = 16 : i32} loc("b_ptr"(#loc)), %c_ptr: !tt.ptr<f16> {tt.divisibility = 16 : i32} loc("c_ptr"(#loc))) attributes {noinline = false} {
    %cst = arith.constant dense<0.000000e+00> : tensor<16x16xf32, #blocked> loc(#loc1)
    %cst_0 = arith.constant dense<16> : tensor<16x1xi32, #blocked1> loc(#loc1)
    %a = tt.make_range {end = 16 : i32, start = 0 : i32} : tensor<16xi32, #ttg.slice<{dim = 1, parent = #blocked1}>> loc(#loc19)
    %a_1 = tt.expand_dims %a {axis = 1 : i32} : tensor<16xi32, #ttg.slice<{dim = 1, parent = #blocked1}>> -> tensor<16x1xi32, #blocked1> loc(#loc19)
    %a_2 = arith.muli %a_1, %cst_0 : tensor<16x1xi32, #blocked1> loc(#loc20)
    %a_3 = tt.splat %a_ptr : !tt.ptr<f16> -> tensor<16x1x!tt.ptr<f16>, #blocked1> loc(#loc21)
    %a_4 = tt.addptr %a_3, %a_2 : tensor<16x1x!tt.ptr<f16>, #blocked1>, tensor<16x1xi32, #blocked1> loc(#loc21)
    %a_5 = tt.make_range {end = 16 : i32, start = 0 : i32} : tensor<16xi32, #ttg.slice<{dim = 0, parent = #blocked1}>> loc(#loc22)
    %a_6 = tt.expand_dims %a_5 {axis = 0 : i32} : tensor<16xi32, #ttg.slice<{dim = 0, parent = #blocked1}>> -> tensor<1x16xi32, #blocked1> loc(#loc22)
    %a_7 = tt.broadcast %a_4 : tensor<16x1x!tt.ptr<f16>, #blocked1> -> tensor<16x16x!tt.ptr<f16>, #blocked1> loc(#loc23)
    %a_8 = tt.broadcast %a_6 : tensor<1x16xi32, #blocked1> -> tensor<16x16xi32, #blocked1> loc(#loc23)
    %a_9 = tt.addptr %a_7, %a_8 : tensor<16x16x!tt.ptr<f16>, #blocked1>, tensor<16x16xi32, #blocked1> loc(#loc23)
    %a_10 = tt.load %a_9 : tensor<16x16x!tt.ptr<f16>, #blocked1> loc(#loc24)
    %b = tt.splat %b_ptr : !tt.ptr<f16> -> tensor<16x1x!tt.ptr<f16>, #blocked1> loc(#loc25)
    %b_11 = tt.addptr %b, %a_2 : tensor<16x1x!tt.ptr<f16>, #blocked1>, tensor<16x1xi32, #blocked1> loc(#loc25)
    %b_12 = tt.broadcast %b_11 : tensor<16x1x!tt.ptr<f16>, #blocked1> -> tensor<16x16x!tt.ptr<f16>, #blocked1> loc(#loc26)
    %b_13 = tt.addptr %b_12, %a_8 : tensor<16x16x!tt.ptr<f16>, #blocked1>, tensor<16x16xi32, #blocked1> loc(#loc26)
    %b_14 = tt.load %b_13 : tensor<16x16x!tt.ptr<f16>, #blocked1> loc(#loc27)
    %a_15 = ttg.convert_layout %a_10 : tensor<16x16xf16, #blocked1> -> tensor<16x16xf16, #ttg.dot_op<{opIdx = 0, parent = #blocked}>> loc(#loc24)
    %b_16 = ttg.convert_layout %b_14 : tensor<16x16xf16, #blocked1> -> tensor<16x16xf16, #ttg.dot_op<{opIdx = 1, parent = #blocked}>> loc(#loc27)
    %0 = ttg.convert_layout %cst : tensor<16x16xf32, #blocked> -> tensor<16x16xf32, #mma> loc(#loc1)
    %a_17 = ttg.convert_layout %a_15 : tensor<16x16xf16, #ttg.dot_op<{opIdx = 0, parent = #blocked}>> -> tensor<16x16xf16, #ttg.dot_op<{opIdx = 0, parent = #mma, kWidth = 2}>> loc(#loc24)
    %b_18 = ttg.convert_layout %b_16 : tensor<16x16xf16, #ttg.dot_op<{opIdx = 1, parent = #blocked}>> -> tensor<16x16xf16, #ttg.dot_op<{opIdx = 1, parent = #mma, kWidth = 2}>> loc(#loc27)
    %c = tt.dot %a_17, %b_18, %0, inputPrecision = tf32 : tensor<16x16xf16, #ttg.dot_op<{opIdx = 0, parent = #mma, kWidth = 2}>> * tensor<16x16xf16, #ttg.dot_op<{opIdx = 1, parent = #mma, kWidth = 2}>> -> tensor<16x16xf32, #mma> loc(#loc28)
    %c_19 = ttg.convert_layout %c : tensor<16x16xf32, #mma> -> tensor<16x16xf32, #blocked> loc(#loc28)
    %1 = tt.splat %c_ptr : !tt.ptr<f16> -> tensor<16x1x!tt.ptr<f16>, #blocked1> loc(#loc12)
    %2 = tt.addptr %1, %a_2 : tensor<16x1x!tt.ptr<f16>, #blocked1>, tensor<16x1xi32, #blocked1> loc(#loc12)
    %3 = tt.broadcast %2 : tensor<16x1x!tt.ptr<f16>, #blocked1> -> tensor<16x16x!tt.ptr<f16>, #blocked1> loc(#loc13)
    %4 = tt.addptr %3, %a_8 : tensor<16x16x!tt.ptr<f16>, #blocked1>, tensor<16x16xi32, #blocked1> loc(#loc13)
    %5 = arith.truncf %c_19 : tensor<16x16xf32, #blocked> to tensor<16x16xf16, #blocked> loc(#loc14)
    %6 = ttg.convert_layout %5 : tensor<16x16xf16, #blocked> -> tensor<16x16xf16, #blocked1> loc(#loc14)
    tt.store %4, %6 : tensor<16x16x!tt.ptr<f16>, #blocked1> loc(#loc14)
    tt.return loc(#loc15)
  } loc(#loc)
} loc(#loc)
#loc1 = loc(unknown)
#loc2 = loc("/home/meiziyuan/triton/test_tiny_gemm.py":19:29)
#loc3 = loc("/home/meiziyuan/triton/test_tiny_gemm.py":19:40)
#loc4 = loc("/home/meiziyuan/triton/test_tiny_gemm.py":19:24)
#loc5 = loc("/home/meiziyuan/triton/test_tiny_gemm.py":19:50)
#loc6 = loc("/home/meiziyuan/triton/test_tiny_gemm.py":19:45)
#loc7 = loc("/home/meiziyuan/triton/test_tiny_gemm.py":19:16)
#loc8 = loc("/home/meiziyuan/triton/test_tiny_gemm.py":20:24)
#loc9 = loc("/home/meiziyuan/triton/test_tiny_gemm.py":20:45)
#loc10 = loc("/home/meiziyuan/triton/test_tiny_gemm.py":20:16)
#loc11 = loc("/home/meiziyuan/triton/test_tiny_gemm.py":21:18)
#loc12 = loc("/home/meiziyuan/triton/test_tiny_gemm.py":22:21)
#loc13 = loc("/home/meiziyuan/triton/test_tiny_gemm.py":22:42)
#loc14 = loc("/home/meiziyuan/triton/test_tiny_gemm.py":22:57)
#loc15 = loc("/home/meiziyuan/triton/test_tiny_gemm.py":22:4)
#loc19 = loc("a"(#loc2))
#loc20 = loc("a"(#loc3))
#loc21 = loc("a"(#loc4))
#loc22 = loc("a"(#loc5))
#loc23 = loc("a"(#loc6))
#loc24 = loc("a"(#loc7))
#loc25 = loc("b"(#loc8))
#loc26 = loc("b"(#loc9))
#loc27 = loc("b"(#loc10))
#loc28 = loc("c"(#loc11))


// -----// IR Dump Before TritonGPUOptimizeDotOperands (tritongpu-optimize-dot-operands) ('builtin.module' operation) //----- //
#blocked = #ttg.blocked<{sizePerThread = [1, 2], threadsPerWarp = [4, 8], warpsPerCTA = [4, 1], order = [1, 0]}>
#loc = loc("/home/meiziyuan/triton/test_tiny_gemm.py":17:0)
#mma = #ttg.nvidia_mma<{versionMajor = 2, versionMinor = 0, warpsPerCTA = [2, 2], instrShape = [16, 8]}>
#loc16 = loc("a_ptr"(#loc))
#loc17 = loc("b_ptr"(#loc))
#loc18 = loc("c_ptr"(#loc))
module attributes {triton.shared_layout = "vector:1->(0,1);bank:1->(1,0),2->(2,0),4->(0,2),8->(0,4),16->(0,8);segment:1->(8,0),2->(4,8);outdims:dim0->16,dim1->16;reps:0", "ttg.num-ctas" = 1 : i32, "ttg.num-warps" = 4 : i32, ttg.target = "cuda:90", "ttg.threads-per-warp" = 32 : i32} {
  tt.func public @tiny_matmul_kernel(%a_ptr: !tt.ptr<f16> {tt.divisibility = 16 : i32} loc("a_ptr"(#loc)), %b_ptr: !tt.ptr<f16> {tt.divisibility = 16 : i32} loc("b_ptr"(#loc)), %c_ptr: !tt.ptr<f16> {tt.divisibility = 16 : i32} loc("c_ptr"(#loc))) attributes {noinline = false} {
    %cst = arith.constant dense<0.000000e+00> : tensor<16x16xf32, #mma> loc(#loc1)
    %cst_0 = arith.constant dense<16> : tensor<16x1xi32, #blocked> loc(#loc1)
    %a = tt.make_range {end = 16 : i32, start = 0 : i32} : tensor<16xi32, #ttg.slice<{dim = 1, parent = #blocked}>> loc(#loc19)
    %a_1 = tt.expand_dims %a {axis = 1 : i32} : tensor<16xi32, #ttg.slice<{dim = 1, parent = #blocked}>> -> tensor<16x1xi32, #blocked> loc(#loc19)
    %a_2 = arith.muli %a_1, %cst_0 : tensor<16x1xi32, #blocked> loc(#loc20)
    %a_3 = tt.splat %a_ptr : !tt.ptr<f16> -> tensor<16x1x!tt.ptr<f16>, #blocked> loc(#loc21)
    %a_4 = tt.addptr %a_3, %a_2 : tensor<16x1x!tt.ptr<f16>, #blocked>, tensor<16x1xi32, #blocked> loc(#loc21)
    %a_5 = tt.make_range {end = 16 : i32, start = 0 : i32} : tensor<16xi32, #ttg.slice<{dim = 0, parent = #blocked}>> loc(#loc22)
    %a_6 = tt.expand_dims %a_5 {axis = 0 : i32} : tensor<16xi32, #ttg.slice<{dim = 0, parent = #blocked}>> -> tensor<1x16xi32, #blocked> loc(#loc22)
    %a_7 = tt.broadcast %a_4 : tensor<16x1x!tt.ptr<f16>, #blocked> -> tensor<16x16x!tt.ptr<f16>, #blocked> loc(#loc23)
    %a_8 = tt.broadcast %a_6 : tensor<1x16xi32, #blocked> -> tensor<16x16xi32, #blocked> loc(#loc23)
    %a_9 = tt.addptr %a_7, %a_8 : tensor<16x16x!tt.ptr<f16>, #blocked>, tensor<16x16xi32, #blocked> loc(#loc23)
    %a_10 = tt.load %a_9 : tensor<16x16x!tt.ptr<f16>, #blocked> loc(#loc24)
    %b = tt.splat %b_ptr : !tt.ptr<f16> -> tensor<16x1x!tt.ptr<f16>, #blocked> loc(#loc25)
    %b_11 = tt.addptr %b, %a_2 : tensor<16x1x!tt.ptr<f16>, #blocked>, tensor<16x1xi32, #blocked> loc(#loc25)
    %b_12 = tt.broadcast %b_11 : tensor<16x1x!tt.ptr<f16>, #blocked> -> tensor<16x16x!tt.ptr<f16>, #blocked> loc(#loc26)
    %b_13 = tt.addptr %b_12, %a_8 : tensor<16x16x!tt.ptr<f16>, #blocked>, tensor<16x16xi32, #blocked> loc(#loc26)
    %b_14 = tt.load %b_13 : tensor<16x16x!tt.ptr<f16>, #blocked> loc(#loc27)
    %a_15 = ttg.convert_layout %a_10 : tensor<16x16xf16, #blocked> -> tensor<16x16xf16, #ttg.dot_op<{opIdx = 0, parent = #mma, kWidth = 2}>> loc(#loc24)
    %b_16 = ttg.convert_layout %b_14 : tensor<16x16xf16, #blocked> -> tensor<16x16xf16, #ttg.dot_op<{opIdx = 1, parent = #mma, kWidth = 2}>> loc(#loc27)
    %c = tt.dot %a_15, %b_16, %cst, inputPrecision = tf32 : tensor<16x16xf16, #ttg.dot_op<{opIdx = 0, parent = #mma, kWidth = 2}>> * tensor<16x16xf16, #ttg.dot_op<{opIdx = 1, parent = #mma, kWidth = 2}>> -> tensor<16x16xf32, #mma> loc(#loc28)
    %0 = tt.splat %c_ptr : !tt.ptr<f16> -> tensor<16x1x!tt.ptr<f16>, #blocked> loc(#loc12)
    %1 = tt.addptr %0, %a_2 : tensor<16x1x!tt.ptr<f16>, #blocked>, tensor<16x1xi32, #blocked> loc(#loc12)
    %2 = tt.broadcast %1 : tensor<16x1x!tt.ptr<f16>, #blocked> -> tensor<16x16x!tt.ptr<f16>, #blocked> loc(#loc13)
    %3 = tt.addptr %2, %a_8 : tensor<16x16x!tt.ptr<f16>, #blocked>, tensor<16x16xi32, #blocked> loc(#loc13)
    %4 = arith.truncf %c : tensor<16x16xf32, #mma> to tensor<16x16xf16, #mma> loc(#loc14)
    %5 = ttg.convert_layout %4 : tensor<16x16xf16, #mma> -> tensor<16x16xf16, #blocked> loc(#loc14)
    tt.store %3, %5 : tensor<16x16x!tt.ptr<f16>, #blocked> loc(#loc14)
    tt.return loc(#loc15)
  } loc(#loc)
} loc(#loc)
#loc1 = loc(unknown)
#loc2 = loc("/home/meiziyuan/triton/test_tiny_gemm.py":19:29)
#loc3 = loc("/home/meiziyuan/triton/test_tiny_gemm.py":19:40)
#loc4 = loc("/home/meiziyuan/triton/test_tiny_gemm.py":19:24)
#loc5 = loc("/home/meiziyuan/triton/test_tiny_gemm.py":19:50)
#loc6 = loc("/home/meiziyuan/triton/test_tiny_gemm.py":19:45)
#loc7 = loc("/home/meiziyuan/triton/test_tiny_gemm.py":19:16)
#loc8 = loc("/home/meiziyuan/triton/test_tiny_gemm.py":20:24)
#loc9 = loc("/home/meiziyuan/triton/test_tiny_gemm.py":20:45)
#loc10 = loc("/home/meiziyuan/triton/test_tiny_gemm.py":20:16)
#loc11 = loc("/home/meiziyuan/triton/test_tiny_gemm.py":21:18)
#loc12 = loc("/home/meiziyuan/triton/test_tiny_gemm.py":22:21)
#loc13 = loc("/home/meiziyuan/triton/test_tiny_gemm.py":22:42)
#loc14 = loc("/home/meiziyuan/triton/test_tiny_gemm.py":22:57)
#loc15 = loc("/home/meiziyuan/triton/test_tiny_gemm.py":22:4)
#loc19 = loc("a"(#loc2))
#loc20 = loc("a"(#loc3))
#loc21 = loc("a"(#loc4))
#loc22 = loc("a"(#loc5))
#loc23 = loc("a"(#loc6))
#loc24 = loc("a"(#loc7))
#loc25 = loc("b"(#loc8))
#loc26 = loc("b"(#loc9))
#loc27 = loc("b"(#loc10))
#loc28 = loc("c"(#loc11))


// -----// IR Dump Before Canonicalizer (canonicalize) ('builtin.module' operation) //----- //
#blocked = #ttg.blocked<{sizePerThread = [1, 2], threadsPerWarp = [4, 8], warpsPerCTA = [4, 1], order = [1, 0]}>
#loc = loc("/home/meiziyuan/triton/test_tiny_gemm.py":17:0)
#mma = #ttg.nvidia_mma<{versionMajor = 2, versionMinor = 0, warpsPerCTA = [2, 2], instrShape = [16, 8]}>
#loc16 = loc("a_ptr"(#loc))
#loc17 = loc("b_ptr"(#loc))
#loc18 = loc("c_ptr"(#loc))
module attributes {triton.shared_layout = "vector:1->(0,1);bank:1->(1,0),2->(2,0),4->(0,2),8->(0,4),16->(0,8);segment:1->(8,0),2->(4,8);outdims:dim0->16,dim1->16;reps:0", "ttg.num-ctas" = 1 : i32, "ttg.num-warps" = 4 : i32, ttg.target = "cuda:90", "ttg.threads-per-warp" = 32 : i32} {
  tt.func public @tiny_matmul_kernel(%a_ptr: !tt.ptr<f16> {tt.divisibility = 16 : i32} loc("a_ptr"(#loc)), %b_ptr: !tt.ptr<f16> {tt.divisibility = 16 : i32} loc("b_ptr"(#loc)), %c_ptr: !tt.ptr<f16> {tt.divisibility = 16 : i32} loc("c_ptr"(#loc))) attributes {noinline = false} {
    %cst = arith.constant dense<0.000000e+00> : tensor<16x16xf32, #mma> loc(#loc1)
    %cst_0 = arith.constant dense<16> : tensor<16x1xi32, #blocked> loc(#loc1)
    %a = tt.make_range {end = 16 : i32, start = 0 : i32} : tensor<16xi32, #ttg.slice<{dim = 1, parent = #blocked}>> loc(#loc19)
    %a_1 = tt.expand_dims %a {axis = 1 : i32} : tensor<16xi32, #ttg.slice<{dim = 1, parent = #blocked}>> -> tensor<16x1xi32, #blocked> loc(#loc19)
    %a_2 = arith.muli %a_1, %cst_0 : tensor<16x1xi32, #blocked> loc(#loc20)
    %a_3 = tt.splat %a_ptr : !tt.ptr<f16> -> tensor<16x1x!tt.ptr<f16>, #blocked> loc(#loc21)
    %a_4 = tt.addptr %a_3, %a_2 : tensor<16x1x!tt.ptr<f16>, #blocked>, tensor<16x1xi32, #blocked> loc(#loc21)
    %a_5 = tt.make_range {end = 16 : i32, start = 0 : i32} : tensor<16xi32, #ttg.slice<{dim = 0, parent = #blocked}>> loc(#loc22)
    %a_6 = tt.expand_dims %a_5 {axis = 0 : i32} : tensor<16xi32, #ttg.slice<{dim = 0, parent = #blocked}>> -> tensor<1x16xi32, #blocked> loc(#loc22)
    %a_7 = tt.broadcast %a_4 : tensor<16x1x!tt.ptr<f16>, #blocked> -> tensor<16x16x!tt.ptr<f16>, #blocked> loc(#loc23)
    %a_8 = tt.broadcast %a_6 : tensor<1x16xi32, #blocked> -> tensor<16x16xi32, #blocked> loc(#loc23)
    %a_9 = tt.addptr %a_7, %a_8 : tensor<16x16x!tt.ptr<f16>, #blocked>, tensor<16x16xi32, #blocked> loc(#loc23)
    %a_10 = tt.load %a_9 : tensor<16x16x!tt.ptr<f16>, #blocked> loc(#loc24)
    %b = tt.splat %b_ptr : !tt.ptr<f16> -> tensor<16x1x!tt.ptr<f16>, #blocked> loc(#loc25)
    %b_11 = tt.addptr %b, %a_2 : tensor<16x1x!tt.ptr<f16>, #blocked>, tensor<16x1xi32, #blocked> loc(#loc25)
    %b_12 = tt.broadcast %b_11 : tensor<16x1x!tt.ptr<f16>, #blocked> -> tensor<16x16x!tt.ptr<f16>, #blocked> loc(#loc26)
    %b_13 = tt.addptr %b_12, %a_8 : tensor<16x16x!tt.ptr<f16>, #blocked>, tensor<16x16xi32, #blocked> loc(#loc26)
    %b_14 = tt.load %b_13 : tensor<16x16x!tt.ptr<f16>, #blocked> loc(#loc27)
    %a_15 = ttg.convert_layout %a_10 : tensor<16x16xf16, #blocked> -> tensor<16x16xf16, #ttg.dot_op<{opIdx = 0, parent = #mma, kWidth = 2}>> loc(#loc24)
    %b_16 = ttg.convert_layout %b_14 : tensor<16x16xf16, #blocked> -> tensor<16x16xf16, #ttg.dot_op<{opIdx = 1, parent = #mma, kWidth = 2}>> loc(#loc27)
    %c = tt.dot %a_15, %b_16, %cst, inputPrecision = tf32 : tensor<16x16xf16, #ttg.dot_op<{opIdx = 0, parent = #mma, kWidth = 2}>> * tensor<16x16xf16, #ttg.dot_op<{opIdx = 1, parent = #mma, kWidth = 2}>> -> tensor<16x16xf32, #mma> loc(#loc28)
    %0 = tt.splat %c_ptr : !tt.ptr<f16> -> tensor<16x1x!tt.ptr<f16>, #blocked> loc(#loc12)
    %1 = tt.addptr %0, %a_2 : tensor<16x1x!tt.ptr<f16>, #blocked>, tensor<16x1xi32, #blocked> loc(#loc12)
    %2 = tt.broadcast %1 : tensor<16x1x!tt.ptr<f16>, #blocked> -> tensor<16x16x!tt.ptr<f16>, #blocked> loc(#loc13)
    %3 = tt.addptr %2, %a_8 : tensor<16x16x!tt.ptr<f16>, #blocked>, tensor<16x16xi32, #blocked> loc(#loc13)
    %4 = arith.truncf %c : tensor<16x16xf32, #mma> to tensor<16x16xf16, #mma> loc(#loc14)
    %5 = ttg.convert_layout %4 : tensor<16x16xf16, #mma> -> tensor<16x16xf16, #blocked> loc(#loc14)
    tt.store %3, %5 : tensor<16x16x!tt.ptr<f16>, #blocked> loc(#loc14)
    tt.return loc(#loc15)
  } loc(#loc)
} loc(#loc)
#loc1 = loc(unknown)
#loc2 = loc("/home/meiziyuan/triton/test_tiny_gemm.py":19:29)
#loc3 = loc("/home/meiziyuan/triton/test_tiny_gemm.py":19:40)
#loc4 = loc("/home/meiziyuan/triton/test_tiny_gemm.py":19:24)
#loc5 = loc("/home/meiziyuan/triton/test_tiny_gemm.py":19:50)
#loc6 = loc("/home/meiziyuan/triton/test_tiny_gemm.py":19:45)
#loc7 = loc("/home/meiziyuan/triton/test_tiny_gemm.py":19:16)
#loc8 = loc("/home/meiziyuan/triton/test_tiny_gemm.py":20:24)
#loc9 = loc("/home/meiziyuan/triton/test_tiny_gemm.py":20:45)
#loc10 = loc("/home/meiziyuan/triton/test_tiny_gemm.py":20:16)
#loc11 = loc("/home/meiziyuan/triton/test_tiny_gemm.py":21:18)
#loc12 = loc("/home/meiziyuan/triton/test_tiny_gemm.py":22:21)
#loc13 = loc("/home/meiziyuan/triton/test_tiny_gemm.py":22:42)
#loc14 = loc("/home/meiziyuan/triton/test_tiny_gemm.py":22:57)
#loc15 = loc("/home/meiziyuan/triton/test_tiny_gemm.py":22:4)
#loc19 = loc("a"(#loc2))
#loc20 = loc("a"(#loc3))
#loc21 = loc("a"(#loc4))
#loc22 = loc("a"(#loc5))
#loc23 = loc("a"(#loc6))
#loc24 = loc("a"(#loc7))
#loc25 = loc("b"(#loc8))
#loc26 = loc("b"(#loc9))
#loc27 = loc("b"(#loc10))
#loc28 = loc("c"(#loc11))


// -----// IR Dump Before TritonNvidiaGPUOptimizeDescriptorEncodingPass (triton-nvidia-optimize-descriptor-encoding) ('builtin.module' operation) //----- //
#blocked = #ttg.blocked<{sizePerThread = [1, 2], threadsPerWarp = [4, 8], warpsPerCTA = [4, 1], order = [1, 0]}>
#loc = loc("/home/meiziyuan/triton/test_tiny_gemm.py":17:0)
#mma = #ttg.nvidia_mma<{versionMajor = 2, versionMinor = 0, warpsPerCTA = [2, 2], instrShape = [16, 8]}>
#loc16 = loc("a_ptr"(#loc))
#loc17 = loc("b_ptr"(#loc))
#loc18 = loc("c_ptr"(#loc))
module attributes {triton.shared_layout = "vector:1->(0,1);bank:1->(1,0),2->(2,0),4->(0,2),8->(0,4),16->(0,8);segment:1->(8,0),2->(4,8);outdims:dim0->16,dim1->16;reps:0", "ttg.num-ctas" = 1 : i32, "ttg.num-warps" = 4 : i32, ttg.target = "cuda:90", "ttg.threads-per-warp" = 32 : i32} {
  tt.func public @tiny_matmul_kernel(%a_ptr: !tt.ptr<f16> {tt.divisibility = 16 : i32} loc("a_ptr"(#loc)), %b_ptr: !tt.ptr<f16> {tt.divisibility = 16 : i32} loc("b_ptr"(#loc)), %c_ptr: !tt.ptr<f16> {tt.divisibility = 16 : i32} loc("c_ptr"(#loc))) attributes {noinline = false} {
    %cst = arith.constant dense<0.000000e+00> : tensor<16x16xf32, #mma> loc(#loc1)
    %cst_0 = arith.constant dense<16> : tensor<16x1xi32, #blocked> loc(#loc1)
    %a = tt.make_range {end = 16 : i32, start = 0 : i32} : tensor<16xi32, #ttg.slice<{dim = 1, parent = #blocked}>> loc(#loc19)
    %a_1 = tt.expand_dims %a {axis = 1 : i32} : tensor<16xi32, #ttg.slice<{dim = 1, parent = #blocked}>> -> tensor<16x1xi32, #blocked> loc(#loc19)
    %a_2 = arith.muli %a_1, %cst_0 : tensor<16x1xi32, #blocked> loc(#loc20)
    %a_3 = tt.splat %a_ptr : !tt.ptr<f16> -> tensor<16x1x!tt.ptr<f16>, #blocked> loc(#loc21)
    %a_4 = tt.addptr %a_3, %a_2 : tensor<16x1x!tt.ptr<f16>, #blocked>, tensor<16x1xi32, #blocked> loc(#loc21)
    %a_5 = tt.make_range {end = 16 : i32, start = 0 : i32} : tensor<16xi32, #ttg.slice<{dim = 0, parent = #blocked}>> loc(#loc22)
    %a_6 = tt.expand_dims %a_5 {axis = 0 : i32} : tensor<16xi32, #ttg.slice<{dim = 0, parent = #blocked}>> -> tensor<1x16xi32, #blocked> loc(#loc22)
    %a_7 = tt.broadcast %a_4 : tensor<16x1x!tt.ptr<f16>, #blocked> -> tensor<16x16x!tt.ptr<f16>, #blocked> loc(#loc23)
    %a_8 = tt.broadcast %a_6 : tensor<1x16xi32, #blocked> -> tensor<16x16xi32, #blocked> loc(#loc23)
    %a_9 = tt.addptr %a_7, %a_8 : tensor<16x16x!tt.ptr<f16>, #blocked>, tensor<16x16xi32, #blocked> loc(#loc23)
    %a_10 = tt.load %a_9 : tensor<16x16x!tt.ptr<f16>, #blocked> loc(#loc24)
    %b = tt.splat %b_ptr : !tt.ptr<f16> -> tensor<16x1x!tt.ptr<f16>, #blocked> loc(#loc25)
    %b_11 = tt.addptr %b, %a_2 : tensor<16x1x!tt.ptr<f16>, #blocked>, tensor<16x1xi32, #blocked> loc(#loc25)
    %b_12 = tt.broadcast %b_11 : tensor<16x1x!tt.ptr<f16>, #blocked> -> tensor<16x16x!tt.ptr<f16>, #blocked> loc(#loc26)
    %b_13 = tt.addptr %b_12, %a_8 : tensor<16x16x!tt.ptr<f16>, #blocked>, tensor<16x16xi32, #blocked> loc(#loc26)
    %b_14 = tt.load %b_13 : tensor<16x16x!tt.ptr<f16>, #blocked> loc(#loc27)
    %a_15 = ttg.convert_layout %a_10 : tensor<16x16xf16, #blocked> -> tensor<16x16xf16, #ttg.dot_op<{opIdx = 0, parent = #mma, kWidth = 2}>> loc(#loc24)
    %b_16 = ttg.convert_layout %b_14 : tensor<16x16xf16, #blocked> -> tensor<16x16xf16, #ttg.dot_op<{opIdx = 1, parent = #mma, kWidth = 2}>> loc(#loc27)
    %c = tt.dot %a_15, %b_16, %cst, inputPrecision = tf32 : tensor<16x16xf16, #ttg.dot_op<{opIdx = 0, parent = #mma, kWidth = 2}>> * tensor<16x16xf16, #ttg.dot_op<{opIdx = 1, parent = #mma, kWidth = 2}>> -> tensor<16x16xf32, #mma> loc(#loc28)
    %0 = tt.splat %c_ptr : !tt.ptr<f16> -> tensor<16x1x!tt.ptr<f16>, #blocked> loc(#loc12)
    %1 = tt.addptr %0, %a_2 : tensor<16x1x!tt.ptr<f16>, #blocked>, tensor<16x1xi32, #blocked> loc(#loc12)
    %2 = tt.broadcast %1 : tensor<16x1x!tt.ptr<f16>, #blocked> -> tensor<16x16x!tt.ptr<f16>, #blocked> loc(#loc13)
    %3 = tt.addptr %2, %a_8 : tensor<16x16x!tt.ptr<f16>, #blocked>, tensor<16x16xi32, #blocked> loc(#loc13)
    %4 = arith.truncf %c : tensor<16x16xf32, #mma> to tensor<16x16xf16, #mma> loc(#loc14)
    %5 = ttg.convert_layout %4 : tensor<16x16xf16, #mma> -> tensor<16x16xf16, #blocked> loc(#loc14)
    tt.store %3, %5 : tensor<16x16x!tt.ptr<f16>, #blocked> loc(#loc14)
    tt.return loc(#loc15)
  } loc(#loc)
} loc(#loc)
#loc1 = loc(unknown)
#loc2 = loc("/home/meiziyuan/triton/test_tiny_gemm.py":19:29)
#loc3 = loc("/home/meiziyuan/triton/test_tiny_gemm.py":19:40)
#loc4 = loc("/home/meiziyuan/triton/test_tiny_gemm.py":19:24)
#loc5 = loc("/home/meiziyuan/triton/test_tiny_gemm.py":19:50)
#loc6 = loc("/home/meiziyuan/triton/test_tiny_gemm.py":19:45)
#loc7 = loc("/home/meiziyuan/triton/test_tiny_gemm.py":19:16)
#loc8 = loc("/home/meiziyuan/triton/test_tiny_gemm.py":20:24)
#loc9 = loc("/home/meiziyuan/triton/test_tiny_gemm.py":20:45)
#loc10 = loc("/home/meiziyuan/triton/test_tiny_gemm.py":20:16)
#loc11 = loc("/home/meiziyuan/triton/test_tiny_gemm.py":21:18)
#loc12 = loc("/home/meiziyuan/triton/test_tiny_gemm.py":22:21)
#loc13 = loc("/home/meiziyuan/triton/test_tiny_gemm.py":22:42)
#loc14 = loc("/home/meiziyuan/triton/test_tiny_gemm.py":22:57)
#loc15 = loc("/home/meiziyuan/triton/test_tiny_gemm.py":22:4)
#loc19 = loc("a"(#loc2))
#loc20 = loc("a"(#loc3))
#loc21 = loc("a"(#loc4))
#loc22 = loc("a"(#loc5))
#loc23 = loc("a"(#loc6))
#loc24 = loc("a"(#loc7))
#loc25 = loc("b"(#loc8))
#loc26 = loc("b"(#loc9))
#loc27 = loc("b"(#loc10))
#loc28 = loc("c"(#loc11))


// -----// IR Dump Before TritonLoopAwareCSE (triton-loop-aware-cse) ('builtin.module' operation) //----- //
#blocked = #ttg.blocked<{sizePerThread = [1, 2], threadsPerWarp = [4, 8], warpsPerCTA = [4, 1], order = [1, 0]}>
#loc = loc("/home/meiziyuan/triton/test_tiny_gemm.py":17:0)
#mma = #ttg.nvidia_mma<{versionMajor = 2, versionMinor = 0, warpsPerCTA = [2, 2], instrShape = [16, 8]}>
#loc16 = loc("a_ptr"(#loc))
#loc17 = loc("b_ptr"(#loc))
#loc18 = loc("c_ptr"(#loc))
module attributes {triton.shared_layout = "vector:1->(0,1);bank:1->(1,0),2->(2,0),4->(0,2),8->(0,4),16->(0,8);segment:1->(8,0),2->(4,8);outdims:dim0->16,dim1->16;reps:0", "ttg.num-ctas" = 1 : i32, "ttg.num-warps" = 4 : i32, ttg.target = "cuda:90", "ttg.threads-per-warp" = 32 : i32} {
  tt.func public @tiny_matmul_kernel(%a_ptr: !tt.ptr<f16> {tt.divisibility = 16 : i32} loc("a_ptr"(#loc)), %b_ptr: !tt.ptr<f16> {tt.divisibility = 16 : i32} loc("b_ptr"(#loc)), %c_ptr: !tt.ptr<f16> {tt.divisibility = 16 : i32} loc("c_ptr"(#loc))) attributes {noinline = false} {
    %cst = arith.constant dense<0.000000e+00> : tensor<16x16xf32, #mma> loc(#loc1)
    %cst_0 = arith.constant dense<16> : tensor<16x1xi32, #blocked> loc(#loc1)
    %a = tt.make_range {end = 16 : i32, start = 0 : i32} : tensor<16xi32, #ttg.slice<{dim = 1, parent = #blocked}>> loc(#loc19)
    %a_1 = tt.expand_dims %a {axis = 1 : i32} : tensor<16xi32, #ttg.slice<{dim = 1, parent = #blocked}>> -> tensor<16x1xi32, #blocked> loc(#loc19)
    %a_2 = arith.muli %a_1, %cst_0 : tensor<16x1xi32, #blocked> loc(#loc20)
    %a_3 = tt.splat %a_ptr : !tt.ptr<f16> -> tensor<16x1x!tt.ptr<f16>, #blocked> loc(#loc21)
    %a_4 = tt.addptr %a_3, %a_2 : tensor<16x1x!tt.ptr<f16>, #blocked>, tensor<16x1xi32, #blocked> loc(#loc21)
    %a_5 = tt.make_range {end = 16 : i32, start = 0 : i32} : tensor<16xi32, #ttg.slice<{dim = 0, parent = #blocked}>> loc(#loc22)
    %a_6 = tt.expand_dims %a_5 {axis = 0 : i32} : tensor<16xi32, #ttg.slice<{dim = 0, parent = #blocked}>> -> tensor<1x16xi32, #blocked> loc(#loc22)
    %a_7 = tt.broadcast %a_4 : tensor<16x1x!tt.ptr<f16>, #blocked> -> tensor<16x16x!tt.ptr<f16>, #blocked> loc(#loc23)
    %a_8 = tt.broadcast %a_6 : tensor<1x16xi32, #blocked> -> tensor<16x16xi32, #blocked> loc(#loc23)
    %a_9 = tt.addptr %a_7, %a_8 : tensor<16x16x!tt.ptr<f16>, #blocked>, tensor<16x16xi32, #blocked> loc(#loc23)
    %a_10 = tt.load %a_9 : tensor<16x16x!tt.ptr<f16>, #blocked> loc(#loc24)
    %b = tt.splat %b_ptr : !tt.ptr<f16> -> tensor<16x1x!tt.ptr<f16>, #blocked> loc(#loc25)
    %b_11 = tt.addptr %b, %a_2 : tensor<16x1x!tt.ptr<f16>, #blocked>, tensor<16x1xi32, #blocked> loc(#loc25)
    %b_12 = tt.broadcast %b_11 : tensor<16x1x!tt.ptr<f16>, #blocked> -> tensor<16x16x!tt.ptr<f16>, #blocked> loc(#loc26)
    %b_13 = tt.addptr %b_12, %a_8 : tensor<16x16x!tt.ptr<f16>, #blocked>, tensor<16x16xi32, #blocked> loc(#loc26)
    %b_14 = tt.load %b_13 : tensor<16x16x!tt.ptr<f16>, #blocked> loc(#loc27)
    %a_15 = ttg.convert_layout %a_10 : tensor<16x16xf16, #blocked> -> tensor<16x16xf16, #ttg.dot_op<{opIdx = 0, parent = #mma, kWidth = 2}>> loc(#loc24)
    %b_16 = ttg.convert_layout %b_14 : tensor<16x16xf16, #blocked> -> tensor<16x16xf16, #ttg.dot_op<{opIdx = 1, parent = #mma, kWidth = 2}>> loc(#loc27)
    %c = tt.dot %a_15, %b_16, %cst, inputPrecision = tf32 : tensor<16x16xf16, #ttg.dot_op<{opIdx = 0, parent = #mma, kWidth = 2}>> * tensor<16x16xf16, #ttg.dot_op<{opIdx = 1, parent = #mma, kWidth = 2}>> -> tensor<16x16xf32, #mma> loc(#loc28)
    %0 = tt.splat %c_ptr : !tt.ptr<f16> -> tensor<16x1x!tt.ptr<f16>, #blocked> loc(#loc12)
    %1 = tt.addptr %0, %a_2 : tensor<16x1x!tt.ptr<f16>, #blocked>, tensor<16x1xi32, #blocked> loc(#loc12)
    %2 = tt.broadcast %1 : tensor<16x1x!tt.ptr<f16>, #blocked> -> tensor<16x16x!tt.ptr<f16>, #blocked> loc(#loc13)
    %3 = tt.addptr %2, %a_8 : tensor<16x16x!tt.ptr<f16>, #blocked>, tensor<16x16xi32, #blocked> loc(#loc13)
    %4 = arith.truncf %c : tensor<16x16xf32, #mma> to tensor<16x16xf16, #mma> loc(#loc14)
    %5 = ttg.convert_layout %4 : tensor<16x16xf16, #mma> -> tensor<16x16xf16, #blocked> loc(#loc14)
    tt.store %3, %5 : tensor<16x16x!tt.ptr<f16>, #blocked> loc(#loc14)
    tt.return loc(#loc15)
  } loc(#loc)
} loc(#loc)
#loc1 = loc(unknown)
#loc2 = loc("/home/meiziyuan/triton/test_tiny_gemm.py":19:29)
#loc3 = loc("/home/meiziyuan/triton/test_tiny_gemm.py":19:40)
#loc4 = loc("/home/meiziyuan/triton/test_tiny_gemm.py":19:24)
#loc5 = loc("/home/meiziyuan/triton/test_tiny_gemm.py":19:50)
#loc6 = loc("/home/meiziyuan/triton/test_tiny_gemm.py":19:45)
#loc7 = loc("/home/meiziyuan/triton/test_tiny_gemm.py":19:16)
#loc8 = loc("/home/meiziyuan/triton/test_tiny_gemm.py":20:24)
#loc9 = loc("/home/meiziyuan/triton/test_tiny_gemm.py":20:45)
#loc10 = loc("/home/meiziyuan/triton/test_tiny_gemm.py":20:16)
#loc11 = loc("/home/meiziyuan/triton/test_tiny_gemm.py":21:18)
#loc12 = loc("/home/meiziyuan/triton/test_tiny_gemm.py":22:21)
#loc13 = loc("/home/meiziyuan/triton/test_tiny_gemm.py":22:42)
#loc14 = loc("/home/meiziyuan/triton/test_tiny_gemm.py":22:57)
#loc15 = loc("/home/meiziyuan/triton/test_tiny_gemm.py":22:4)
#loc19 = loc("a"(#loc2))
#loc20 = loc("a"(#loc3))
#loc21 = loc("a"(#loc4))
#loc22 = loc("a"(#loc5))
#loc23 = loc("a"(#loc6))
#loc24 = loc("a"(#loc7))
#loc25 = loc("b"(#loc8))
#loc26 = loc("b"(#loc9))
#loc27 = loc("b"(#loc10))
#loc28 = loc("c"(#loc11))


// -----// IR Dump Before TritonGPUFuseNestedLoops (tritongpu-fuse-nested-loops) ('builtin.module' operation) //----- //
#blocked = #ttg.blocked<{sizePerThread = [1, 2], threadsPerWarp = [4, 8], warpsPerCTA = [4, 1], order = [1, 0]}>
#loc = loc("/home/meiziyuan/triton/test_tiny_gemm.py":17:0)
#mma = #ttg.nvidia_mma<{versionMajor = 2, versionMinor = 0, warpsPerCTA = [2, 2], instrShape = [16, 8]}>
#loc16 = loc("a_ptr"(#loc))
#loc17 = loc("b_ptr"(#loc))
#loc18 = loc("c_ptr"(#loc))
module attributes {triton.shared_layout = "vector:1->(0,1);bank:1->(1,0),2->(2,0),4->(0,2),8->(0,4),16->(0,8);segment:1->(8,0),2->(4,8);outdims:dim0->16,dim1->16;reps:0", "ttg.num-ctas" = 1 : i32, "ttg.num-warps" = 4 : i32, ttg.target = "cuda:90", "ttg.threads-per-warp" = 32 : i32} {
  tt.func public @tiny_matmul_kernel(%a_ptr: !tt.ptr<f16> {tt.divisibility = 16 : i32} loc("a_ptr"(#loc)), %b_ptr: !tt.ptr<f16> {tt.divisibility = 16 : i32} loc("b_ptr"(#loc)), %c_ptr: !tt.ptr<f16> {tt.divisibility = 16 : i32} loc("c_ptr"(#loc))) attributes {noinline = false} {
    %cst = arith.constant dense<0.000000e+00> : tensor<16x16xf32, #mma> loc(#loc1)
    %cst_0 = arith.constant dense<16> : tensor<16x1xi32, #blocked> loc(#loc1)
    %a = tt.make_range {end = 16 : i32, start = 0 : i32} : tensor<16xi32, #ttg.slice<{dim = 1, parent = #blocked}>> loc(#loc19)
    %a_1 = tt.expand_dims %a {axis = 1 : i32} : tensor<16xi32, #ttg.slice<{dim = 1, parent = #blocked}>> -> tensor<16x1xi32, #blocked> loc(#loc19)
    %a_2 = arith.muli %a_1, %cst_0 : tensor<16x1xi32, #blocked> loc(#loc20)
    %a_3 = tt.splat %a_ptr : !tt.ptr<f16> -> tensor<16x1x!tt.ptr<f16>, #blocked> loc(#loc21)
    %a_4 = tt.addptr %a_3, %a_2 : tensor<16x1x!tt.ptr<f16>, #blocked>, tensor<16x1xi32, #blocked> loc(#loc21)
    %a_5 = tt.make_range {end = 16 : i32, start = 0 : i32} : tensor<16xi32, #ttg.slice<{dim = 0, parent = #blocked}>> loc(#loc22)
    %a_6 = tt.expand_dims %a_5 {axis = 0 : i32} : tensor<16xi32, #ttg.slice<{dim = 0, parent = #blocked}>> -> tensor<1x16xi32, #blocked> loc(#loc22)
    %a_7 = tt.broadcast %a_4 : tensor<16x1x!tt.ptr<f16>, #blocked> -> tensor<16x16x!tt.ptr<f16>, #blocked> loc(#loc23)
    %a_8 = tt.broadcast %a_6 : tensor<1x16xi32, #blocked> -> tensor<16x16xi32, #blocked> loc(#loc23)
    %a_9 = tt.addptr %a_7, %a_8 : tensor<16x16x!tt.ptr<f16>, #blocked>, tensor<16x16xi32, #blocked> loc(#loc23)
    %a_10 = tt.load %a_9 : tensor<16x16x!tt.ptr<f16>, #blocked> loc(#loc24)
    %b = tt.splat %b_ptr : !tt.ptr<f16> -> tensor<16x1x!tt.ptr<f16>, #blocked> loc(#loc25)
    %b_11 = tt.addptr %b, %a_2 : tensor<16x1x!tt.ptr<f16>, #blocked>, tensor<16x1xi32, #blocked> loc(#loc25)
    %b_12 = tt.broadcast %b_11 : tensor<16x1x!tt.ptr<f16>, #blocked> -> tensor<16x16x!tt.ptr<f16>, #blocked> loc(#loc26)
    %b_13 = tt.addptr %b_12, %a_8 : tensor<16x16x!tt.ptr<f16>, #blocked>, tensor<16x16xi32, #blocked> loc(#loc26)
    %b_14 = tt.load %b_13 : tensor<16x16x!tt.ptr<f16>, #blocked> loc(#loc27)
    %a_15 = ttg.convert_layout %a_10 : tensor<16x16xf16, #blocked> -> tensor<16x16xf16, #ttg.dot_op<{opIdx = 0, parent = #mma, kWidth = 2}>> loc(#loc24)
    %b_16 = ttg.convert_layout %b_14 : tensor<16x16xf16, #blocked> -> tensor<16x16xf16, #ttg.dot_op<{opIdx = 1, parent = #mma, kWidth = 2}>> loc(#loc27)
    %c = tt.dot %a_15, %b_16, %cst, inputPrecision = tf32 : tensor<16x16xf16, #ttg.dot_op<{opIdx = 0, parent = #mma, kWidth = 2}>> * tensor<16x16xf16, #ttg.dot_op<{opIdx = 1, parent = #mma, kWidth = 2}>> -> tensor<16x16xf32, #mma> loc(#loc28)
    %0 = tt.splat %c_ptr : !tt.ptr<f16> -> tensor<16x1x!tt.ptr<f16>, #blocked> loc(#loc12)
    %1 = tt.addptr %0, %a_2 : tensor<16x1x!tt.ptr<f16>, #blocked>, tensor<16x1xi32, #blocked> loc(#loc12)
    %2 = tt.broadcast %1 : tensor<16x1x!tt.ptr<f16>, #blocked> -> tensor<16x16x!tt.ptr<f16>, #blocked> loc(#loc13)
    %3 = tt.addptr %2, %a_8 : tensor<16x16x!tt.ptr<f16>, #blocked>, tensor<16x16xi32, #blocked> loc(#loc13)
    %4 = arith.truncf %c : tensor<16x16xf32, #mma> to tensor<16x16xf16, #mma> loc(#loc14)
    %5 = ttg.convert_layout %4 : tensor<16x16xf16, #mma> -> tensor<16x16xf16, #blocked> loc(#loc14)
    tt.store %3, %5 : tensor<16x16x!tt.ptr<f16>, #blocked> loc(#loc14)
    tt.return loc(#loc15)
  } loc(#loc)
} loc(#loc)
#loc1 = loc(unknown)
#loc2 = loc("/home/meiziyuan/triton/test_tiny_gemm.py":19:29)
#loc3 = loc("/home/meiziyuan/triton/test_tiny_gemm.py":19:40)
#loc4 = loc("/home/meiziyuan/triton/test_tiny_gemm.py":19:24)
#loc5 = loc("/home/meiziyuan/triton/test_tiny_gemm.py":19:50)
#loc6 = loc("/home/meiziyuan/triton/test_tiny_gemm.py":19:45)
#loc7 = loc("/home/meiziyuan/triton/test_tiny_gemm.py":19:16)
#loc8 = loc("/home/meiziyuan/triton/test_tiny_gemm.py":20:24)
#loc9 = loc("/home/meiziyuan/triton/test_tiny_gemm.py":20:45)
#loc10 = loc("/home/meiziyuan/triton/test_tiny_gemm.py":20:16)
#loc11 = loc("/home/meiziyuan/triton/test_tiny_gemm.py":21:18)
#loc12 = loc("/home/meiziyuan/triton/test_tiny_gemm.py":22:21)
#loc13 = loc("/home/meiziyuan/triton/test_tiny_gemm.py":22:42)
#loc14 = loc("/home/meiziyuan/triton/test_tiny_gemm.py":22:57)
#loc15 = loc("/home/meiziyuan/triton/test_tiny_gemm.py":22:4)
#loc19 = loc("a"(#loc2))
#loc20 = loc("a"(#loc3))
#loc21 = loc("a"(#loc4))
#loc22 = loc("a"(#loc5))
#loc23 = loc("a"(#loc6))
#loc24 = loc("a"(#loc7))
#loc25 = loc("b"(#loc8))
#loc26 = loc("b"(#loc9))
#loc27 = loc("b"(#loc10))
#loc28 = loc("c"(#loc11))


// -----// IR Dump Before Canonicalizer (canonicalize) ('builtin.module' operation) //----- //
#blocked = #ttg.blocked<{sizePerThread = [1, 2], threadsPerWarp = [4, 8], warpsPerCTA = [4, 1], order = [1, 0]}>
#loc = loc("/home/meiziyuan/triton/test_tiny_gemm.py":17:0)
#mma = #ttg.nvidia_mma<{versionMajor = 2, versionMinor = 0, warpsPerCTA = [2, 2], instrShape = [16, 8]}>
#loc16 = loc("a_ptr"(#loc))
#loc17 = loc("b_ptr"(#loc))
#loc18 = loc("c_ptr"(#loc))
module attributes {triton.shared_layout = "vector:1->(0,1);bank:1->(1,0),2->(2,0),4->(0,2),8->(0,4),16->(0,8);segment:1->(8,0),2->(4,8);outdims:dim0->16,dim1->16;reps:0", "ttg.num-ctas" = 1 : i32, "ttg.num-warps" = 4 : i32, ttg.target = "cuda:90", "ttg.threads-per-warp" = 32 : i32} {
  tt.func public @tiny_matmul_kernel(%a_ptr: !tt.ptr<f16> {tt.divisibility = 16 : i32} loc("a_ptr"(#loc)), %b_ptr: !tt.ptr<f16> {tt.divisibility = 16 : i32} loc("b_ptr"(#loc)), %c_ptr: !tt.ptr<f16> {tt.divisibility = 16 : i32} loc("c_ptr"(#loc))) attributes {noinline = false} {
    %cst = arith.constant dense<0.000000e+00> : tensor<16x16xf32, #mma> loc(#loc1)
    %cst_0 = arith.constant dense<16> : tensor<16x1xi32, #blocked> loc(#loc1)
    %a = tt.make_range {end = 16 : i32, start = 0 : i32} : tensor<16xi32, #ttg.slice<{dim = 1, parent = #blocked}>> loc(#loc19)
    %a_1 = tt.expand_dims %a {axis = 1 : i32} : tensor<16xi32, #ttg.slice<{dim = 1, parent = #blocked}>> -> tensor<16x1xi32, #blocked> loc(#loc19)
    %a_2 = arith.muli %a_1, %cst_0 : tensor<16x1xi32, #blocked> loc(#loc20)
    %a_3 = tt.splat %a_ptr : !tt.ptr<f16> -> tensor<16x1x!tt.ptr<f16>, #blocked> loc(#loc21)
    %a_4 = tt.addptr %a_3, %a_2 : tensor<16x1x!tt.ptr<f16>, #blocked>, tensor<16x1xi32, #blocked> loc(#loc21)
    %a_5 = tt.make_range {end = 16 : i32, start = 0 : i32} : tensor<16xi32, #ttg.slice<{dim = 0, parent = #blocked}>> loc(#loc22)
    %a_6 = tt.expand_dims %a_5 {axis = 0 : i32} : tensor<16xi32, #ttg.slice<{dim = 0, parent = #blocked}>> -> tensor<1x16xi32, #blocked> loc(#loc22)
    %a_7 = tt.broadcast %a_4 : tensor<16x1x!tt.ptr<f16>, #blocked> -> tensor<16x16x!tt.ptr<f16>, #blocked> loc(#loc23)
    %a_8 = tt.broadcast %a_6 : tensor<1x16xi32, #blocked> -> tensor<16x16xi32, #blocked> loc(#loc23)
    %a_9 = tt.addptr %a_7, %a_8 : tensor<16x16x!tt.ptr<f16>, #blocked>, tensor<16x16xi32, #blocked> loc(#loc23)
    %a_10 = tt.load %a_9 : tensor<16x16x!tt.ptr<f16>, #blocked> loc(#loc24)
    %b = tt.splat %b_ptr : !tt.ptr<f16> -> tensor<16x1x!tt.ptr<f16>, #blocked> loc(#loc25)
    %b_11 = tt.addptr %b, %a_2 : tensor<16x1x!tt.ptr<f16>, #blocked>, tensor<16x1xi32, #blocked> loc(#loc25)
    %b_12 = tt.broadcast %b_11 : tensor<16x1x!tt.ptr<f16>, #blocked> -> tensor<16x16x!tt.ptr<f16>, #blocked> loc(#loc26)
    %b_13 = tt.addptr %b_12, %a_8 : tensor<16x16x!tt.ptr<f16>, #blocked>, tensor<16x16xi32, #blocked> loc(#loc26)
    %b_14 = tt.load %b_13 : tensor<16x16x!tt.ptr<f16>, #blocked> loc(#loc27)
    %a_15 = ttg.convert_layout %a_10 : tensor<16x16xf16, #blocked> -> tensor<16x16xf16, #ttg.dot_op<{opIdx = 0, parent = #mma, kWidth = 2}>> loc(#loc24)
    %b_16 = ttg.convert_layout %b_14 : tensor<16x16xf16, #blocked> -> tensor<16x16xf16, #ttg.dot_op<{opIdx = 1, parent = #mma, kWidth = 2}>> loc(#loc27)
    %c = tt.dot %a_15, %b_16, %cst, inputPrecision = tf32 : tensor<16x16xf16, #ttg.dot_op<{opIdx = 0, parent = #mma, kWidth = 2}>> * tensor<16x16xf16, #ttg.dot_op<{opIdx = 1, parent = #mma, kWidth = 2}>> -> tensor<16x16xf32, #mma> loc(#loc28)
    %0 = tt.splat %c_ptr : !tt.ptr<f16> -> tensor<16x1x!tt.ptr<f16>, #blocked> loc(#loc12)
    %1 = tt.addptr %0, %a_2 : tensor<16x1x!tt.ptr<f16>, #blocked>, tensor<16x1xi32, #blocked> loc(#loc12)
    %2 = tt.broadcast %1 : tensor<16x1x!tt.ptr<f16>, #blocked> -> tensor<16x16x!tt.ptr<f16>, #blocked> loc(#loc13)
    %3 = tt.addptr %2, %a_8 : tensor<16x16x!tt.ptr<f16>, #blocked>, tensor<16x16xi32, #blocked> loc(#loc13)
    %4 = arith.truncf %c : tensor<16x16xf32, #mma> to tensor<16x16xf16, #mma> loc(#loc14)
    %5 = ttg.convert_layout %4 : tensor<16x16xf16, #mma> -> tensor<16x16xf16, #blocked> loc(#loc14)
    tt.store %3, %5 : tensor<16x16x!tt.ptr<f16>, #blocked> loc(#loc14)
    tt.return loc(#loc15)
  } loc(#loc)
} loc(#loc)
#loc1 = loc(unknown)
#loc2 = loc("/home/meiziyuan/triton/test_tiny_gemm.py":19:29)
#loc3 = loc("/home/meiziyuan/triton/test_tiny_gemm.py":19:40)
#loc4 = loc("/home/meiziyuan/triton/test_tiny_gemm.py":19:24)
#loc5 = loc("/home/meiziyuan/triton/test_tiny_gemm.py":19:50)
#loc6 = loc("/home/meiziyuan/triton/test_tiny_gemm.py":19:45)
#loc7 = loc("/home/meiziyuan/triton/test_tiny_gemm.py":19:16)
#loc8 = loc("/home/meiziyuan/triton/test_tiny_gemm.py":20:24)
#loc9 = loc("/home/meiziyuan/triton/test_tiny_gemm.py":20:45)
#loc10 = loc("/home/meiziyuan/triton/test_tiny_gemm.py":20:16)
#loc11 = loc("/home/meiziyuan/triton/test_tiny_gemm.py":21:18)
#loc12 = loc("/home/meiziyuan/triton/test_tiny_gemm.py":22:21)
#loc13 = loc("/home/meiziyuan/triton/test_tiny_gemm.py":22:42)
#loc14 = loc("/home/meiziyuan/triton/test_tiny_gemm.py":22:57)
#loc15 = loc("/home/meiziyuan/triton/test_tiny_gemm.py":22:4)
#loc19 = loc("a"(#loc2))
#loc20 = loc("a"(#loc3))
#loc21 = loc("a"(#loc4))
#loc22 = loc("a"(#loc5))
#loc23 = loc("a"(#loc6))
#loc24 = loc("a"(#loc7))
#loc25 = loc("b"(#loc8))
#loc26 = loc("b"(#loc9))
#loc27 = loc("b"(#loc10))
#loc28 = loc("c"(#loc11))


// -----// IR Dump Before TritonLoopInvariantCodeMotion (triton-licm) ('builtin.module' operation) //----- //
#blocked = #ttg.blocked<{sizePerThread = [1, 2], threadsPerWarp = [4, 8], warpsPerCTA = [4, 1], order = [1, 0]}>
#loc = loc("/home/meiziyuan/triton/test_tiny_gemm.py":17:0)
#mma = #ttg.nvidia_mma<{versionMajor = 2, versionMinor = 0, warpsPerCTA = [2, 2], instrShape = [16, 8]}>
#loc16 = loc("a_ptr"(#loc))
#loc17 = loc("b_ptr"(#loc))
#loc18 = loc("c_ptr"(#loc))
module attributes {triton.shared_layout = "vector:1->(0,1);bank:1->(1,0),2->(2,0),4->(0,2),8->(0,4),16->(0,8);segment:1->(8,0),2->(4,8);outdims:dim0->16,dim1->16;reps:0", "ttg.num-ctas" = 1 : i32, "ttg.num-warps" = 4 : i32, ttg.target = "cuda:90", "ttg.threads-per-warp" = 32 : i32} {
  tt.func public @tiny_matmul_kernel(%a_ptr: !tt.ptr<f16> {tt.divisibility = 16 : i32} loc("a_ptr"(#loc)), %b_ptr: !tt.ptr<f16> {tt.divisibility = 16 : i32} loc("b_ptr"(#loc)), %c_ptr: !tt.ptr<f16> {tt.divisibility = 16 : i32} loc("c_ptr"(#loc))) attributes {noinline = false} {
    %cst = arith.constant dense<0.000000e+00> : tensor<16x16xf32, #mma> loc(#loc1)
    %cst_0 = arith.constant dense<16> : tensor<16x1xi32, #blocked> loc(#loc1)
    %a = tt.make_range {end = 16 : i32, start = 0 : i32} : tensor<16xi32, #ttg.slice<{dim = 1, parent = #blocked}>> loc(#loc19)
    %a_1 = tt.expand_dims %a {axis = 1 : i32} : tensor<16xi32, #ttg.slice<{dim = 1, parent = #blocked}>> -> tensor<16x1xi32, #blocked> loc(#loc19)
    %a_2 = arith.muli %a_1, %cst_0 : tensor<16x1xi32, #blocked> loc(#loc20)
    %a_3 = tt.splat %a_ptr : !tt.ptr<f16> -> tensor<16x1x!tt.ptr<f16>, #blocked> loc(#loc21)
    %a_4 = tt.addptr %a_3, %a_2 : tensor<16x1x!tt.ptr<f16>, #blocked>, tensor<16x1xi32, #blocked> loc(#loc21)
    %a_5 = tt.make_range {end = 16 : i32, start = 0 : i32} : tensor<16xi32, #ttg.slice<{dim = 0, parent = #blocked}>> loc(#loc22)
    %a_6 = tt.expand_dims %a_5 {axis = 0 : i32} : tensor<16xi32, #ttg.slice<{dim = 0, parent = #blocked}>> -> tensor<1x16xi32, #blocked> loc(#loc22)
    %a_7 = tt.broadcast %a_4 : tensor<16x1x!tt.ptr<f16>, #blocked> -> tensor<16x16x!tt.ptr<f16>, #blocked> loc(#loc23)
    %a_8 = tt.broadcast %a_6 : tensor<1x16xi32, #blocked> -> tensor<16x16xi32, #blocked> loc(#loc23)
    %a_9 = tt.addptr %a_7, %a_8 : tensor<16x16x!tt.ptr<f16>, #blocked>, tensor<16x16xi32, #blocked> loc(#loc23)
    %a_10 = tt.load %a_9 : tensor<16x16x!tt.ptr<f16>, #blocked> loc(#loc24)
    %b = tt.splat %b_ptr : !tt.ptr<f16> -> tensor<16x1x!tt.ptr<f16>, #blocked> loc(#loc25)
    %b_11 = tt.addptr %b, %a_2 : tensor<16x1x!tt.ptr<f16>, #blocked>, tensor<16x1xi32, #blocked> loc(#loc25)
    %b_12 = tt.broadcast %b_11 : tensor<16x1x!tt.ptr<f16>, #blocked> -> tensor<16x16x!tt.ptr<f16>, #blocked> loc(#loc26)
    %b_13 = tt.addptr %b_12, %a_8 : tensor<16x16x!tt.ptr<f16>, #blocked>, tensor<16x16xi32, #blocked> loc(#loc26)
    %b_14 = tt.load %b_13 : tensor<16x16x!tt.ptr<f16>, #blocked> loc(#loc27)
    %a_15 = ttg.convert_layout %a_10 : tensor<16x16xf16, #blocked> -> tensor<16x16xf16, #ttg.dot_op<{opIdx = 0, parent = #mma, kWidth = 2}>> loc(#loc24)
    %b_16 = ttg.convert_layout %b_14 : tensor<16x16xf16, #blocked> -> tensor<16x16xf16, #ttg.dot_op<{opIdx = 1, parent = #mma, kWidth = 2}>> loc(#loc27)
    %c = tt.dot %a_15, %b_16, %cst, inputPrecision = tf32 : tensor<16x16xf16, #ttg.dot_op<{opIdx = 0, parent = #mma, kWidth = 2}>> * tensor<16x16xf16, #ttg.dot_op<{opIdx = 1, parent = #mma, kWidth = 2}>> -> tensor<16x16xf32, #mma> loc(#loc28)
    %0 = tt.splat %c_ptr : !tt.ptr<f16> -> tensor<16x1x!tt.ptr<f16>, #blocked> loc(#loc12)
    %1 = tt.addptr %0, %a_2 : tensor<16x1x!tt.ptr<f16>, #blocked>, tensor<16x1xi32, #blocked> loc(#loc12)
    %2 = tt.broadcast %1 : tensor<16x1x!tt.ptr<f16>, #blocked> -> tensor<16x16x!tt.ptr<f16>, #blocked> loc(#loc13)
    %3 = tt.addptr %2, %a_8 : tensor<16x16x!tt.ptr<f16>, #blocked>, tensor<16x16xi32, #blocked> loc(#loc13)
    %4 = arith.truncf %c : tensor<16x16xf32, #mma> to tensor<16x16xf16, #mma> loc(#loc14)
    %5 = ttg.convert_layout %4 : tensor<16x16xf16, #mma> -> tensor<16x16xf16, #blocked> loc(#loc14)
    tt.store %3, %5 : tensor<16x16x!tt.ptr<f16>, #blocked> loc(#loc14)
    tt.return loc(#loc15)
  } loc(#loc)
} loc(#loc)
#loc1 = loc(unknown)
#loc2 = loc("/home/meiziyuan/triton/test_tiny_gemm.py":19:29)
#loc3 = loc("/home/meiziyuan/triton/test_tiny_gemm.py":19:40)
#loc4 = loc("/home/meiziyuan/triton/test_tiny_gemm.py":19:24)
#loc5 = loc("/home/meiziyuan/triton/test_tiny_gemm.py":19:50)
#loc6 = loc("/home/meiziyuan/triton/test_tiny_gemm.py":19:45)
#loc7 = loc("/home/meiziyuan/triton/test_tiny_gemm.py":19:16)
#loc8 = loc("/home/meiziyuan/triton/test_tiny_gemm.py":20:24)
#loc9 = loc("/home/meiziyuan/triton/test_tiny_gemm.py":20:45)
#loc10 = loc("/home/meiziyuan/triton/test_tiny_gemm.py":20:16)
#loc11 = loc("/home/meiziyuan/triton/test_tiny_gemm.py":21:18)
#loc12 = loc("/home/meiziyuan/triton/test_tiny_gemm.py":22:21)
#loc13 = loc("/home/meiziyuan/triton/test_tiny_gemm.py":22:42)
#loc14 = loc("/home/meiziyuan/triton/test_tiny_gemm.py":22:57)
#loc15 = loc("/home/meiziyuan/triton/test_tiny_gemm.py":22:4)
#loc19 = loc("a"(#loc2))
#loc20 = loc("a"(#loc3))
#loc21 = loc("a"(#loc4))
#loc22 = loc("a"(#loc5))
#loc23 = loc("a"(#loc6))
#loc24 = loc("a"(#loc7))
#loc25 = loc("b"(#loc8))
#loc26 = loc("b"(#loc9))
#loc27 = loc("b"(#loc10))
#loc28 = loc("c"(#loc11))


// -----// IR Dump Before Canonicalizer (canonicalize) ('builtin.module' operation) //----- //
#blocked = #ttg.blocked<{sizePerThread = [1, 2], threadsPerWarp = [4, 8], warpsPerCTA = [4, 1], order = [1, 0]}>
#loc = loc("/home/meiziyuan/triton/test_tiny_gemm.py":17:0)
#mma = #ttg.nvidia_mma<{versionMajor = 2, versionMinor = 0, warpsPerCTA = [2, 2], instrShape = [16, 8]}>
#loc16 = loc("a_ptr"(#loc))
#loc17 = loc("b_ptr"(#loc))
#loc18 = loc("c_ptr"(#loc))
module attributes {triton.shared_layout = "vector:1->(0,1);bank:1->(1,0),2->(2,0),4->(0,2),8->(0,4),16->(0,8);segment:1->(8,0),2->(4,8);outdims:dim0->16,dim1->16;reps:0", "ttg.num-ctas" = 1 : i32, "ttg.num-warps" = 4 : i32, ttg.target = "cuda:90", "ttg.threads-per-warp" = 32 : i32} {
  tt.func public @tiny_matmul_kernel(%a_ptr: !tt.ptr<f16> {tt.divisibility = 16 : i32} loc("a_ptr"(#loc)), %b_ptr: !tt.ptr<f16> {tt.divisibility = 16 : i32} loc("b_ptr"(#loc)), %c_ptr: !tt.ptr<f16> {tt.divisibility = 16 : i32} loc("c_ptr"(#loc))) attributes {noinline = false} {
    %cst = arith.constant dense<0.000000e+00> : tensor<16x16xf32, #mma> loc(#loc1)
    %cst_0 = arith.constant dense<16> : tensor<16x1xi32, #blocked> loc(#loc1)
    %a = tt.make_range {end = 16 : i32, start = 0 : i32} : tensor<16xi32, #ttg.slice<{dim = 1, parent = #blocked}>> loc(#loc19)
    %a_1 = tt.expand_dims %a {axis = 1 : i32} : tensor<16xi32, #ttg.slice<{dim = 1, parent = #blocked}>> -> tensor<16x1xi32, #blocked> loc(#loc19)
    %a_2 = arith.muli %a_1, %cst_0 : tensor<16x1xi32, #blocked> loc(#loc20)
    %a_3 = tt.splat %a_ptr : !tt.ptr<f16> -> tensor<16x1x!tt.ptr<f16>, #blocked> loc(#loc21)
    %a_4 = tt.addptr %a_3, %a_2 : tensor<16x1x!tt.ptr<f16>, #blocked>, tensor<16x1xi32, #blocked> loc(#loc21)
    %a_5 = tt.make_range {end = 16 : i32, start = 0 : i32} : tensor<16xi32, #ttg.slice<{dim = 0, parent = #blocked}>> loc(#loc22)
    %a_6 = tt.expand_dims %a_5 {axis = 0 : i32} : tensor<16xi32, #ttg.slice<{dim = 0, parent = #blocked}>> -> tensor<1x16xi32, #blocked> loc(#loc22)
    %a_7 = tt.broadcast %a_4 : tensor<16x1x!tt.ptr<f16>, #blocked> -> tensor<16x16x!tt.ptr<f16>, #blocked> loc(#loc23)
    %a_8 = tt.broadcast %a_6 : tensor<1x16xi32, #blocked> -> tensor<16x16xi32, #blocked> loc(#loc23)
    %a_9 = tt.addptr %a_7, %a_8 : tensor<16x16x!tt.ptr<f16>, #blocked>, tensor<16x16xi32, #blocked> loc(#loc23)
    %a_10 = tt.load %a_9 : tensor<16x16x!tt.ptr<f16>, #blocked> loc(#loc24)
    %b = tt.splat %b_ptr : !tt.ptr<f16> -> tensor<16x1x!tt.ptr<f16>, #blocked> loc(#loc25)
    %b_11 = tt.addptr %b, %a_2 : tensor<16x1x!tt.ptr<f16>, #blocked>, tensor<16x1xi32, #blocked> loc(#loc25)
    %b_12 = tt.broadcast %b_11 : tensor<16x1x!tt.ptr<f16>, #blocked> -> tensor<16x16x!tt.ptr<f16>, #blocked> loc(#loc26)
    %b_13 = tt.addptr %b_12, %a_8 : tensor<16x16x!tt.ptr<f16>, #blocked>, tensor<16x16xi32, #blocked> loc(#loc26)
    %b_14 = tt.load %b_13 : tensor<16x16x!tt.ptr<f16>, #blocked> loc(#loc27)
    %a_15 = ttg.convert_layout %a_10 : tensor<16x16xf16, #blocked> -> tensor<16x16xf16, #ttg.dot_op<{opIdx = 0, parent = #mma, kWidth = 2}>> loc(#loc24)
    %b_16 = ttg.convert_layout %b_14 : tensor<16x16xf16, #blocked> -> tensor<16x16xf16, #ttg.dot_op<{opIdx = 1, parent = #mma, kWidth = 2}>> loc(#loc27)
    %c = tt.dot %a_15, %b_16, %cst, inputPrecision = tf32 : tensor<16x16xf16, #ttg.dot_op<{opIdx = 0, parent = #mma, kWidth = 2}>> * tensor<16x16xf16, #ttg.dot_op<{opIdx = 1, parent = #mma, kWidth = 2}>> -> tensor<16x16xf32, #mma> loc(#loc28)
    %0 = tt.splat %c_ptr : !tt.ptr<f16> -> tensor<16x1x!tt.ptr<f16>, #blocked> loc(#loc12)
    %1 = tt.addptr %0, %a_2 : tensor<16x1x!tt.ptr<f16>, #blocked>, tensor<16x1xi32, #blocked> loc(#loc12)
    %2 = tt.broadcast %1 : tensor<16x1x!tt.ptr<f16>, #blocked> -> tensor<16x16x!tt.ptr<f16>, #blocked> loc(#loc13)
    %3 = tt.addptr %2, %a_8 : tensor<16x16x!tt.ptr<f16>, #blocked>, tensor<16x16xi32, #blocked> loc(#loc13)
    %4 = arith.truncf %c : tensor<16x16xf32, #mma> to tensor<16x16xf16, #mma> loc(#loc14)
    %5 = ttg.convert_layout %4 : tensor<16x16xf16, #mma> -> tensor<16x16xf16, #blocked> loc(#loc14)
    tt.store %3, %5 : tensor<16x16x!tt.ptr<f16>, #blocked> loc(#loc14)
    tt.return loc(#loc15)
  } loc(#loc)
} loc(#loc)
#loc1 = loc(unknown)
#loc2 = loc("/home/meiziyuan/triton/test_tiny_gemm.py":19:29)
#loc3 = loc("/home/meiziyuan/triton/test_tiny_gemm.py":19:40)
#loc4 = loc("/home/meiziyuan/triton/test_tiny_gemm.py":19:24)
#loc5 = loc("/home/meiziyuan/triton/test_tiny_gemm.py":19:50)
#loc6 = loc("/home/meiziyuan/triton/test_tiny_gemm.py":19:45)
#loc7 = loc("/home/meiziyuan/triton/test_tiny_gemm.py":19:16)
#loc8 = loc("/home/meiziyuan/triton/test_tiny_gemm.py":20:24)
#loc9 = loc("/home/meiziyuan/triton/test_tiny_gemm.py":20:45)
#loc10 = loc("/home/meiziyuan/triton/test_tiny_gemm.py":20:16)
#loc11 = loc("/home/meiziyuan/triton/test_tiny_gemm.py":21:18)
#loc12 = loc("/home/meiziyuan/triton/test_tiny_gemm.py":22:21)
#loc13 = loc("/home/meiziyuan/triton/test_tiny_gemm.py":22:42)
#loc14 = loc("/home/meiziyuan/triton/test_tiny_gemm.py":22:57)
#loc15 = loc("/home/meiziyuan/triton/test_tiny_gemm.py":22:4)
#loc19 = loc("a"(#loc2))
#loc20 = loc("a"(#loc3))
#loc21 = loc("a"(#loc4))
#loc22 = loc("a"(#loc5))
#loc23 = loc("a"(#loc6))
#loc24 = loc("a"(#loc7))
#loc25 = loc("b"(#loc8))
#loc26 = loc("b"(#loc9))
#loc27 = loc("b"(#loc10))
#loc28 = loc("c"(#loc11))


// -----// IR Dump Before TritonGPUCombineTensorSelectAndIf (tritongpu-combine-tensor-select-and-if) ('builtin.module' operation) //----- //
#blocked = #ttg.blocked<{sizePerThread = [1, 2], threadsPerWarp = [4, 8], warpsPerCTA = [4, 1], order = [1, 0]}>
#loc = loc("/home/meiziyuan/triton/test_tiny_gemm.py":17:0)
#mma = #ttg.nvidia_mma<{versionMajor = 2, versionMinor = 0, warpsPerCTA = [2, 2], instrShape = [16, 8]}>
#loc16 = loc("a_ptr"(#loc))
#loc17 = loc("b_ptr"(#loc))
#loc18 = loc("c_ptr"(#loc))
module attributes {triton.shared_layout = "vector:1->(0,1);bank:1->(1,0),2->(2,0),4->(0,2),8->(0,4),16->(0,8);segment:1->(8,0),2->(4,8);outdims:dim0->16,dim1->16;reps:0", "ttg.num-ctas" = 1 : i32, "ttg.num-warps" = 4 : i32, ttg.target = "cuda:90", "ttg.threads-per-warp" = 32 : i32} {
  tt.func public @tiny_matmul_kernel(%a_ptr: !tt.ptr<f16> {tt.divisibility = 16 : i32} loc("a_ptr"(#loc)), %b_ptr: !tt.ptr<f16> {tt.divisibility = 16 : i32} loc("b_ptr"(#loc)), %c_ptr: !tt.ptr<f16> {tt.divisibility = 16 : i32} loc("c_ptr"(#loc))) attributes {noinline = false} {
    %cst = arith.constant dense<0.000000e+00> : tensor<16x16xf32, #mma> loc(#loc1)
    %cst_0 = arith.constant dense<16> : tensor<16x1xi32, #blocked> loc(#loc1)
    %a = tt.make_range {end = 16 : i32, start = 0 : i32} : tensor<16xi32, #ttg.slice<{dim = 1, parent = #blocked}>> loc(#loc19)
    %a_1 = tt.expand_dims %a {axis = 1 : i32} : tensor<16xi32, #ttg.slice<{dim = 1, parent = #blocked}>> -> tensor<16x1xi32, #blocked> loc(#loc19)
    %a_2 = arith.muli %a_1, %cst_0 : tensor<16x1xi32, #blocked> loc(#loc20)
    %a_3 = tt.splat %a_ptr : !tt.ptr<f16> -> tensor<16x1x!tt.ptr<f16>, #blocked> loc(#loc21)
    %a_4 = tt.addptr %a_3, %a_2 : tensor<16x1x!tt.ptr<f16>, #blocked>, tensor<16x1xi32, #blocked> loc(#loc21)
    %a_5 = tt.make_range {end = 16 : i32, start = 0 : i32} : tensor<16xi32, #ttg.slice<{dim = 0, parent = #blocked}>> loc(#loc22)
    %a_6 = tt.expand_dims %a_5 {axis = 0 : i32} : tensor<16xi32, #ttg.slice<{dim = 0, parent = #blocked}>> -> tensor<1x16xi32, #blocked> loc(#loc22)
    %a_7 = tt.broadcast %a_4 : tensor<16x1x!tt.ptr<f16>, #blocked> -> tensor<16x16x!tt.ptr<f16>, #blocked> loc(#loc23)
    %a_8 = tt.broadcast %a_6 : tensor<1x16xi32, #blocked> -> tensor<16x16xi32, #blocked> loc(#loc23)
    %a_9 = tt.addptr %a_7, %a_8 : tensor<16x16x!tt.ptr<f16>, #blocked>, tensor<16x16xi32, #blocked> loc(#loc23)
    %a_10 = tt.load %a_9 : tensor<16x16x!tt.ptr<f16>, #blocked> loc(#loc24)
    %b = tt.splat %b_ptr : !tt.ptr<f16> -> tensor<16x1x!tt.ptr<f16>, #blocked> loc(#loc25)
    %b_11 = tt.addptr %b, %a_2 : tensor<16x1x!tt.ptr<f16>, #blocked>, tensor<16x1xi32, #blocked> loc(#loc25)
    %b_12 = tt.broadcast %b_11 : tensor<16x1x!tt.ptr<f16>, #blocked> -> tensor<16x16x!tt.ptr<f16>, #blocked> loc(#loc26)
    %b_13 = tt.addptr %b_12, %a_8 : tensor<16x16x!tt.ptr<f16>, #blocked>, tensor<16x16xi32, #blocked> loc(#loc26)
    %b_14 = tt.load %b_13 : tensor<16x16x!tt.ptr<f16>, #blocked> loc(#loc27)
    %a_15 = ttg.convert_layout %a_10 : tensor<16x16xf16, #blocked> -> tensor<16x16xf16, #ttg.dot_op<{opIdx = 0, parent = #mma, kWidth = 2}>> loc(#loc24)
    %b_16 = ttg.convert_layout %b_14 : tensor<16x16xf16, #blocked> -> tensor<16x16xf16, #ttg.dot_op<{opIdx = 1, parent = #mma, kWidth = 2}>> loc(#loc27)
    %c = tt.dot %a_15, %b_16, %cst, inputPrecision = tf32 : tensor<16x16xf16, #ttg.dot_op<{opIdx = 0, parent = #mma, kWidth = 2}>> * tensor<16x16xf16, #ttg.dot_op<{opIdx = 1, parent = #mma, kWidth = 2}>> -> tensor<16x16xf32, #mma> loc(#loc28)
    %0 = tt.splat %c_ptr : !tt.ptr<f16> -> tensor<16x1x!tt.ptr<f16>, #blocked> loc(#loc12)
    %1 = tt.addptr %0, %a_2 : tensor<16x1x!tt.ptr<f16>, #blocked>, tensor<16x1xi32, #blocked> loc(#loc12)
    %2 = tt.broadcast %1 : tensor<16x1x!tt.ptr<f16>, #blocked> -> tensor<16x16x!tt.ptr<f16>, #blocked> loc(#loc13)
    %3 = tt.addptr %2, %a_8 : tensor<16x16x!tt.ptr<f16>, #blocked>, tensor<16x16xi32, #blocked> loc(#loc13)
    %4 = arith.truncf %c : tensor<16x16xf32, #mma> to tensor<16x16xf16, #mma> loc(#loc14)
    %5 = ttg.convert_layout %4 : tensor<16x16xf16, #mma> -> tensor<16x16xf16, #blocked> loc(#loc14)
    tt.store %3, %5 : tensor<16x16x!tt.ptr<f16>, #blocked> loc(#loc14)
    tt.return loc(#loc15)
  } loc(#loc)
} loc(#loc)
#loc1 = loc(unknown)
#loc2 = loc("/home/meiziyuan/triton/test_tiny_gemm.py":19:29)
#loc3 = loc("/home/meiziyuan/triton/test_tiny_gemm.py":19:40)
#loc4 = loc("/home/meiziyuan/triton/test_tiny_gemm.py":19:24)
#loc5 = loc("/home/meiziyuan/triton/test_tiny_gemm.py":19:50)
#loc6 = loc("/home/meiziyuan/triton/test_tiny_gemm.py":19:45)
#loc7 = loc("/home/meiziyuan/triton/test_tiny_gemm.py":19:16)
#loc8 = loc("/home/meiziyuan/triton/test_tiny_gemm.py":20:24)
#loc9 = loc("/home/meiziyuan/triton/test_tiny_gemm.py":20:45)
#loc10 = loc("/home/meiziyuan/triton/test_tiny_gemm.py":20:16)
#loc11 = loc("/home/meiziyuan/triton/test_tiny_gemm.py":21:18)
#loc12 = loc("/home/meiziyuan/triton/test_tiny_gemm.py":22:21)
#loc13 = loc("/home/meiziyuan/triton/test_tiny_gemm.py":22:42)
#loc14 = loc("/home/meiziyuan/triton/test_tiny_gemm.py":22:57)
#loc15 = loc("/home/meiziyuan/triton/test_tiny_gemm.py":22:4)
#loc19 = loc("a"(#loc2))
#loc20 = loc("a"(#loc3))
#loc21 = loc("a"(#loc4))
#loc22 = loc("a"(#loc5))
#loc23 = loc("a"(#loc6))
#loc24 = loc("a"(#loc7))
#loc25 = loc("b"(#loc8))
#loc26 = loc("b"(#loc9))
#loc27 = loc("b"(#loc10))
#loc28 = loc("c"(#loc11))


// -----// IR Dump Before NVGPUWarpSpecialization (nvgpu-warp-specialization) ('builtin.module' operation) //----- //
#blocked = #ttg.blocked<{sizePerThread = [1, 2], threadsPerWarp = [4, 8], warpsPerCTA = [4, 1], order = [1, 0]}>
#loc = loc("/home/meiziyuan/triton/test_tiny_gemm.py":17:0)
#mma = #ttg.nvidia_mma<{versionMajor = 2, versionMinor = 0, warpsPerCTA = [2, 2], instrShape = [16, 8]}>
#loc16 = loc("a_ptr"(#loc))
#loc17 = loc("b_ptr"(#loc))
#loc18 = loc("c_ptr"(#loc))
module attributes {triton.shared_layout = "vector:1->(0,1);bank:1->(1,0),2->(2,0),4->(0,2),8->(0,4),16->(0,8);segment:1->(8,0),2->(4,8);outdims:dim0->16,dim1->16;reps:0", "ttg.num-ctas" = 1 : i32, "ttg.num-warps" = 4 : i32, ttg.target = "cuda:90", "ttg.threads-per-warp" = 32 : i32} {
  tt.func public @tiny_matmul_kernel(%a_ptr: !tt.ptr<f16> {tt.divisibility = 16 : i32} loc("a_ptr"(#loc)), %b_ptr: !tt.ptr<f16> {tt.divisibility = 16 : i32} loc("b_ptr"(#loc)), %c_ptr: !tt.ptr<f16> {tt.divisibility = 16 : i32} loc("c_ptr"(#loc))) attributes {noinline = false} {
    %cst = arith.constant dense<0.000000e+00> : tensor<16x16xf32, #mma> loc(#loc1)
    %cst_0 = arith.constant dense<16> : tensor<16x1xi32, #blocked> loc(#loc1)
    %a = tt.make_range {end = 16 : i32, start = 0 : i32} : tensor<16xi32, #ttg.slice<{dim = 1, parent = #blocked}>> loc(#loc19)
    %a_1 = tt.expand_dims %a {axis = 1 : i32} : tensor<16xi32, #ttg.slice<{dim = 1, parent = #blocked}>> -> tensor<16x1xi32, #blocked> loc(#loc19)
    %a_2 = arith.muli %a_1, %cst_0 : tensor<16x1xi32, #blocked> loc(#loc20)
    %a_3 = tt.splat %a_ptr : !tt.ptr<f16> -> tensor<16x1x!tt.ptr<f16>, #blocked> loc(#loc21)
    %a_4 = tt.addptr %a_3, %a_2 : tensor<16x1x!tt.ptr<f16>, #blocked>, tensor<16x1xi32, #blocked> loc(#loc21)
    %a_5 = tt.make_range {end = 16 : i32, start = 0 : i32} : tensor<16xi32, #ttg.slice<{dim = 0, parent = #blocked}>> loc(#loc22)
    %a_6 = tt.expand_dims %a_5 {axis = 0 : i32} : tensor<16xi32, #ttg.slice<{dim = 0, parent = #blocked}>> -> tensor<1x16xi32, #blocked> loc(#loc22)
    %a_7 = tt.broadcast %a_4 : tensor<16x1x!tt.ptr<f16>, #blocked> -> tensor<16x16x!tt.ptr<f16>, #blocked> loc(#loc23)
    %a_8 = tt.broadcast %a_6 : tensor<1x16xi32, #blocked> -> tensor<16x16xi32, #blocked> loc(#loc23)
…
    %a_73 = llvm.extractelement %a_71[%15 : i32] : vector<2xf16> loc(#loc24)
    %a_74 = llvm.extractvalue %a_69[1] : !llvm.struct<(i32, i32, i32, i32)>  loc(#loc24)
    %a_75 = llvm.bitcast %a_74 : i32 to vector<2xf16> loc(#loc24)
    %a_76 = llvm.extractelement %a_75[%20 : i32] : vector<2xf16> loc(#loc24)
    %a_77 = llvm.extractelement %a_75[%15 : i32] : vector<2xf16> loc(#loc24)
    %a_78 = llvm.extractvalue %a_69[2] : !llvm.struct<(i32, i32, i32, i32)>  loc(#loc24)
    %a_79 = llvm.bitcast %a_78 : i32 to vector<2xf16> loc(#loc24)
    %a_80 = llvm.extractelement %a_79[%20 : i32] : vector<2xf16> loc(#loc24)
    %a_81 = llvm.extractelement %a_79[%15 : i32] : vector<2xf16> loc(#loc24)
    %a_82 = llvm.extractvalue %a_69[3] : !llvm.struct<(i32, i32, i32, i32)>  loc(#loc24)
    %a_83 = llvm.bitcast %a_82 : i32 to vector<2xf16> loc(#loc24)
    %a_84 = llvm.extractelement %a_83[%20 : i32] : vector<2xf16> loc(#loc24)
    %a_85 = llvm.extractelement %a_83[%15 : i32] : vector<2xf16> loc(#loc24)
    %b_86 = llvm.shl %a_2, %7 : i32 loc(#loc27)
    %b_87 = llvm.or %a_4, %b_86 : i32 loc(#loc27)
    %b_88 = llvm.and %b_87, %8 : i32 loc(#loc27)
    %b_89 = llvm.shl %b_88, %7 : i32 loc(#loc27)
    %b_90 = llvm.xor %20, %b_89 : i32 loc(#loc27)
    %b_91 = llvm.and %b_87, %7 : i32 loc(#loc27)
    %b_92 = llvm.icmp "eq" %b_91, %20 : i32 loc(#loc27)
    %b_93 = llvm.select %b_92, %20, %10 : i1, i32 loc(#loc27)
    %b_94 = llvm.xor %b_90, %b_93 : i32 loc(#loc27)
    %b_95 = llvm.and %b_87, %25 : i32 loc(#loc27)
    %b_96 = llvm.icmp "eq" %b_95, %20 : i32 loc(#loc27)
    %b_97 = llvm.select %b_96, %20, %11 : i1, i32 loc(#loc27)
    %b_98 = llvm.xor %b_94, %b_97 : i32 loc(#loc27)
    %b_99 = llvm.xor %20, %b_98 : i32 loc(#loc27)
    %b_100 = llvm.xor %b_99, %20 : i32 loc(#loc27)
    %b_101 = llvm.xor %b_100, %20 : i32 loc(#loc27)
    %b_102 = llvm.getelementptr inbounds %b_48[%b_101] : (!llvm.ptr<3>, i32) -> !llvm.ptr<3>, f16 loc(#loc27)
    %b_103 = llvm.ptrtoint %b_102 : !llvm.ptr<3> to i32 loc(#loc27)
    %b_104 = llvm.inline_asm has_side_effects asm_dialect = att operand_attrs = [] "ldmatrix.sync.aligned.m8n8.x2.trans.shared.b16 {$0, $1}, [$2];", "=r,=r,r" %b_103 : (i32) -> !llvm.struct<(i32, i32)> loc(#loc27)
    %b_105 = llvm.extractvalue %b_104[0] : !llvm.struct<(i32, i32)>  loc(#loc27)
    %b_106 = llvm.bitcast %b_105 : i32 to vector<2xf16> loc(#loc27)
    %b_107 = llvm.extractelement %b_106[%20 : i32] : vector<2xf16> loc(#loc27)
    %b_108 = llvm.extractelement %b_106[%15 : i32] : vector<2xf16> loc(#loc27)
    %b_109 = llvm.extractvalue %b_104[1] : !llvm.struct<(i32, i32)>  loc(#loc27)
    %b_110 = llvm.bitcast %b_109 : i32 to vector<2xf16> loc(#loc27)
    %b_111 = llvm.extractelement %b_110[%20 : i32] : vector<2xf16> loc(#loc27)
    %b_112 = llvm.extractelement %b_110[%15 : i32] : vector<2xf16> loc(#loc27)
    %c = llvm.insertelement %a_72, %9[%20 : i32] : vector<2xf16> loc(#loc28)
    %c_113 = llvm.insertelement %a_73, %c[%15 : i32] : vector<2xf16> loc(#loc28)
    %c_114 = llvm.bitcast %c_113 : vector<2xf16> to i32 loc(#loc28)
    %c_115 = llvm.insertelement %a_76, %9[%20 : i32] : vector<2xf16> loc(#loc28)
    %c_116 = llvm.insertelement %a_77, %c_115[%15 : i32] : vector<2xf16> loc(#loc28)
    %c_117 = llvm.bitcast %c_116 : vector<2xf16> to i32 loc(#loc28)
    %c_118 = llvm.insertelement %a_80, %9[%20 : i32] : vector<2xf16> loc(#loc28)
    %c_119 = llvm.insertelement %a_81, %c_118[%15 : i32] : vector<2xf16> loc(#loc28)
    %c_120 = llvm.bitcast %c_119 : vector<2xf16> to i32 loc(#loc28)
    %c_121 = llvm.insertelement %a_84, %9[%20 : i32] : vector<2xf16> loc(#loc28)
    %c_122 = llvm.insertelement %a_85, %c_121[%15 : i32] : vector<2xf16> loc(#loc28)
    %c_123 = llvm.bitcast %c_122 : vector<2xf16> to i32 loc(#loc28)
    %c_124 = llvm.insertelement %b_107, %9[%20 : i32] : vector<2xf16> loc(#loc28)
    %c_125 = llvm.insertelement %b_108, %c_124[%15 : i32] : vector<2xf16> loc(#loc28)
    %c_126 = llvm.bitcast %c_125 : vector<2xf16> to i32 loc(#loc28)
    %c_127 = llvm.insertelement %b_111, %9[%20 : i32] : vector<2xf16> loc(#loc28)
    %c_128 = llvm.insertelement %b_112, %c_127[%15 : i32] : vector<2xf16> loc(#loc28)
    %c_129 = llvm.bitcast %c_128 : vector<2xf16> to i32 loc(#loc28)
    %c_130 = llvm.inline_asm has_side_effects asm_dialect = att operand_attrs = [] "mma.sync.aligned.m16n8k16.row.col.f32.f16.f16.f32 { $0, $1, $2, $3 }, { $8, $9, $10, $11 }, { $12, $13 }, { $4, $5, $6, $7 };", "=f,=f,=f,=f,0,1,2,3,r,r,r,r,r,r" %24, %24, %24, %24, %c_114, %c_117, %c_120, %c_123, %c_126, %c_129 : (f32, f32, f32, f32, i32, i32, i32, i32, i32, i32) -> !llvm.struct<(f32, f32, f32, f32)> loc(#loc28)
    %c_131 = llvm.extractvalue %c_130[0] : !llvm.struct<(f32, f32, f32, f32)>  loc(#loc28)
    %c_132 = llvm.extractvalue %c_130[1] : !llvm.struct<(f32, f32, f32, f32)>  loc(#loc28)
    %c_133 = llvm.extractvalue %c_130[2] : !llvm.struct<(f32, f32, f32, f32)>  loc(#loc28)
    %c_134 = llvm.extractvalue %c_130[3] : !llvm.struct<(f32, f32, f32, f32)>  loc(#loc28)
    %26 = llvm.getelementptr %c_ptr[%a_14] : (!llvm.ptr<1>, i32) -> !llvm.ptr<1>, f16 loc(#loc12)
    %27 = llvm.getelementptr %26[%a_21] : (!llvm.ptr<1>, i32) -> !llvm.ptr<1>, f16 loc(#loc13)
    %28 = llvm.fptrunc %c_131 : f32 to f16 loc(#loc14)
    %29 = llvm.fptrunc %c_132 : f32 to f16 loc(#loc14)
    %30 = llvm.fptrunc %c_133 : f32 to f16 loc(#loc14)
    %31 = llvm.fptrunc %c_134 : f32 to f16 loc(#loc14)
    nvvm.barrier0 loc(#loc14)
    %32 = llvm.and %a_6, %16 : i32 loc(#loc14)
    %33 = llvm.shl %32, %7 : i32 loc(#loc14)
    %34 = llvm.xor %20, %33 : i32 loc(#loc14)
    %35 = llvm.and %a_6, %6 : i32 loc(#loc14)
    %36 = llvm.lshr %35, %20 : i32 loc(#loc14)
    %37 = llvm.xor %34, %36 : i32 loc(#loc14)
    %38 = llvm.select %a_61, %20, %5 : i1, i32 loc(#loc14)
    %39 = llvm.xor %37, %38 : i32 loc(#loc14)
    %40 = llvm.and %a_6, %21 : i32 loc(#loc14)
    %41 = llvm.icmp "eq" %40, %20 : i32 loc(#loc14)
    %42 = llvm.select %41, %20, %4 : i1, i32 loc(#loc14)
    %43 = llvm.xor %39, %42 : i32 loc(#loc14)
    %44 = llvm.xor %20, %43 : i32 loc(#loc14)
    %45 = llvm.mul %20, %3 : i32 loc(#loc14)
    %46 = llvm.xor %44, %45 : i32 loc(#loc14)
    %47 = llvm.xor %46, %20 : i32 loc(#loc14)
    %48 = llvm.add %47, %20 : i32 loc(#loc14)
    %49 = llvm.getelementptr inbounds %13[%48] : (!llvm.ptr<3>, i32) -> !llvm.ptr<3>, i8 loc(#loc14)
    %50 = llvm.insertelement %28, %9[%20 : i32] : vector<2xf16> loc(#loc14)
    %51 = llvm.insertelement %29, %50[%15 : i32] : vector<2xf16> loc(#loc14)
    %52 = llvm.extractelement %51[%20 : i32] : vector<2xf16> loc(#loc14)
    %53 = llvm.extractelement %51[%15 : i32] : vector<2xf16> loc(#loc14)
    %54 = llvm.bitcast %52 : f16 to i16 loc(#loc14)
    %55 = llvm.bitcast %53 : f16 to i16 loc(#loc14)
    %56 = llvm.insertelement %54, %2[%20 : i32] : vector<2xi16> loc(#loc14)
    %57 = llvm.insertelement %55, %56[%15 : i32] : vector<2xi16> loc(#loc14)
    llvm.store %57, %49 {alignment = 4 : i64} : vector<2xi16>, !llvm.ptr<3> loc(#loc14)
    %58 = llvm.add %47, %1 : i32 loc(#loc14)
    %59 = llvm.getelementptr inbounds %13[%58] : (!llvm.ptr<3>, i32) -> !llvm.ptr<3>, i8 loc(#loc14)
    %60 = llvm.insertelement %30, %9[%20 : i32] : vector<2xf16> loc(#loc14)
    %61 = llvm.insertelement %31, %60[%15 : i32] : vector<2xf16> loc(#loc14)
    %62 = llvm.extractelement %61[%20 : i32] : vector<2xf16> loc(#loc14)
    %63 = llvm.extractelement %61[%15 : i32] : vector<2xf16> loc(#loc14)
    %64 = llvm.bitcast %62 : f16 to i16 loc(#loc14)
    %65 = llvm.bitcast %63 : f16 to i16 loc(#loc14)
    %66 = llvm.insertelement %64, %2[%20 : i32] : vector<2xi16> loc(#loc14)
    %67 = llvm.insertelement %65, %66[%15 : i32] : vector<2xi16> loc(#loc14)
    llvm.store %67, %59 {alignment = 4 : i64} : vector<2xi16>, !llvm.ptr<3> loc(#loc14)
    nvvm.barrier0 loc(#loc14)
    %68 = llvm.and %a_6, %18 : i32 loc(#loc14)
    %69 = llvm.shl %68, %7 : i32 loc(#loc14)
    %70 = llvm.xor %20, %69 : i32 loc(#loc14)
    %71 = llvm.and %a_6, %0 : i32 loc(#loc14)
    %72 = llvm.lshr %71, %15 : i32 loc(#loc14)
    %73 = llvm.xor %70, %72 : i32 loc(#loc14)
    %74 = llvm.select %41, %20, %5 : i1, i32 loc(#loc14)
    %75 = llvm.xor %73, %74 : i32 loc(#loc14)
    %76 = llvm.and %a_6, %4 : i32 loc(#loc14)
    %77 = llvm.icmp "eq" %76, %20 : i32 loc(#loc14)
    %78 = llvm.select %77, %20, %1 : i1, i32 loc(#loc14)
    %79 = llvm.xor %75, %78 : i32 loc(#loc14)
    %80 = llvm.xor %20, %79 : i32 loc(#loc14)
    %81 = llvm.xor %80, %45 : i32 loc(#loc14)
    %82 = llvm.xor %81, %20 : i32 loc(#loc14)
    %83 = llvm.add %82, %20 : i32 loc(#loc14)
    %84 = llvm.getelementptr inbounds %13[%83] : (!llvm.ptr<3>, i32) -> !llvm.ptr<3>, i8 loc(#loc14)
    %85 = llvm.load %84 {alignment = 4 : i64} : !llvm.ptr<3> -> vector<2xi16> loc(#loc14)
    %86 = llvm.extractelement %85[%20 : i32] : vector<2xi16> loc(#loc14)
    %87 = llvm.extractelement %85[%15 : i32] : vector<2xi16> loc(#loc14)
    %88 = llvm.insertelement %86, %2[%20 : i32] : vector<2xi16> loc(#loc14)
    %89 = llvm.insertelement %87, %88[%15 : i32] : vector<2xi16> loc(#loc14)
    %90 = llvm.extractelement %89[%20 : i32] : vector<2xi16> loc(#loc14)
    %91 = llvm.extractelement %89[%15 : i32] : vector<2xi16> loc(#loc14)
    %92 = llvm.bitcast %90 : i16 to f16 loc(#loc14)
    %93 = llvm.bitcast %91 : i16 to f16 loc(#loc14)
    %94 = llvm.insertelement %92, %9[%20 : i32] : vector<2xf16> loc(#loc14)
    %95 = llvm.insertelement %93, %94[%15 : i32] : vector<2xf16> loc(#loc14)
    %96 = llvm.extractelement %95[%20 : i32] : vector<2xf16> loc(#loc14)
    %97 = llvm.extractelement %95[%15 : i32] : vector<2xf16> loc(#loc14)
    %98 = llvm.insertelement %96, %9[%20 : i32] : vector<2xf16> loc(#loc14)
    %99 = llvm.insertelement %97, %98[%15 : i32] : vector<2xf16> loc(#loc14)
    %100 = llvm.bitcast %99 : vector<2xf16> to i32 loc(#loc14)
    %101 = llvm.inline_asm has_side_effects asm_dialect = att operand_attrs = [] "st.global.b32 [ $1 + 0 ], { $0 };", "r,l" %100, %27 : (i32, !llvm.ptr<1>) -> !llvm.void loc(#loc14)
    llvm.return loc(#loc15)
  } loc(#loc)
} loc(#loc)
#loc1 = loc(unknown)
#loc2 = loc("/home/meiziyuan/triton/test_tiny_gemm.py":19:29)
#loc3 = loc("/home/meiziyuan/triton/test_tiny_gemm.py":19:40)
#loc4 = loc("/home/meiziyuan/triton/test_tiny_gemm.py":19:24)
#loc5 = loc("/home/meiziyuan/triton/test_tiny_gemm.py":19:50)
#loc6 = loc("/home/meiziyuan/triton/test_tiny_gemm.py":19:45)
#loc7 = loc("/home/meiziyuan/triton/test_tiny_gemm.py":19:16)
#loc8 = loc("/home/meiziyuan/triton/test_tiny_gemm.py":20:24)
#loc9 = loc("/home/meiziyuan/triton/test_tiny_gemm.py":20:45)
#loc10 = loc("/home/meiziyuan/triton/test_tiny_gemm.py":20:16)
#loc11 = loc("/home/meiziyuan/triton/test_tiny_gemm.py":21:18)
#loc12 = loc("/home/meiziyuan/triton/test_tiny_gemm.py":22:21)
#loc13 = loc("/home/meiziyuan/triton/test_tiny_gemm.py":22:42)
#loc14 = loc("/home/meiziyuan/triton/test_tiny_gemm.py":22:57)
#loc15 = loc("/home/meiziyuan/triton/test_tiny_gemm.py":22:4)
#loc19 = loc("a"(#loc2))
#loc20 = loc("a"(#loc3))
#loc21 = loc("a"(#loc4))
#loc22 = loc("a"(#loc5))
#loc23 = loc("a"(#loc6))
#loc24 = loc("a"(#loc7))
#loc25 = loc("b"(#loc8))
#loc26 = loc("b"(#loc9))
#loc27 = loc("b"(#loc10))
#loc28 = loc("c"(#loc11))


// -----// IR Dump Before ConvertNVVMToLLVMPass (convert-nvvm-to-llvm) ('builtin.module' operation) //----- //
#loc = loc("/home/meiziyuan/triton/test_tiny_gemm.py":17:0)
#loc16 = loc("a_ptr"(#loc))
#loc17 = loc("b_ptr"(#loc))
#loc18 = loc("c_ptr"(#loc))
module attributes {triton.shared_layout = "vector:1->(0,1);bank:1->(1,0),2->(2,0),4->(0,2),8->(0,4),16->(0,8);segment:1->(8,0),2->(4,8);outdims:dim0->16,dim1->16;reps:0", ttg.global_scratch_memory_alignment = 1 : i32, ttg.global_scratch_memory_size = 0 : i32, "ttg.num-ctas" = 1 : i32, "ttg.num-warps" = 4 : i32, ttg.shared = 1024 : i32, ttg.target = "cuda:90", ttg.tensor_memory_size = 0 : i32, "ttg.threads-per-warp" = 32 : i32, "ttg.total-num-warps" = 4 : i32} {
  llvm.mlir.global external @global_smem() {addr_space = 3 : i32, alignment = 16 : i64} : !llvm.array<0 x i8> loc(#loc)
  llvm.func @tiny_matmul_kernel(%a_ptr: !llvm.ptr<1> {tt.divisibility = 16 : i32} loc("a_ptr"(#loc)), %b_ptr: !llvm.ptr<1> {tt.divisibility = 16 : i32} loc("b_ptr"(#loc)), %c_ptr: !llvm.ptr<1> {tt.divisibility = 16 : i32} loc("c_ptr"(#loc)), %arg3: !llvm.ptr<1> loc("/home/meiziyuan/triton/test_tiny_gemm.py":17:0)) attributes {noinline = false, nvvm.kernel = 1 : ui1, nvvm.reqntid = array<i32: 128>, ttg.global_scratch_memory_alignment = 1 : i32, ttg.global_scratch_memory_size = 0 : i32} {
    %0 = llvm.mlir.constant(24 : i32) : i32 loc(#loc1)
    %1 = llvm.mlir.constant(128 : i32) : i32 loc(#loc1)
    %2 = llvm.mlir.undef : vector<2xi16> loc(#loc1)
    %3 = llvm.mlir.constant(2 : i32) : i32 loc(#loc1)
    %4 = llvm.mlir.constant(64 : i32) : i32 loc(#loc1)
    %5 = llvm.mlir.constant(320 : i32) : i32 loc(#loc1)
    %6 = llvm.mlir.constant(12 : i32) : i32 loc(#loc1)
    %7 = llvm.mlir.constant(4 : i32) : i32 loc(#loc1)
    %8 = llvm.mlir.constant(11 : i32) : i32 loc(#loc1)
    %9 = llvm.mlir.undef : vector<2xf16> loc(#loc1)
    %10 = llvm.mlir.constant(72 : i32) : i32 loc(#loc1)
    %11 = llvm.mlir.constant(8 : i32) : i32 loc(#loc1)
    %12 = llvm.mlir.constant(23 : i32) : i32 loc(#loc1)
    %13 = llvm.mlir.addressof @global_smem : !llvm.ptr<3> loc(#loc1)
    %14 = llvm.mlir.constant(1 : index) : i32 loc(#loc1)
    %15 = llvm.mlir.constant(1 : i32) : i32 loc(#loc1)
    %16 = llvm.mlir.constant(3 : i32) : i32 loc(#loc1)
    %17 = llvm.mlir.constant(120 : i32) : i32 loc(#loc1)
    %18 = llvm.mlir.constant(7 : i32) : i32 loc(#loc1)
    %19 = llvm.mlir.constant(5 : i32) : i32 loc(#loc1)
    %20 = llvm.mlir.constant(0 : i32) : i32 loc(#loc1)
    %21 = llvm.mlir.constant(32 : i32) : i32 loc(#loc1)
    %22 = llvm.mlir.constant(127 : i32) : i32 loc(#loc1)
    %23 = llvm.mlir.constant(0 : index) : i32 loc(#loc1)
    %24 = llvm.mlir.constant(0.000000e+00 : f32) : f32 loc(#loc1)
    %25 = llvm.mlir.constant(16 : i32) : i32 loc(#loc1)
    %a = nvvm.read.ptx.sreg.tid.x : i32 loc(#loc19)
    %a_0 = llvm.and %a, %22 : i32 loc(#loc19)
    %a_1 = llvm.urem %a_0, %21 : i32 loc(#loc19)
    %a_2 = llvm.udiv %a_0, %21 : i32 loc(#loc19)
    %a_3 = llvm.shl %a_1, %20 : i32 loc(#loc19)
    %a_4 = llvm.or %20, %a_3 : i32 loc(#loc19)
    %a_5 = llvm.shl %a_2, %19 : i32 loc(#loc19)
    %a_6 = llvm.or %a_4, %a_5 : i32 loc(#loc19)
    %a_7 = llvm.or %a_6, %20 : i32 loc(#loc19)
    %a_8 = llvm.and %a_7, %17 : i32 loc(#loc19)
    %a_9 = llvm.lshr %a_8, %16 : i32 loc(#loc19)
    %a_10 = llvm.xor %20, %a_9 : i32 loc(#loc19)
    %a_11 = llvm.xor %20, %a_10 : i32 loc(#loc19)
    %a_12 = llvm.xor %a_11, %20 : i32 loc(#loc19)
    %a_13 = llvm.add %a_12, %23 : i32 loc(#loc19)
    %a_14 = llvm.mul %a_13, %25 : i32 loc(#loc20)
    %a_15 = llvm.getelementptr %a_ptr[%a_14] : (!llvm.ptr<1>, i32) -> !llvm.ptr<1>, f16 loc(#loc21)
    %a_16 = llvm.and %a_7, %18 : i32 loc(#loc22)
    %a_17 = llvm.shl %a_16, %15 : i32 loc(#loc22)
    %a_18 = llvm.xor %20, %a_17 : i32 loc(#loc22)
    %a_19 = llvm.xor %20, %a_18 : i32 loc(#loc22)
    %a_20 = llvm.xor %a_19, %20 : i32 loc(#loc22)
    %a_21 = llvm.add %a_20, %23 : i32 loc(#loc22)
    %a_22 = llvm.getelementptr %a_15[%a_21] : (!llvm.ptr<1>, i32) -> !llvm.ptr<1>, f16 loc(#loc23)
    %a_23 = llvm.inline_asm has_side_effects asm_dialect = att operand_attrs = [] "mov.u32 $0, 0x0;\0A\09ld.global.b32 { $0 }, [ $1 + 0 ];", "=r,l" %a_22 : (!llvm.ptr<1>) -> i32 loc(#loc24)
    %a_24 = llvm.bitcast %a_23 : i32 to vector<2xf16> loc(#loc24)
    %a_25 = llvm.extractelement %a_24[%23 : i32] : vector<2xf16> loc(#loc24)
    %a_26 = llvm.extractelement %a_24[%14 : i32] : vector<2xf16> loc(#loc24)
    %a_27 = llvm.shl %a_2, %16 : i32 loc(#loc24)
    %a_28 = llvm.or %a_4, %a_27 : i32 loc(#loc24)
    %a_29 = llvm.and %a_28, %12 : i32 loc(#loc24)
    %a_30 = llvm.shl %a_29, %16 : i32 loc(#loc24)
    %a_31 = llvm.xor %20, %a_30 : i32 loc(#loc24)
    %a_32 = llvm.and %a_28, %11 : i32 loc(#loc24)
    %a_33 = llvm.icmp "eq" %a_32, %20 : i32 loc(#loc24)
    %a_34 = llvm.select %a_33, %20, %10 : i1, i32 loc(#loc24)
    %a_35 = llvm.xor %a_31, %a_34 : i32 loc(#loc24)
    %a_36 = llvm.xor %20, %a_35 : i32 loc(#loc24)
    %a_37 = llvm.xor %a_36, %20 : i32 loc(#loc24)
    %a_38 = llvm.xor %a_37, %20 : i32 loc(#loc24)
    %a_39 = llvm.getelementptr inbounds %13[%a_38] : (!llvm.ptr<3>, i32) -> !llvm.ptr<3>, f16 loc(#loc24)
    %a_40 = llvm.insertelement %a_25, %9[%20 : i32] : vector<2xf16> loc(#loc24)
    %a_41 = llvm.insertelement %a_26, %a_40[%15 : i32] : vector<2xf16> loc(#loc24)
    %a_42 = llvm.bitcast %a_41 : vector<2xf16> to i32 loc(#loc24)
    nvvm.stmatrix %a_39, %a_42 {layout = #nvvm.mma_layout<row>} : !llvm.ptr<3>, i32 loc(#loc24)
    %b = llvm.getelementptr %b_ptr[%a_14] : (!llvm.ptr<1>, i32) -> !llvm.ptr<1>, f16 loc(#loc25)
    %b_43 = llvm.getelementptr %b[%a_21] : (!llvm.ptr<1>, i32) -> !llvm.ptr<1>, f16 loc(#loc26)
    %b_44 = llvm.inline_asm has_side_effects asm_dialect = att operand_attrs = [] "mov.u32 $0, 0x0;\0A\09ld.global.b32 { $0 }, [ $1 + 0 ];", "=r,l" %b_43 : (!llvm.ptr<1>) -> i32 loc(#loc27)
    %b_45 = llvm.bitcast %b_44 : i32 to vector<2xf16> loc(#loc27)
    %b_46 = llvm.extractelement %b_45[%23 : i32] : vector<2xf16> loc(#loc27)
    %b_47 = llvm.extractelement %b_45[%14 : i32] : vector<2xf16> loc(#loc27)
    %b_48 = llvm.getelementptr %13[512] : (!llvm.ptr<3>) -> !llvm.ptr<3>, i8 loc(#loc27)
    %b_49 = llvm.getelementptr inbounds %b_48[%a_38] : (!llvm.ptr<3>, i32) -> !llvm.ptr<3>, f16 loc(#loc27)
    %b_50 = llvm.insertelement %b_46, %9[%20 : i32] : vector<2xf16> loc(#loc27)
    %b_51 = llvm.insertelement %b_47, %b_50[%15 : i32] : vector<2xf16> loc(#loc27)
    %b_52 = llvm.bitcast %b_51 : vector<2xf16> to i32 loc(#loc27)
    nvvm.stmatrix %b_49, %b_52 {layout = #nvvm.mma_layout<row>} : !llvm.ptr<3>, i32 loc(#loc27)
    nvvm.barrier0 loc(#loc24)
    %a_53 = llvm.and %a_6, %8 : i32 loc(#loc24)
    %a_54 = llvm.shl %a_53, %7 : i32 loc(#loc24)
    %a_55 = llvm.xor %20, %a_54 : i32 loc(#loc24)
    %a_56 = llvm.and %a_6, %7 : i32 loc(#loc24)
    %a_57 = llvm.icmp "eq" %a_56, %20 : i32 loc(#loc24)
    %a_58 = llvm.select %a_57, %20, %10 : i1, i32 loc(#loc24)
    %a_59 = llvm.xor %a_55, %a_58 : i32 loc(#loc24)
    %a_60 = llvm.and %a_6, %25 : i32 loc(#loc24)
    %a_61 = llvm.icmp "eq" %a_60, %20 : i32 loc(#loc24)
    %a_62 = llvm.select %a_61, %20, %11 : i1, i32 loc(#loc24)
    %a_63 = llvm.xor %a_59, %a_62 : i32 loc(#loc24)
    %a_64 = llvm.xor %20, %a_63 : i32 loc(#loc24)
    %a_65 = llvm.xor %a_64, %20 : i32 loc(#loc24)
    %a_66 = llvm.xor %a_65, %20 : i32 loc(#loc24)
    %a_67 = llvm.getelementptr inbounds %13[%a_66] : (!llvm.ptr<3>, i32) -> !llvm.ptr<3>, f16 loc(#loc24)
    %a_68 = llvm.ptrtoint %a_67 : !llvm.ptr<3> to i32 loc(#loc24)
    %a_69 = llvm.inline_asm has_side_effects asm_dialect = att operand_attrs = [] "ldmatrix.sync.aligned.m8n8.x4.shared.b16 {$0, $1, $2, $3}, [$4];", "=r,=r,=r,=r,r" %a_68 : (i32) -> !llvm.struct<(i32, i32, i32, i32)> loc(#loc24)
    %a_70 = llvm.extractvalue %a_69[0] : !llvm.struct<(i32, i32, i32, i32)>  loc(#loc24)
    %a_71 = llvm.bitcast %a_70 : i32 to vector<2xf16> loc(#loc24)
    %a_72 = llvm.extractelement %a_71[%20 : i32] : vector<2xf16> loc(#loc24)
    %a_73 = llvm.extractelement %a_71[%15 : i32] : vector<2xf16> loc(#loc24)
    %a_74 = llvm.extractvalue %a_69[1] : !llvm.struct<(i32, i32, i32, i32)>  loc(#loc24)
    %a_75 = llvm.bitcast %a_74 : i32 to vector<2xf16> loc(#loc24)
    %a_76 = llvm.extractelement %a_75[%20 : i32] : vector<2xf16> loc(#loc24)
    %a_77 = llvm.extractelement %a_75[%15 : i32] : vector<2xf16> loc(#loc24)
    %a_78 = llvm.extractvalue %a_69[2] : !llvm.struct<(i32, i32, i32, i32)>  loc(#loc24)
    %a_79 = llvm.bitcast %a_78 : i32 to vector<2xf16> loc(#loc24)
    %a_80 = llvm.extractelement %a_79[%20 : i32] : vector<2xf16> loc(#loc24)
    %a_81 = llvm.extractelement %a_79[%15 : i32] : vector<2xf16> loc(#loc24)
    %a_82 = llvm.extractvalue %a_69[3] : !llvm.struct<(i32, i32, i32, i32)>  loc(#loc24)
    %a_83 = llvm.bitcast %a_82 : i32 to vector<2xf16> loc(#loc24)
    %a_84 = llvm.extractelement %a_83[%20 : i32] : vector<2xf16> loc(#loc24)
    %a_85 = llvm.extractelement %a_83[%15 : i32] : vector<2xf16> loc(#loc24)
    %b_86 = llvm.shl %a_2, %7 : i32 loc(#loc27)
    %b_87 = llvm.or %a_4, %b_86 : i32 loc(#loc27)
    %b_88 = llvm.and %b_87, %8 : i32 loc(#loc27)
    %b_89 = llvm.shl %b_88, %7 : i32 loc(#loc27)
    %b_90 = llvm.xor %20, %b_89 : i32 loc(#loc27)
    %b_91 = llvm.and %b_87, %7 : i32 loc(#loc27)
    %b_92 = llvm.icmp "eq" %b_91, %20 : i32 loc(#loc27)
    %b_93 = llvm.select %b_92, %20, %10 : i1, i32 loc(#loc27)
    %b_94 = llvm.xor %b_90, %b_93 : i32 loc(#loc27)
    %b_95 = llvm.and %b_87, %25 : i32 loc(#loc27)
    %b_96 = llvm.icmp "eq" %b_95, %20 : i32 loc(#loc27)
    %b_97 = llvm.select %b_96, %20, %11 : i1, i32 loc(#loc27)
    %b_98 = llvm.xor %b_94, %b_97 : i32 loc(#loc27)
    %b_99 = llvm.xor %20, %b_98 : i32 loc(#loc27)
    %b_100 = llvm.xor %b_99, %20 : i32 loc(#loc27)
    %b_101 = llvm.xor %b_100, %20 : i32 loc(#loc27)
    %b_102 = llvm.getelementptr inbounds %b_48[%b_101] : (!llvm.ptr<3>, i32) -> !llvm.ptr<3>, f16 loc(#loc27)
    %b_103 = llvm.ptrtoint %b_102 : !llvm.ptr<3> to i32 loc(#loc27)
    %b_104 = llvm.inline_asm has_side_effects asm_dialect = att operand_attrs = [] "ldmatrix.sync.aligned.m8n8.x2.trans.shared.b16 {$0, $1}, [$2];", "=r,=r,r" %b_103 : (i32) -> !llvm.struct<(i32, i32)> loc(#loc27)
    %b_105 = llvm.extractvalue %b_104[0] : !llvm.struct<(i32, i32)>  loc(#loc27)
    %b_106 = llvm.bitcast %b_105 : i32 to vector<2xf16> loc(#loc27)
    %b_107 = llvm.extractelement %b_106[%20 : i32] : vector<2xf16> loc(#loc27)
    %b_108 = llvm.extractelement %b_106[%15 : i32] : vector<2xf16> loc(#loc27)
    %b_109 = llvm.extractvalue %b_104[1] : !llvm.struct<(i32, i32)>  loc(#loc27)
    %b_110 = llvm.bitcast %b_109 : i32 to vector<2xf16> loc(#loc27)
    %b_111 = llvm.extractelement %b_110[%20 : i32] : vector<2xf16> loc(#loc27)
    %b_112 = llvm.extractelement %b_110[%15 : i32] : vector<2xf16> loc(#loc27)
    %c = llvm.insertelement %a_72, %9[%20 : i32] : vector<2xf16> loc(#loc28)
    %c_113 = llvm.insertelement %a_73, %c[%15 : i32] : vector<2xf16> loc(#loc28)
    %c_114 = llvm.bitcast %c_113 : vector<2xf16> to i32 loc(#loc28)
    %c_115 = llvm.insertelement %a_76, %9[%20 : i32] : vector<2xf16> loc(#loc28)
    %c_116 = llvm.insertelement %a_77, %c_115[%15 : i32] : vector<2xf16> loc(#loc28)
    %c_117 = llvm.bitcast %c_116 : vector<2xf16> to i32 loc(#loc28)
    %c_118 = llvm.insertelement %a_80, %9[%20 : i32] : vector<2xf16> loc(#loc28)
    %c_119 = llvm.insertelement %a_81, %c_118[%15 : i32] : vector<2xf16> loc(#loc28)
    %c_120 = llvm.bitcast %c_119 : vector<2xf16> to i32 loc(#loc28)
    %c_121 = llvm.insertelement %a_84, %9[%20 : i32] : vector<2xf16> loc(#loc28)
    %c_122 = llvm.insertelement %a_85, %c_121[%15 : i32] : vector<2xf16> loc(#loc28)
    %c_123 = llvm.bitcast %c_122 : vector<2xf16> to i32 loc(#loc28)
    %c_124 = llvm.insertelement %b_107, %9[%20 : i32] : vector<2xf16> loc(#loc28)
    %c_125 = llvm.insertelement %b_108, %c_124[%15 : i32] : vector<2xf16> loc(#loc28)
    %c_126 = llvm.bitcast %c_125 : vector<2xf16> to i32 loc(#loc28)
    %c_127 = llvm.insertelement %b_111, %9[%20 : i32] : vector<2xf16> loc(#loc28)
    %c_128 = llvm.insertelement %b_112, %c_127[%15 : i32] : vector<2xf16> loc(#loc28)
    %c_129 = llvm.bitcast %c_128 : vector<2xf16> to i32 loc(#loc28)
    %c_130 = llvm.inline_asm has_side_effects asm_dialect = att operand_attrs = [] "mma.sync.aligned.m16n8k16.row.col.f32.f16.f16.f32 { $0, $1, $2, $3 }, { $8, $9, $10, $11 }, { $12, $13 }, { $4, $5, $6, $7 };", "=f,=f,=f,=f,0,1,2,3,r,r,r,r,r,r" %24, %24, %24, %24, %c_114, %c_117, %c_120, %c_123, %c_126, %c_129 : (f32, f32, f32, f32, i32, i32, i32, i32, i32, i32) -> !llvm.struct<(f32, f32, f32, f32)> loc(#loc28)
    %c_131 = llvm.extractvalue %c_130[0] : !llvm.struct<(f32, f32, f32, f32)>  loc(#loc28)
    %c_132 = llvm.extractvalue %c_130[1] : !llvm.struct<(f32, f32, f32, f32)>  loc(#loc28)
    %c_133 = llvm.extractvalue %c_130[2] : !llvm.struct<(f32, f32, f32, f32)>  loc(#loc28)
    %c_134 = llvm.extractvalue %c_130[3] : !llvm.struct<(f32, f32, f32, f32)>  loc(#loc28)
    %26 = llvm.getelementptr %c_ptr[%a_14] : (!llvm.ptr<1>, i32) -> !llvm.ptr<1>, f16 loc(#loc12)
    %27 = llvm.getelementptr %26[%a_21] : (!llvm.ptr<1>, i32) -> !llvm.ptr<1>, f16 loc(#loc13)
    %28 = llvm.fptrunc %c_131 : f32 to f16 loc(#loc14)
    %29 = llvm.fptrunc %c_132 : f32 to f16 loc(#loc14)
    %30 = llvm.fptrunc %c_133 : f32 to f16 loc(#loc14)
    %31 = llvm.fptrunc %c_134 : f32 to f16 loc(#loc14)
    nvvm.barrier0 loc(#loc14)
    %32 = llvm.and %a_6, %16 : i32 loc(#loc14)
    %33 = llvm.shl %32, %7 : i32 loc(#loc14)
    %34 = llvm.xor %20, %33 : i32 loc(#loc14)
    %35 = llvm.and %a_6, %6 : i32 loc(#loc14)
    %36 = llvm.lshr %35, %20 : i32 loc(#loc14)
    %37 = llvm.xor %34, %36 : i32 loc(#loc14)
    %38 = llvm.select %a_61, %20, %5 : i1, i32 loc(#loc14)
    %39 = llvm.xor %37, %38 : i32 loc(#loc14)
    %40 = llvm.and %a_6, %21 : i32 loc(#loc14)
    %41 = llvm.icmp "eq" %40, %20 : i32 loc(#loc14)
    %42 = llvm.select %41, %20, %4 : i1, i32 loc(#loc14)
    %43 = llvm.xor %39, %42 : i32 loc(#loc14)
    %44 = llvm.xor %20, %43 : i32 loc(#loc14)
    %45 = llvm.mul %20, %3 : i32 loc(#loc14)
    %46 = llvm.xor %44, %45 : i32 loc(#loc14)
    %47 = llvm.xor %46, %20 : i32 loc(#loc14)
    %48 = llvm.add %47, %20 : i32 loc(#loc14)
    %49 = llvm.getelementptr inbounds %13[%48] : (!llvm.ptr<3>, i32) -> !llvm.ptr<3>, i8 loc(#loc14)
    %50 = llvm.insertelement %28, %9[%20 : i32] : vector<2xf16> loc(#loc14)
    %51 = llvm.insertelement %29, %50[%15 : i32] : vector<2xf16> loc(#loc14)
    %52 = llvm.extractelement %51[%20 : i32] : vector<2xf16> loc(#loc14)
    %53 = llvm.extractelement %51[%15 : i32] : vector<2xf16> loc(#loc14)
    %54 = llvm.bitcast %52 : f16 to i16 loc(#loc14)
    %55 = llvm.bitcast %53 : f16 to i16 loc(#loc14)
    %56 = llvm.insertelement %54, %2[%20 : i32] : vector<2xi16> loc(#loc14)
    %57 = llvm.insertelement %55, %56[%15 : i32] : vector<2xi16> loc(#loc14)
    llvm.store %57, %49 {alignment = 4 : i64} : vector<2xi16>, !llvm.ptr<3> loc(#loc14)
    %58 = llvm.add %47, %1 : i32 loc(#loc14)
    %59 = llvm.getelementptr inbounds %13[%58] : (!llvm.ptr<3>, i32) -> !llvm.ptr<3>, i8 loc(#loc14)
    %60 = llvm.insertelement %30, %9[%20 : i32] : vector<2xf16> loc(#loc14)
    %61 = llvm.insertelement %31, %60[%15 : i32] : vector<2xf16> loc(#loc14)
    %62 = llvm.extractelement %61[%20 : i32] : vector<2xf16> loc(#loc14)
    %63 = llvm.extractelement %61[%15 : i32] : vector<2xf16> loc(#loc14)
    %64 = llvm.bitcast %62 : f16 to i16 loc(#loc14)
    %65 = llvm.bitcast %63 : f16 to i16 loc(#loc14)
    %66 = llvm.insertelement %64, %2[%20 : i32] : vector<2xi16> loc(#loc14)
    %67 = llvm.insertelement %65, %66[%15 : i32] : vector<2xi16> loc(#loc14)
    llvm.store %67, %59 {alignment = 4 : i64} : vector<2xi16>, !llvm.ptr<3> loc(#loc14)
    nvvm.barrier0 loc(#loc14)
    %68 = llvm.and %a_6, %18 : i32 loc(#loc14)
    %69 = llvm.shl %68, %7 : i32 loc(#loc14)
    %70 = llvm.xor %20, %69 : i32 loc(#loc14)
    %71 = llvm.and %a_6, %0 : i32 loc(#loc14)
    %72 = llvm.lshr %71, %15 : i32 loc(#loc14)
    %73 = llvm.xor %70, %72 : i32 loc(#loc14)
    %74 = llvm.select %41, %20, %5 : i1, i32 loc(#loc14)
    %75 = llvm.xor %73, %74 : i32 loc(#loc14)
    %76 = llvm.and %a_6, %4 : i32 loc(#loc14)
    %77 = llvm.icmp "eq" %76, %20 : i32 loc(#loc14)
    %78 = llvm.select %77, %20, %1 : i1, i32 loc(#loc14)
    %79 = llvm.xor %75, %78 : i32 loc(#loc14)
    %80 = llvm.xor %20, %79 : i32 loc(#loc14)
    %81 = llvm.xor %80, %45 : i32 loc(#loc14)
    %82 = llvm.xor %81, %20 : i32 loc(#loc14)
    %83 = llvm.add %82, %20 : i32 loc(#loc14)
    %84 = llvm.getelementptr inbounds %13[%83] : (!llvm.ptr<3>, i32) -> !llvm.ptr<3>, i8 loc(#loc14)
    %85 = llvm.load %84 {alignment = 4 : i64} : !llvm.ptr<3> -> vector<2xi16> loc(#loc14)
    %86 = llvm.extractelement %85[%20 : i32] : vector<2xi16> loc(#loc14)
    %87 = llvm.extractelement %85[%15 : i32] : vector<2xi16> loc(#loc14)
    %88 = llvm.insertelement %86, %2[%20 : i32] : vector<2xi16> loc(#loc14)
    %89 = llvm.insertelement %87, %88[%15 : i32] : vector<2xi16> loc(#loc14)
    %90 = llvm.extractelement %89[%20 : i32] : vector<2xi16> loc(#loc14)
    %91 = llvm.extractelement %89[%15 : i32] : vector<2xi16> loc(#loc14)
    %92 = llvm.bitcast %90 : i16 to f16 loc(#loc14)
    %93 = llvm.bitcast %91 : i16 to f16 loc(#loc14)
    %94 = llvm.insertelement %92, %9[%20 : i32] : vector<2xf16> loc(#loc14)
    %95 = llvm.insertelement %93, %94[%15 : i32] : vector<2xf16> loc(#loc14)
    %96 = llvm.extractelement %95[%20 : i32] : vector<2xf16> loc(#loc14)
    %97 = llvm.extractelement %95[%15 : i32] : vector<2xf16> loc(#loc14)
    %98 = llvm.insertelement %96, %9[%20 : i32] : vector<2xf16> loc(#loc14)
    %99 = llvm.insertelement %97, %98[%15 : i32] : vector<2xf16> loc(#loc14)
    %100 = llvm.bitcast %99 : vector<2xf16> to i32 loc(#loc14)
    %101 = llvm.inline_asm has_side_effects asm_dialect = att operand_attrs = [] "st.global.b32 [ $1 + 0 ], { $0 };", "r,l" %100, %27 : (i32, !llvm.ptr<1>) -> !llvm.void loc(#loc14)
    llvm.return loc(#loc15)
  } loc(#loc)
} loc(#loc)
#loc1 = loc(unknown)
#loc2 = loc("/home/meiziyuan/triton/test_tiny_gemm.py":19:29)
#loc3 = loc("/home/meiziyuan/triton/test_tiny_gemm.py":19:40)
#loc4 = loc("/home/meiziyuan/triton/test_tiny_gemm.py":19:24)
#loc5 = loc("/home/meiziyuan/triton/test_tiny_gemm.py":19:50)
#loc6 = loc("/home/meiziyuan/triton/test_tiny_gemm.py":19:45)
#loc7 = loc("/home/meiziyuan/triton/test_tiny_gemm.py":19:16)
#loc8 = loc("/home/meiziyuan/triton/test_tiny_gemm.py":20:24)
#loc9 = loc("/home/meiziyuan/triton/test_tiny_gemm.py":20:45)
#loc10 = loc("/home/meiziyuan/triton/test_tiny_gemm.py":20:16)
#loc11 = loc("/home/meiziyuan/triton/test_tiny_gemm.py":21:18)
#loc12 = loc("/home/meiziyuan/triton/test_tiny_gemm.py":22:21)
#loc13 = loc("/home/meiziyuan/triton/test_tiny_gemm.py":22:42)
#loc14 = loc("/home/meiziyuan/triton/test_tiny_gemm.py":22:57)
#loc15 = loc("/home/meiziyuan/triton/test_tiny_gemm.py":22:4)
#loc19 = loc("a"(#loc2))
#loc20 = loc("a"(#loc3))
#loc21 = loc("a"(#loc4))
#loc22 = loc("a"(#loc5))
#loc23 = loc("a"(#loc6))
#loc24 = loc("a"(#loc7))
#loc25 = loc("b"(#loc8))
#loc26 = loc("b"(#loc9))
#loc27 = loc("b"(#loc10))
#loc28 = loc("c"(#loc11))


// -----// IR Dump Before LLVMDIScope (enable-line-info) ('builtin.module' operation) //----- //
#loc = loc("/home/meiziyuan/triton/test_tiny_gemm.py":17:0)
#loc16 = loc("a_ptr"(#loc))
#loc17 = loc("b_ptr"(#loc))
#loc18 = loc("c_ptr"(#loc))
module attributes {triton.shared_layout = "vector:1->(0,1);bank:1->(1,0),2->(2,0),4->(0,2),8->(0,4),16->(0,8);segment:1->(8,0),2->(4,8);outdims:dim0->16,dim1->16;reps:0", ttg.global_scratch_memory_alignment = 1 : i32, ttg.global_scratch_memory_size = 0 : i32, "ttg.num-ctas" = 1 : i32, "ttg.num-warps" = 4 : i32, ttg.shared = 1024 : i32, ttg.target = "cuda:90", ttg.tensor_memory_size = 0 : i32, "ttg.threads-per-warp" = 32 : i32, "ttg.total-num-warps" = 4 : i32} {
  llvm.mlir.global external @global_smem() {addr_space = 3 : i32, alignment = 16 : i64} : !llvm.array<0 x i8> loc(#loc)
  llvm.func @tiny_matmul_kernel(%a_ptr: !llvm.ptr<1> {tt.divisibility = 16 : i32} loc("a_ptr"(#loc)), %b_ptr: !llvm.ptr<1> {tt.divisibility = 16 : i32} loc("b_ptr"(#loc)), %c_ptr: !llvm.ptr<1> {tt.divisibility = 16 : i32} loc("c_ptr"(#loc)), %arg3: !llvm.ptr<1> loc("/home/meiziyuan/triton/test_tiny_gemm.py":17:0)) attributes {noinline = false, nvvm.kernel = 1 : ui1, nvvm.reqntid = array<i32: 128>, ttg.global_scratch_memory_alignment = 1 : i32, ttg.global_scratch_memory_size = 0 : i32} {
    %0 = llvm.mlir.constant(24 : i32) : i32 loc(#loc1)
    %1 = llvm.mlir.constant(128 : i32) : i32 loc(#loc1)
    %2 = llvm.mlir.undef : vector<2xi16> loc(#loc1)
    %3 = llvm.mlir.constant(2 : i32) : i32 loc(#loc1)
    %4 = llvm.mlir.constant(64 : i32) : i32 loc(#loc1)
    %5 = llvm.mlir.constant(320 : i32) : i32 loc(#loc1)
    %6 = llvm.mlir.constant(12 : i32) : i32 loc(#loc1)
    %7 = llvm.mlir.constant(4 : i32) : i32 loc(#loc1)
    %8 = llvm.mlir.constant(11 : i32) : i32 loc(#loc1)
    %9 = llvm.mlir.undef : vector<2xf16> loc(#loc1)
    %10 = llvm.mlir.constant(72 : i32) : i32 loc(#loc1)
    %11 = llvm.mlir.constant(8 : i32) : i32 loc(#loc1)
    %12 = llvm.mlir.constant(23 : i32) : i32 loc(#loc1)
    %13 = llvm.mlir.addressof @global_smem : !llvm.ptr<3> loc(#loc1)
    %14 = llvm.mlir.constant(1 : index) : i32 loc(#loc1)
    %15 = llvm.mlir.constant(1 : i32) : i32 loc(#loc1)
    %16 = llvm.mlir.constant(3 : i32) : i32 loc(#loc1)
    %17 = llvm.mlir.constant(120 : i32) : i32 loc(#loc1)
    %18 = llvm.mlir.constant(7 : i32) : i32 loc(#loc1)
    %19 = llvm.mlir.constant(5 : i32) : i32 loc(#loc1)
    %20 = llvm.mlir.constant(0 : i32) : i32 loc(#loc1)
    %21 = llvm.mlir.constant(32 : i32) : i32 loc(#loc1)
    %22 = llvm.mlir.constant(127 : i32) : i32 loc(#loc1)
    %23 = llvm.mlir.constant(0 : index) : i32 loc(#loc1)
    %24 = llvm.mlir.constant(0.000000e+00 : f32) : f32 loc(#loc1)
    %25 = llvm.mlir.constant(16 : i32) : i32 loc(#loc1)
    %a = nvvm.read.ptx.sreg.tid.x : i32 loc(#loc19)
    %a_0 = llvm.and %a, %22 : i32 loc(#loc19)
    %a_1 = llvm.urem %a_0, %21 : i32 loc(#loc19)
    %a_2 = llvm.udiv %a_0, %21 : i32 loc(#loc19)
    %a_3 = llvm.shl %a_1, %20 : i32 loc(#loc19)
    %a_4 = llvm.or %20, %a_3 : i32 loc(#loc19)
    %a_5 = llvm.shl %a_2, %19 : i32 loc(#loc19)
    %a_6 = llvm.or %a_4, %a_5 : i32 loc(#loc19)
    %a_7 = llvm.or %a_6, %20 : i32 loc(#loc19)
    %a_8 = llvm.and %a_7, %17 : i32 loc(#loc19)
    %a_9 = llvm.lshr %a_8, %16 : i32 loc(#loc19)
    %a_10 = llvm.xor %20, %a_9 : i32 loc(#loc19)
    %a_11 = llvm.xor %20, %a_10 : i32 loc(#loc19)
    %a_12 = llvm.xor %a_11, %20 : i32 loc(#loc19)
    %a_13 = llvm.add %a_12, %23 : i32 loc(#loc19)
    %a_14 = llvm.mul %a_13, %25 : i32 loc(#loc20)
    %a_15 = llvm.getelementptr %a_ptr[%a_14] : (!llvm.ptr<1>, i32) -> !llvm.ptr<1>, f16 loc(#loc21)
    %a_16 = llvm.and %a_7, %18 : i32 loc(#loc22)
    %a_17 = llvm.shl %a_16, %15 : i32 loc(#loc22)
    %a_18 = llvm.xor %20, %a_17 : i32 loc(#loc22)
    %a_19 = llvm.xor %20, %a_18 : i32 loc(#loc22)
    %a_20 = llvm.xor %a_19, %20 : i32 loc(#loc22)
    %a_21 = llvm.add %a_20, %23 : i32 loc(#loc22)
    %a_22 = llvm.getelementptr %a_15[%a_21] : (!llvm.ptr<1>, i32) -> !llvm.ptr<1>, f16 loc(#loc23)
    %a_23 = llvm.inline_asm has_side_effects asm_dialect = att operand_attrs = [] "mov.u32 $0, 0x0;\0A\09ld.global.b32 { $0 }, [ $1 + 0 ];", "=r,l" %a_22 : (!llvm.ptr<1>) -> i32 loc(#loc24)
    %a_24 = llvm.bitcast %a_23 : i32 to vector<2xf16> loc(#loc24)
    %a_25 = llvm.extractelement %a_24[%23 : i32] : vector<2xf16> loc(#loc24)
    %a_26 = llvm.extractelement %a_24[%14 : i32] : vector<2xf16> loc(#loc24)
    %a_27 = llvm.shl %a_2, %16 : i32 loc(#loc24)
    %a_28 = llvm.or %a_4, %a_27 : i32 loc(#loc24)
    %a_29 = llvm.and %a_28, %12 : i32 loc(#loc24)
    %a_30 = llvm.shl %a_29, %16 : i32 loc(#loc24)
    %a_31 = llvm.xor %20, %a_30 : i32 loc(#loc24)
    %a_32 = llvm.and %a_28, %11 : i32 loc(#loc24)
    %a_33 = llvm.icmp "eq" %a_32, %20 : i32 loc(#loc24)
    %a_34 = llvm.select %a_33, %20, %10 : i1, i32 loc(#loc24)
    %a_35 = llvm.xor %a_31, %a_34 : i32 loc(#loc24)
    %a_36 = llvm.xor %20, %a_35 : i32 loc(#loc24)
    %a_37 = llvm.xor %a_36, %20 : i32 loc(#loc24)
    %a_38 = llvm.xor %a_37, %20 : i32 loc(#loc24)
    %a_39 = llvm.getelementptr inbounds %13[%a_38] : (!llvm.ptr<3>, i32) -> !llvm.ptr<3>, f16 loc(#loc24)
    %a_40 = llvm.insertelement %a_25, %9[%20 : i32] : vector<2xf16> loc(#loc24)
    %a_41 = llvm.insertelement %a_26, %a_40[%15 : i32] : vector<2xf16> loc(#loc24)
    %a_42 = llvm.bitcast %a_41 : vector<2xf16> to i32 loc(#loc24)
    llvm.inline_asm has_side_effects asm_dialect = att "stmatrix.sync.aligned.x1.m8n8.shared.b16 [$0], {$1};", "r,r" %a_39, %a_42 : (!llvm.ptr<3>, i32) -> () loc(#loc24)
    %b = llvm.getelementptr %b_ptr[%a_14] : (!llvm.ptr<1>, i32) -> !llvm.ptr<1>, f16 loc(#loc25)
    %b_43 = llvm.getelementptr %b[%a_21] : (!llvm.ptr<1>, i32) -> !llvm.ptr<1>, f16 loc(#loc26)
    %b_44 = llvm.inline_asm has_side_effects asm_dialect = att operand_attrs = [] "mov.u32 $0, 0x0;\0A\09ld.global.b32 { $0 }, [ $1 + 0 ];", "=r,l" %b_43 : (!llvm.ptr<1>) -> i32 loc(#loc27)
    %b_45 = llvm.bitcast %b_44 : i32 to vector<2xf16> loc(#loc27)
    %b_46 = llvm.extractelement %b_45[%23 : i32] : vector<2xf16> loc(#loc27)
    %b_47 = llvm.extractelement %b_45[%14 : i32] : vector<2xf16> loc(#loc27)
    %b_48 = llvm.getelementptr %13[512] : (!llvm.ptr<3>) -> !llvm.ptr<3>, i8 loc(#loc27)
    %b_49 = llvm.getelementptr inbounds %b_48[%a_38] : (!llvm.ptr<3>, i32) -> !llvm.ptr<3>, f16 loc(#loc27)
    %b_50 = llvm.insertelement %b_46, %9[%20 : i32] : vector<2xf16> loc(#loc27)
    %b_51 = llvm.insertelement %b_47, %b_50[%15 : i32] : vector<2xf16> loc(#loc27)
    %b_52 = llvm.bitcast %b_51 : vector<2xf16> to i32 loc(#loc27)
    llvm.inline_asm has_side_effects asm_dialect = att "stmatrix.sync.aligned.x1.m8n8.shared.b16 [$0], {$1};", "r,r" %b_49, %b_52 : (!llvm.ptr<3>, i32) -> () loc(#loc27)
    nvvm.barrier0 loc(#loc24)
    %a_53 = llvm.and %a_6, %8 : i32 loc(#loc24)
    %a_54 = llvm.shl %a_53, %7 : i32 loc(#loc24)
    %a_55 = llvm.xor %20, %a_54 : i32 loc(#loc24)
    %a_56 = llvm.and %a_6, %7 : i32 loc(#loc24)
    %a_57 = llvm.icmp "eq" %a_56, %20 : i32 loc(#loc24)
    %a_58 = llvm.select %a_57, %20, %10 : i1, i32 loc(#loc24)
    %a_59 = llvm.xor %a_55, %a_58 : i32 loc(#loc24)
    %a_60 = llvm.and %a_6, %25 : i32 loc(#loc24)
    %a_61 = llvm.icmp "eq" %a_60, %20 : i32 loc(#loc24)
    %a_62 = llvm.select %a_61, %20, %11 : i1, i32 loc(#loc24)
    %a_63 = llvm.xor %a_59, %a_62 : i32 loc(#loc24)
    %a_64 = llvm.xor %20, %a_63 : i32 loc(#loc24)
    %a_65 = llvm.xor %a_64, %20 : i32 loc(#loc24)
    %a_66 = llvm.xor %a_65, %20 : i32 loc(#loc24)
    %a_67 = llvm.getelementptr inbounds %13[%a_66] : (!llvm.ptr<3>, i32) -> !llvm.ptr<3>, f16 loc(#loc24)
    %a_68 = llvm.ptrtoint %a_67 : !llvm.ptr<3> to i32 loc(#loc24)
    %a_69 = llvm.inline_asm has_side_effects asm_dialect = att operand_attrs = [] "ldmatrix.sync.aligned.m8n8.x4.shared.b16 {$0, $1, $2, $3}, [$4];", "=r,=r,=r,=r,r" %a_68 : (i32) -> !llvm.struct<(i32, i32, i32, i32)> loc(#loc24)
    %a_70 = llvm.extractvalue %a_69[0] : !llvm.struct<(i32, i32, i32, i32)>  loc(#loc24)
    %a_71 = llvm.bitcast %a_70 : i32 to vector<2xf16> loc(#loc24)
    %a_72 = llvm.extractelement %a_71[%20 : i32] : vector<2xf16> loc(#loc24)
    %a_73 = llvm.extractelement %a_71[%15 : i32] : vector<2xf16> loc(#loc24)
    %a_74 = llvm.extractvalue %a_69[1] : !llvm.struct<(i32, i32, i32, i32)>  loc(#loc24)
    %a_75 = llvm.bitcast %a_74 : i32 to vector<2xf16> loc(#loc24)
    %a_76 = llvm.extractelement %a_75[%20 : i32] : vector<2xf16> loc(#loc24)
    %a_77 = llvm.extractelement %a_75[%15 : i32] : vector<2xf16> loc(#loc24)
    %a_78 = llvm.extractvalue %a_69[2] : !llvm.struct<(i32, i32, i32, i32)>  loc(#loc24)
    %a_79 = llvm.bitcast %a_78 : i32 to vector<2xf16> loc(#loc24)
    %a_80 = llvm.extractelement %a_79[%20 : i32] : vector<2xf16> loc(#loc24)
    %a_81 = llvm.extractelement %a_79[%15 : i32] : vector<2xf16> loc(#loc24)
    %a_82 = llvm.extractvalue %a_69[3] : !llvm.struct<(i32, i32, i32, i32)>  loc(#loc24)
    %a_83 = llvm.bitcast %a_82 : i32 to vector<2xf16> loc(#loc24)
    %a_84 = llvm.extractelement %a_83[%20 : i32] : vector<2xf16> loc(#loc24)
    %a_85 = llvm.extractelement %a_83[%15 : i32] : vector<2xf16> loc(#loc24)
    %b_86 = llvm.shl %a_2, %7 : i32 loc(#loc27)
    %b_87 = llvm.or %a_4, %b_86 : i32 loc(#loc27)
    %b_88 = llvm.and %b_87, %8 : i32 loc(#loc27)
    %b_89 = llvm.shl %b_88, %7 : i32 loc(#loc27)
    %b_90 = llvm.xor %20, %b_89 : i32 loc(#loc27)
    %b_91 = llvm.and %b_87, %7 : i32 loc(#loc27)
    %b_92 = llvm.icmp "eq" %b_91, %20 : i32 loc(#loc27)
    %b_93 = llvm.select %b_92, %20, %10 : i1, i32 loc(#loc27)
    %b_94 = llvm.xor %b_90, %b_93 : i32 loc(#loc27)
    %b_95 = llvm.and %b_87, %25 : i32 loc(#loc27)
    %b_96 = llvm.icmp "eq" %b_95, %20 : i32 loc(#loc27)
    %b_97 = llvm.select %b_96, %20, %11 : i1, i32 loc(#loc27)
    %b_98 = llvm.xor %b_94, %b_97 : i32 loc(#loc27)
    %b_99 = llvm.xor %20, %b_98 : i32 loc(#loc27)
    %b_100 = llvm.xor %b_99, %20 : i32 loc(#loc27)
    %b_101 = llvm.xor %b_100, %20 : i32 loc(#loc27)
    %b_102 = llvm.getelementptr inbounds %b_48[%b_101] : (!llvm.ptr<3>, i32) -> !llvm.ptr<3>, f16 loc(#loc27)
    %b_103 = llvm.ptrtoint %b_102 : !llvm.ptr<3> to i32 loc(#loc27)
    %b_104 = llvm.inline_asm has_side_effects asm_dialect = att operand_attrs = [] "ldmatrix.sync.aligned.m8n8.x2.trans.shared.b16 {$0, $1}, [$2];", "=r,=r,r" %b_103 : (i32) -> !llvm.struct<(i32, i32)> loc(#loc27)
    %b_105 = llvm.extractvalue %b_104[0] : !llvm.struct<(i32, i32)>  loc(#loc27)
    %b_106 = llvm.bitcast %b_105 : i32 to vector<2xf16> loc(#loc27)
    %b_107 = llvm.extractelement %b_106[%20 : i32] : vector<2xf16> loc(#loc27)
    %b_108 = llvm.extractelement %b_106[%15 : i32] : vector<2xf16> loc(#loc27)
    %b_109 = llvm.extractvalue %b_104[1] : !llvm.struct<(i32, i32)>  loc(#loc27)
    %b_110 = llvm.bitcast %b_109 : i32 to vector<2xf16> loc(#loc27)
    %b_111 = llvm.extractelement %b_110[%20 : i32] : vector<2xf16> loc(#loc27)
    %b_112 = llvm.extractelement %b_110[%15 : i32] : vector<2xf16> loc(#loc27)
    %c = llvm.insertelement %a_72, %9[%20 : i32] : vector<2xf16> loc(#loc28)
    %c_113 = llvm.insertelement %a_73, %c[%15 : i32] : vector<2xf16> loc(#loc28)
    %c_114 = llvm.bitcast %c_113 : vector<2xf16> to i32 loc(#loc28)
    %c_115 = llvm.insertelement %a_76, %9[%20 : i32] : vector<2xf16> loc(#loc28)
    %c_116 = llvm.insertelement %a_77, %c_115[%15 : i32] : vector<2xf16> loc(#loc28)
    %c_117 = llvm.bitcast %c_116 : vector<2xf16> to i32 loc(#loc28)
    %c_118 = llvm.insertelement %a_80, %9[%20 : i32] : vector<2xf16> loc(#loc28)
    %c_119 = llvm.insertelement %a_81, %c_118[%15 : i32] : vector<2xf16> loc(#loc28)
    %c_120 = llvm.bitcast %c_119 : vector<2xf16> to i32 loc(#loc28)
    %c_121 = llvm.insertelement %a_84, %9[%20 : i32] : vector<2xf16> loc(#loc28)
    %c_122 = llvm.insertelement %a_85, %c_121[%15 : i32] : vector<2xf16> loc(#loc28)
    %c_123 = llvm.bitcast %c_122 : vector<2xf16> to i32 loc(#loc28)
    %c_124 = llvm.insertelement %b_107, %9[%20 : i32] : vector<2xf16> loc(#loc28)
    %c_125 = llvm.insertelement %b_108, %c_124[%15 : i32] : vector<2xf16> loc(#loc28)
    %c_126 = llvm.bitcast %c_125 : vector<2xf16> to i32 loc(#loc28)
    %c_127 = llvm.insertelement %b_111, %9[%20 : i32] : vector<2xf16> loc(#loc28)
    %c_128 = llvm.insertelement %b_112, %c_127[%15 : i32] : vector<2xf16> loc(#loc28)
    %c_129 = llvm.bitcast %c_128 : vector<2xf16> to i32 loc(#loc28)
    %c_130 = llvm.inline_asm has_side_effects asm_dialect = att operand_attrs = [] "mma.sync.aligned.m16n8k16.row.col.f32.f16.f16.f32 { $0, $1, $2, $3 }, { $8, $9, $10, $11 }, { $12, $13 }, { $4, $5, $6, $7 };", "=f,=f,=f,=f,0,1,2,3,r,r,r,r,r,r" %24, %24, %24, %24, %c_114, %c_117, %c_120, %c_123, %c_126, %c_129 : (f32, f32, f32, f32, i32, i32, i32, i32, i32, i32) -> !llvm.struct<(f32, f32, f32, f32)> loc(#loc28)
    %c_131 = llvm.extractvalue %c_130[0] : !llvm.struct<(f32, f32, f32, f32)>  loc(#loc28)
    %c_132 = llvm.extractvalue %c_130[1] : !llvm.struct<(f32, f32, f32, f32)>  loc(#loc28)
    %c_133 = llvm.extractvalue %c_130[2] : !llvm.struct<(f32, f32, f32, f32)>  loc(#loc28)
    %c_134 = llvm.extractvalue %c_130[3] : !llvm.struct<(f32, f32, f32, f32)>  loc(#loc28)
    %26 = llvm.getelementptr %c_ptr[%a_14] : (!llvm.ptr<1>, i32) -> !llvm.ptr<1>, f16 loc(#loc12)
    %27 = llvm.getelementptr %26[%a_21] : (!llvm.ptr<1>, i32) -> !llvm.ptr<1>, f16 loc(#loc13)
    %28 = llvm.fptrunc %c_131 : f32 to f16 loc(#loc14)
    %29 = llvm.fptrunc %c_132 : f32 to f16 loc(#loc14)
    %30 = llvm.fptrunc %c_133 : f32 to f16 loc(#loc14)
    %31 = llvm.fptrunc %c_134 : f32 to f16 loc(#loc14)
    nvvm.barrier0 loc(#loc14)
    %32 = llvm.and %a_6, %16 : i32 loc(#loc14)
    %33 = llvm.shl %32, %7 : i32 loc(#loc14)
    %34 = llvm.xor %20, %33 : i32 loc(#loc14)
    %35 = llvm.and %a_6, %6 : i32 loc(#loc14)
    %36 = llvm.lshr %35, %20 : i32 loc(#loc14)
    %37 = llvm.xor %34, %36 : i32 loc(#loc14)
    %38 = llvm.select %a_61, %20, %5 : i1, i32 loc(#loc14)
    %39 = llvm.xor %37, %38 : i32 loc(#loc14)
    %40 = llvm.and %a_6, %21 : i32 loc(#loc14)
    %41 = llvm.icmp "eq" %40, %20 : i32 loc(#loc14)
    %42 = llvm.select %41, %20, %4 : i1, i32 loc(#loc14)
    %43 = llvm.xor %39, %42 : i32 loc(#loc14)
    %44 = llvm.xor %20, %43 : i32 loc(#loc14)
    %45 = llvm.mul %20, %3 : i32 loc(#loc14)
    %46 = llvm.xor %44, %45 : i32 loc(#loc14)
    %47 = llvm.xor %46, %20 : i32 loc(#loc14)
    %48 = llvm.add %47, %20 : i32 loc(#loc14)
    %49 = llvm.getelementptr inbounds %13[%48] : (!llvm.ptr<3>, i32) -> !llvm.ptr<3>, i8 loc(#loc14)
    %50 = llvm.insertelement %28, %9[%20 : i32] : vector<2xf16> loc(#loc14)
    %51 = llvm.insertelement %29, %50[%15 : i32] : vector<2xf16> loc(#loc14)
    %52 = llvm.extractelement %51[%20 : i32] : vector<2xf16> loc(#loc14)
    %53 = llvm.extractelement %51[%15 : i32] : vector<2xf16> loc(#loc14)
    %54 = llvm.bitcast %52 : f16 to i16 loc(#loc14)
    %55 = llvm.bitcast %53 : f16 to i16 loc(#loc14)
    %56 = llvm.insertelement %54, %2[%20 : i32] : vector<2xi16> loc(#loc14)
    %57 = llvm.insertelement %55, %56[%15 : i32] : vector<2xi16> loc(#loc14)
    llvm.store %57, %49 {alignment = 4 : i64} : vector<2xi16>, !llvm.ptr<3> loc(#loc14)
    %58 = llvm.add %47, %1 : i32 loc(#loc14)
    %59 = llvm.getelementptr inbounds %13[%58] : (!llvm.ptr<3>, i32) -> !llvm.ptr<3>, i8 loc(#loc14)
    %60 = llvm.insertelement %30, %9[%20 : i32] : vector<2xf16> loc(#loc14)
    %61 = llvm.insertelement %31, %60[%15 : i32] : vector<2xf16> loc(#loc14)
    %62 = llvm.extractelement %61[%20 : i32] : vector<2xf16> loc(#loc14)
    %63 = llvm.extractelement %61[%15 : i32] : vector<2xf16> loc(#loc14)
    %64 = llvm.bitcast %62 : f16 to i16 loc(#loc14)
    %65 = llvm.bitcast %63 : f16 to i16 loc(#loc14)
    %66 = llvm.insertelement %64, %2[%20 : i32] : vector<2xi16> loc(#loc14)
    %67 = llvm.insertelement %65, %66[%15 : i32] : vector<2xi16> loc(#loc14)
    llvm.store %67, %59 {alignment = 4 : i64} : vector<2xi16>, !llvm.ptr<3> loc(#loc14)
    nvvm.barrier0 loc(#loc14)
    %68 = llvm.and %a_6, %18 : i32 loc(#loc14)
    %69 = llvm.shl %68, %7 : i32 loc(#loc14)
    %70 = llvm.xor %20, %69 : i32 loc(#loc14)
    %71 = llvm.and %a_6, %0 : i32 loc(#loc14)
    %72 = llvm.lshr %71, %15 : i32 loc(#loc14)
    %73 = llvm.xor %70, %72 : i32 loc(#loc14)
    %74 = llvm.select %41, %20, %5 : i1, i32 loc(#loc14)
    %75 = llvm.xor %73, %74 : i32 loc(#loc14)
    %76 = llvm.and %a_6, %4 : i32 loc(#loc14)
    %77 = llvm.icmp "eq" %76, %20 : i32 loc(#loc14)
    %78 = llvm.select %77, %20, %1 : i1, i32 loc(#loc14)
    %79 = llvm.xor %75, %78 : i32 loc(#loc14)
    %80 = llvm.xor %20, %79 : i32 loc(#loc14)
    %81 = llvm.xor %80, %45 : i32 loc(#loc14)
    %82 = llvm.xor %81, %20 : i32 loc(#loc14)
    %83 = llvm.add %82, %20 : i32 loc(#loc14)
    %84 = llvm.getelementptr inbounds %13[%83] : (!llvm.ptr<3>, i32) -> !llvm.ptr<3>, i8 loc(#loc14)
    %85 = llvm.load %84 {alignment = 4 : i64} : !llvm.ptr<3> -> vector<2xi16> loc(#loc14)
    %86 = llvm.extractelement %85[%20 : i32] : vector<2xi16> loc(#loc14)
    %87 = llvm.extractelement %85[%15 : i32] : vector<2xi16> loc(#loc14)
    %88 = llvm.insertelement %86, %2[%20 : i32] : vector<2xi16> loc(#loc14)
    %89 = llvm.insertelement %87, %88[%15 : i32] : vector<2xi16> loc(#loc14)
    %90 = llvm.extractelement %89[%20 : i32] : vector<2xi16> loc(#loc14)
    %91 = llvm.extractelement %89[%15 : i32] : vector<2xi16> loc(#loc14)
    %92 = llvm.bitcast %90 : i16 to f16 loc(#loc14)
    %93 = llvm.bitcast %91 : i16 to f16 loc(#loc14)
    %94 = llvm.insertelement %92, %9[%20 : i32] : vector<2xf16> loc(#loc14)
    %95 = llvm.insertelement %93, %94[%15 : i32] : vector<2xf16> loc(#loc14)
    %96 = llvm.extractelement %95[%20 : i32] : vector<2xf16> loc(#loc14)
    %97 = llvm.extractelement %95[%15 : i32] : vector<2xf16> loc(#loc14)
    %98 = llvm.insertelement %96, %9[%20 : i32] : vector<2xf16> loc(#loc14)
    %99 = llvm.insertelement %97, %98[%15 : i32] : vector<2xf16> loc(#loc14)
    %100 = llvm.bitcast %99 : vector<2xf16> to i32 loc(#loc14)
    %101 = llvm.inline_asm has_side_effects asm_dialect = att operand_attrs = [] "st.global.b32 [ $1 + 0 ], { $0 };", "r,l" %100, %27 : (i32, !llvm.ptr<1>) -> !llvm.void loc(#loc14)
    llvm.return loc(#loc15)
  } loc(#loc)
} loc(#loc)
#loc1 = loc(unknown)
#loc2 = loc("/home/meiziyuan/triton/test_tiny_gemm.py":19:29)
#loc3 = loc("/home/meiziyuan/triton/test_tiny_gemm.py":19:40)
#loc4 = loc("/home/meiziyuan/triton/test_tiny_gemm.py":19:24)
#loc5 = loc("/home/meiziyuan/triton/test_tiny_gemm.py":19:50)
#loc6 = loc("/home/meiziyuan/triton/test_tiny_gemm.py":19:45)
#loc7 = loc("/home/meiziyuan/triton/test_tiny_gemm.py":19:16)
#loc8 = loc("/home/meiziyuan/triton/test_tiny_gemm.py":20:24)
#loc9 = loc("/home/meiziyuan/triton/test_tiny_gemm.py":20:45)
#loc10 = loc("/home/meiziyuan/triton/test_tiny_gemm.py":20:16)
#loc11 = loc("/home/meiziyuan/triton/test_tiny_gemm.py":21:18)
#loc12 = loc("/home/meiziyuan/triton/test_tiny_gemm.py":22:21)
#loc13 = loc("/home/meiziyuan/triton/test_tiny_gemm.py":22:42)
#loc14 = loc("/home/meiziyuan/triton/test_tiny_gemm.py":22:57)
#loc15 = loc("/home/meiziyuan/triton/test_tiny_gemm.py":22:4)
#loc19 = loc("a"(#loc2))
#loc20 = loc("a"(#loc3))
#loc21 = loc("a"(#loc4))
#loc22 = loc("a"(#loc5))
#loc23 = loc("a"(#loc6))
#loc24 = loc("a"(#loc7))
#loc25 = loc("b"(#loc8))
#loc26 = loc("b"(#loc9))
#loc27 = loc("b"(#loc10))
#loc28 = loc("c"(#loc11))


Test passed!
